weights_old/cm.pt (torch, 4733 bytes, 1 tensors)

weight f4 [1, 768]
00000000: cd7e 8ebd 7f90 91bd 131a d13c cd67 ee3c
00000010: a9e5 38bd 3fbf f1bc fab5 663a ce14 c2bc
00000020: 873f ad3c 9bcf 2f3d 24ad fe3d b270 17bd
00000030: bf44 bdbc 8aaf 60bd 9d33 cc3c 7990 0cbd
00000040: 56b5 d63c 69b7 1ebd 1526 6dbd 9d39 fe3c
00000050: 7294 9fbd f60b 253b afb7 e1bc 2c4d a23b
00000060: 3270 3c3d 981b bf3a 47e7 d53c d24e 32bd
00000070: 4a20 42bc 8a41 143d 37ea 373d 0b9c e2bb
00000080: 09ec 893c 5c53 babd 1d59 493c 09c7 7ebb
00000090: f6c1 a13d 3ad8 71bb 9d9b 29bd ab15 0dbd
000000a0: b563 293d bff5 5ebc 0bc5 a5bc 29c9 b43c
000000b0: 96e1 053a 3346 27bd 288d 1c3d 5ea6 723d
000000c0: 775c 96bd 6ab4 17bc 6181 78bb e984 8bbd
000000d0: f152 e53c f3ae 133c 82ec 363c 298b 983d
000000e0: 11eb 08bb 8e76 12bd ab43 463d 278a f3bc
000000f0: 69fe fdbb f0b9 7fbb 7673 ccbb 62aa 843d
00000100: f4bc 8d3d ebb2 f3bb bb79 b83c a715 86bc
00000110: 2b60 32bd 8ffe 023d 93cd a93d c05b 07bd
00000120: e977 563c 1dab a43c cb74 bc3c cd92 8e3d
00000130: 3cf2 f43c 98d1 093c 4397 d33d 4d50 a63c
00000140: 4b0f 1c3c 78b1 f03c d72f 383d f002 40bd
00000150: dc9f 1abd 3588 5c3d 3cce 21bc 78dd 31bd
00000160: 6336 9b3c bd02 ab3d 3837 4b3d 9415 b6bb
00000170: f409 bb3c 0007 7e3d ea73 083c efb7 6b3c
00000180: 88c3 21bc a7a5 843c 52de b3bc aef0 3f3d
00000190: 564d 80bd d736 29ba 81b6 73bd 27ea e63b
000001a0: acbf 96bb 3dde efbc 1c95 99bc 59e4 c0bd
000001b0: 5d7a 323c 79d6 a63c ad75 193c 3c10 ea3c
000001c0: 4876 a8bc 412a 833d 0932 5abd 438a 8fbd
000001d0: 6a37 9e3c 96bb 90bc 1797 083d b811 85bc
000001e0: aba7 fe3c b949 ffbc c104 863d 5da9 763d
000001f0: 437d 6ab9 02ad bdbc 0a2a 1cbd 7cb8 5fbd
00000200: 7ebd 843c 2cb3 263c 2a06 003a d8fa 573d
00000210: 9e36 97bc 92e5 38bd 2484 d53a 6913 96bd
00000220: 707e 7bbd d184 ba3b 6e25 8d3c 9f90 6fbd
00000230: 0da6 373d 2d4a 443c fb31 4a3d 1477 9a3c
00000240: ff2b f73b ebbc 943d 2049 913c 0bd3 b53d
00000250: 36ea 56bd 0899 fd3b 8f0f 10ba afb2 19bc
00000260: afd0 3cbb 560c 0c3d 3290 93bd 7142 8bbb
00000270: 94b1 923c a144 0abd da87 48bd 36de afbc
00000280: ec68 8dbd e6e9 553d a5b2 d83c 9569 41bd
00000290: 6b86 943b 1f6f c3bc 4f2d adbc 2120 ac3c
000002a0: 803c 25bd 1c7b 9a3c c308 18bd 03d1 43bc
000002b0: 7965 3ebc eee8 e23c a4d5 513c a83b d53c
000002c0: 8ad5 963c 2821 31bd bd04 83bc 12fb 94bc
000002d0: 7c5c 1c3d bd59 1a3b e746 8f3b 2661 9f3d
000002e0: f679 76bc 3128 1abd b5de 7c3c 64a4 29bd
000002f0: 569f 23bd 94c1 0d3d 8797 d8bb dc6c 80bc
00000300: 6257 2fbd 6204 acbc e27d 7ebc 8ae9 a7bd
00000310: 4dd7 a73c cd40 703d c199 5e3c 69f1 523d
00000320: ef12 e5bc d51b 12bd c366 253d c7f0 91bc
00000330: a223 78bd 82b9 b33c ce2b ac3c a677 8c3d
00000340: 1c84 b53d 6134 1d3d 2c49 e33c a5b5 773d
00000350: 2578 7f3d 7b97 1b3d 655c fbbb 9064 d83c
00000360: f058 7c3c d765 cf3c 74db 63bd d1db dd3c
00000370: f0ef a7bc dcd9 ff3a 3721 a33b 327a 543d
00000380: c3d6 d53d 996f 383c e719 2f3d 1b5c 853c
00000390: 1832 5d3a 4a6f 63bd 94b1 fdbb 83ee 883c
000003a0: cf5f debc a0ef a13c 18e1 623c 2d56 783d
000003b0: 2014 fdbd 9b7f a8bc b7f7 0e3d 6ff8 533c
000003c0: f5b1 963b 69f8 7abd e001 a73c 6ddf 11bd
000003d0: cf2b d93c dd02 69bd 9a6a c03b 7265 c1bb
000003e0: f391 4cbd 34ad 213d ad3b 4cba 020d e33c
000003f0: 8276 d9ba f444 a83d d6ad bebc 0915 3f3d
-0.06957779 -0.071076386 0.025525128 0.02910223 -0.045140896 -0.029510139 0.00088009203 -0.023691561
0.021148456 0.042922597 0.12435368 -0.03697271 -0.02310407 -0.054854907 0.024926955 -0.034317467
0.026209515 -0.038749132 -0.057897646 0.031033332 -0.077919856 0.0025184131 -0.027553407 0.0049530473
0.046005435 0.0014580367 0.026111258 -0.0435322 -0.011848519 0.036195315 0.0449011 -0.0069155744
0.016836183 -0.09097931 0.012289313 -0.0038875958 0.07898323 -0.0036902563 -0.04140817 -0.034444492
0.041354854 -0.013608395 -0.020235559 0.022068577 0.0005107162 -0.04083843 0.038220555 0.05924069
-0.07341855 -0.009259323 -0.0037918913 -0.0681246 0.027993651 0.009013879 0.011164786 0.07448418
-0.0020892064 -0.035757594 0.048404377 -0.029728962 -0.0077512753 -0.003902074 -0.00623935 0.064778104
0.069208056 -0.0074371 0.022518983 -0.016367747 -0.043548744 0.031981047 0.08291163 -0.033046484
0.013090112 0.020101124 0.02300491 0.06961594 0.029900663 0.008411787 0.10331585 0.020301962
0.0095251305 0.029381499 0.0449675 -0.0468778 -0.03775011 0.053840835 -0.00987583 -0.0434241
0.018946832 0.08350132 0.049613208 -0.0055567715 0.022831894 0.062018394 0.008328417 0.014387115
-0.009873278 0.01619227 -0.021956597 0.04686039 -0.06264751 -0.000645501 -0.05950022 0.007046956
-0.004600486 -0.029280776 -0.018747859 -0.09418554 0.0108934315 0.02036594 0.009366435 0.028572194
-0.020564213 0.06404544 -0.053270373 -0.07008793 0.019313533 -0.017667573 0.033347216 -0.0162438
0.03108581 -0.031163083 0.065438755 0.06022011 -0.00022362643 -0.023153786 -0.03812603 -0.054619297
0.016203638 0.010174554 0.0004883731 0.052729458 -0.01845866 -0.04514081 0.0016289991 -0.07327921
-0.061399877 0.0056921025 0.017229762 -0.05848753 0.044836093 0.0119805755 0.04936407 0.018855609
0.0075430865 0.07262596 0.017735064 0.08878144 -0.052469455 0.00773919 -0.00054954825 -0.00938098
-0.0028810909 0.034191452 -0.072052374 -0.004249864 0.017906941 -0.033756856 -0.048957683 -0.021468263
-0.06904778 0.052225016 0.026452372 -0.04721983 0.0045326254 -0.023856698 -0.021139769 0.021011414
-0.0403409 0.018857531 -0.03711773 -0.011951688 -0.011620873 0.02769896 0.012807284 0.026029423
0.01841237 -0.04324451 -0.01599347 -0.018186126 0.038174137 0.0023552023 0.004372466 0.077822015
-0.015043726 -0.037635986 0.015433957 -0.04141654 -0.039946876 0.03460844 -0.0066098603 -0.015676908
-0.042807944 -0.020998184 -0.0155329425 -0.08198841 0.020488406 0.05865555 0.0135864625 0.051499758
-0.02796313 -0.035671074 0.040381204 -0.017815007 -0.060580857 0.021939043 0.021016981 0.06858759
0.088630885 0.03838003 0.027744852 0.060475964 0.062370438 0.03798626 -0.0076709264 0.02641514
0.015402064 0.025317116 -0.05562921 0.027082356 -0.020500153 0.0019519883 0.0049783248 0.051874347
0.10441353 0.011257076 0.04274931 0.01627927 0.00084379455 -0.055526055 -0.007742116 0.016715294
-0.027145294 0.019767582 0.013847612 0.06062906 -0.12357354 -0.02056866 0.034904208 0.012937649
0.004598851 -0.06127206 0.020386636 -0.035613466 0.026510147 -0.056887496 0.005872083 -0.005901986
-0.049943876 0.03947182 -0.0007790875 0.027716164 -0.0016591104 0.08216277 -0.02327625 0.04665092
