weights_old/ethics.pt (torch, 4893 bytes, 1 tensors)

weight f4 [1, 768]
0	0xbe2001f5	-0.15625747
1	0xbe4bbce4	-0.19896275
2	0x3c81a7c3	0.015827065
3	0xbd578b59	-0.052623127
4	0xbdaa36e5	-0.083112516
5	0xbcea0cc0	-0.028570533
6	0x3cc19415	0.023630181
7	0xbcbc1a9d	-0.022961909
8	0xbcb0eeb9	-0.021598207
9	0x3cb5cd8d	0.02219274
10	0x3d996b8b	0.07491215
11	0xbc3df25e	-0.011593429
12	0x3bbf5563	0.0058390363
13	0xbdc04eb4	-0.093900114
14	0xbcdafe8e	-0.02673271
15	0xbcc162c0	-0.023606658
16	0x3b9b0557	0.004730861
17	0xbd7fc6ef	-0.062445577
18	0xbca8706c	-0.02056142
19	0x3cf67c0c	0.030088447
20	0xbda3a5c6	-0.07990603
21	0x3cca802a	0.024719317
22	0xbce70e9f	-0.028205214
23	0xbd445fed	-0.047943044
24	0x3d72eb2b	0.059306305
25	0x3cf65287	0.030068649
26	0xbdae5914	-0.08513084
27	0xbd5940e2	-0.053040393
28	0x3d20cbb1	0.039256755
29	0x3c6fcdb8	0.0146364495
30	0x3db5b4c7	0.08872371
31	0xbdde1395	-0.10843579
32	0x3d91e219	0.07123203
33	0xbd486902	-0.04892827
34	0x3cbbc628	0.022921637
35	0xbce5c4cd	-0.028047943
36	0x3d19f277	0.037584748
37	0xbd747e13	-0.059690546
38	0xbc8b03d2	-0.016969595
39	0xbdf87f8e	-0.12133704
40	0xbd2096db	-0.039206367
41	0xbc830108	-0.015991703
42	0x3d282079	0.041046593
43	0x3c22576d	0.009908539
44	0x3d3a556f	0.045491632
45	0xbda7cf9f	-0.081938975
46	0x3cea836c	0.02862712
47	0x3c1f2cc6	0.009715265
48	0xbd8e4b40	-0.069479465
49	0x3bc3b5d7	0.0059726047
50	0x3b810df5	0.0039384314
51	0xbd174e7f	-0.036940094
52	0x3e693220	0.22773027
53	0x3d6504d4	0.055912808
54	0xbde0142f	-0.1094135
55	0x3da9c9ff	0.08290481
56	0xbd0424d9	-0.032261703
57	0xbdab6be2	-0.083701864
58	0x3c307b31	0.010771559
59	0xbd30419e	-0.043031327
60	0x3d307d3c	0.043088183
61	0x3bfba980	0.007680118
62	0xbb3317e1	-0.0027327465
63	0xbd6d6aab	-0.057963055
64	0x3c16aac6	0.009195989
65	0x3c8f1aac	0.017468773
66	0x3cbf8982	0.023380999
67	0xbde51d43	-0.11187222
68	0x3c90e0cc	0.017685317
69	0x3b65027e	0.0034944112
70	0x3e1cab13	0.15299635
71	0xbd2d7d36	-0.04235574
72	0x3cd51717	0.026011987
73	0xbdcbc946	-0.09950499
74	0x3cbab5c1	0.022791745
75	0x3e04efbe	0.1298208
76	0xbd1d45bf	-0.038396593
77	0xbd2050b4	-0.039139464
78	0x3e0b8105	0.13623436
79	0x3be08a79	0.0068524447
80	0x3dd2727c	0.102757424
81	0x3d8108ce	0.063005075
82	0x3d108e99	0.03529224
83	0xbdba4547	-0.09095245
84	0xbca99f7e	-0.020705935
85	0xbd762ac5	-0.060099382
86	0xbcc3a252	-0.023881111
87	0x3ca3ebd8	0.02000992
88	0xbddf700c	-0.10910043
89	0x3d24b095	0.040207464
90	0x3d466f99	0.04844627
91	0x3d95ffdd	0.07324193
92	0x3dbf42a7	0.09338885
93	0x3cc200cc	0.02368202
94	0x3bc15ab8	0.005900707
95	0x3cc40307	0.023927225
96	0xbbc56d71	-0.0060250093
97	0x3c337d3b	0.01095515
98	0xbe348085	-0.17627151
99	0x3de47cc4	0.1115661
100	0xbd9ddbb3	-0.0770792
101	0x3d1eb989	0.03875116
102	0xbd7658c1	-0.060143236
103	0xbc456849	-0.012048789
104	0x3d9616ff	0.07328605
105	0xbd1bb465	-0.038013835
106	0x3deba287	0.11505609
107	0xbe04249f	-0.12904595
108	0x3d7e78a4	0.06212677
109	0xbd5c81b7	-0.053834643
110	0x3ba145bd	0.0049216435
111	0xbcd76750	-0.02629438
112	0xbdaee6a9	-0.08540089
113	0x3e0fb170	0.14032531
114	0xbb690a8d	-0.0035559267
115	0xbd6ec913	-0.058297228
116	0x3d6080ec	0.05481045
117	0xbd863a2d	-0.06554065
118	0x3d87a4e9	0.06623251
119	0xbd9767bd	-0.073928334
120	0x3ca328e4	0.01991696
121	0xbd6e6d57	-0.058209743
122	0x3daf3ac1	0.08556128
123	0x3db02cac	0.086022705
124	0xbc875475	-0.016519764
125	0x3d9687af	0.07350098
126	0x3b7d37e9	0.0038638061
127	0xbd65c2e8	-0.05609408
128	0x3d972555	0.073801674
129	0x3c9fdf2c	0.019515596
130	0x3d3259b1	0.043542568
131	0x3d0c26c3	0.034216654
132	0xbd269523	-0.04066957
133	0xbd546ffc	-0.05186461
134	0x3b1d2dd6	0.002398362
135	0xbe014359	-0.12623347
136	0xbd3dc771	-0.04633278
137	0x3d0be506	0.03415396
138	0xbd328579	-0.04358432
139	0xbc750076	-0.014953723
140	0x3d16b598	0.036794275
141	0xbc5ec358	-0.013596378
142	0x3d211d8e	0.039334826
143	0x3d575e8e	0.05258041
144	0x3e18b5c2	0.14913085
145	0x3c8c638c	0.017137311
146	0xbb897c67	-0.004195738
147	0x3d84f3ee	0.064918384
148	0xbb89df77	-0.0042075473
149	0x3cd54f1c	0.026038699
150	0xbcde07f1	-0.027103396
151	0xbcf2a217	-0.029618306
152	0xbd13100e	-0.035903983
153	0x3c4bc90d	0.012438071
154	0xbdb2b5b4	-0.08726063
155	0xbd1be2fd	-0.03805827
156	0x3dce98f9	0.10087771
157	0xbdcc0537	-0.09961932
158	0xbd7853c8	-0.060626775
159	0x3c318228	0.010834254
160	0xbd85ad1d	-0.06527159
161	0x3d403b06	0.04693129
162	0xbd234fce	-0.03987103
163	0xbd89422e	-0.06702076
164	0x3ce4cc62	0.027929489
165	0xbda99979	-0.08281226
166	0xbd98aac4	-0.07454446
167	0x3c96fd44	0.018431313
168	0xbd52a246	-0.051424287
169	0x3d1e0830	0.038582027
170	0xbd80f352	-0.0629641
171	0x3d8237d3	0.06358304
172	0xbd332b99	-0.04374275
173	0xbd220bb1	-0.03956193
174	0xbb0994b7	-0.0020993182
175	0x3d8148cf	0.06312715
176	0x3e0cbeff	0.13744734
177	0xbcafa029	-0.021438675
178	0xbd26b303	-0.040698063
179	0xbd91bec4	-0.07116464
180	0x3d91ad62	0.07113148
181	0xbcbaac6e	-0.022787299
182	0xbcf7e94a	-0.030262608
183	0x3d726ce0	0.059185863
184	0x3d83ee76	0.06441967
185	0xbd1d39b4	-0.038385108
186	0x3bbd2521	0.0057722484
187	0xbaee825c	-0.0018196809
188	0xbb9b3ad0	-0.0047372356
189	0xbd255b82	-0.04037047
190	0xbb2f41d4	-0.0026742117
191	0xbb172723	-0.0023064099
192	0xbd34f0bf	-0.044174906
193	0x3b1d2d68	0.0023983363
194	0x3cc71219	0.024300622
195	0xbdb0b9c9	-0.08629186
196	0x3d23897b	0.039926033
197	0x3d5aa158	0.053376526
198	0x3ca685f7	0.020327551
199	0x3d80474f	0.06263601
200	0x3c761704	0.015020136
201	0xbdaf51e5	-0.08560542
202	0x3db7e78d	0.08979712
203	0xbd1270f5	-0.035752255
204	0x3c42250e	0.011849655
205	0x3d80fc0d	0.06298075
206	0xbd528478	-0.051395863
207	0x3da19ef0	0.07891643
208	0x3de2c0b9	0.11071915
209	0xbd0f2cf6	-0.034954987
210	0x3d0ac2fa	0.03387735
211	0x3cabd19a	0.02097397
212	0xbd3d992d	-0.046288658
213	0xbce7c089	-0.02829005
214	0xbcec41cc	-0.028839968
215	0x3d32fe40	0.043699503
216	0xbd66b531	-0.05632514
217	0xbdacb17b	-0.08432289
218	0xbd171930	-0.036889255
219	0x3d20256f	0.0390982
220	0xbcfa6ac7	-0.030568494
221	0x3d256352	0.040377922
222	0x3c62b1a9	0.013836303
223	0x3cec24bb	0.028826108
224	0x3df89106	0.12137036
225	0x3d5a3ea1	0.053282384
226	0x3d141632	0.03615398
227	0x3d417d72	0.047238775
228	0xbcfba0b1	-0.030716272
229	0xbd31f30c	-0.04344468
230	0xbb748585	-0.003731103
231	0x3d281d09	0.041043315
232	0xbd6133a0	-0.054980874
233	0x3db0ffa0	0.086425066
234	0xbc511708	-0.012761839
235	0x3d32d8be	0.043663733
236	0xbde4a40e	-0.111641034
237	0xbd2c5186	-0.042069934
238	0x3da49f03	0.080381416
239	0x3daaeded	0.08346162
240	0x3d8d932a	0.06912835
241	0xbdb9944e	-0.0906149
242	0x3d7aa1f4	0.061189607
243	0xbd1e15df	-0.038595077
244	0x3cb4ea98	0.02208452
245	0xbb83dd56	-0.004024188
246	0x3b8947b3	0.0041894554
247	0xbd2b806e	-0.041870527
248	0xbcd669d6	-0.026173513
249	0x3daf21db	0.08551379
250	0x3c42a6fc	0.0118806325
251	0x3d31f9ff	0.043451305
252	0xb8d32ff2	-0.000100701945
253	0x3cbe521e	0.023232516
254	0xbd65e7dd	-0.056129325
255	0x3da6089e	0.08107112
