weights_old/just.pt (torch, 4877 bytes, 1 tensors)

weight f4 [1, 768]
000000 4e 39 9b bd 92 ca 07 be ae 15 39 bd 0f ec 99 bc
       -0.075792894 -0.13260868 -0.04518669 -0.01878932
000010 f0 f7 2e bc 0a e4 81 bd ce 21 5f 3d 89 e9 a1 3c
       -0.01067923 -0.06342323 0.054475598 0.019764679
000020 7f 80 00 3d 57 e8 8b bc 6b a8 25 3c 7e bd bd 3c
       0.031372543 -0.017078562 0.010110955 0.023161646
000030 cf 08 bd 3c 61 05 4d bd 07 b5 93 bd 62 31 04 ba
       0.02307549 -0.050053958 -0.072122626 -0.0005042759
000040 89 c4 63 bd 04 0a cc 3b 87 86 4d bd 32 26 6b 3d
       -0.055607352 0.00622678 -0.050177123 0.057409473
000050 32 9f 44 bc 06 be 2d 3d 9e ae 04 bd 0a be 8d bb
       -0.012000846 0.04241755 -0.03239309 -0.004325633
000060 44 49 db 3c 50 7b 65 3d fa 7a cd bd 82 25 9e 3c
       0.026768334 0.056025803 -0.100332215 0.019304994
000070 72 f2 92 3d 6d 11 e8 3c 27 80 60 3d 2a e8 ad bd
       0.07175149 0.028328622 0.054809716 -0.084915474
000080 c3 78 50 3c 88 b6 42 bd 91 4d a7 bc 3a 28 2b bd
       0.012724104 -0.047537357 -0.020422729 -0.04178641
000090 c2 9e c6 3c a8 2f b5 3c 1a 74 d8 3b 9c 14 76 bd
       0.024245623 0.02211745 0.0066056373 -0.06007825
0000a0 17 dc a9 bd 8a 84 e9 bc e6 b5 74 3b 8a f3 eb bc
       -0.08293932 -0.028505582 0.0037339865 -0.028802652
0000b0 05 85 1a bc 71 e0 cd 3b c0 6a e9 3c 0f 90 4d bc
       -0.009431128 0.006282859 0.028493285 -0.012546553
0000c0 e1 d9 06 bd a7 c7 03 3d 35 89 82 3c 81 16 33 3d
       -0.03292263 0.032172825 0.015934566 0.043722633
0000d0 9c 67 40 3e e5 84 4e 3d ee d6 07 be 15 47 e8 bb
       0.18789524 0.050419707 -0.13265583 -0.0070885518
0000e0 0c e8 7f 3c f4 59 59 bb d9 7c 01 3d 20 72 01 bc
       0.015619289 -0.0033165189 0.031613205 -0.007900745
0000f0 9f f4 02 3c 3e f9 b1 bc 21 1f b8 3c 1c a1 9c bd
       0.0079928925 -0.021725293 0.02247578 -0.07647917
000100 31 aa 33 bb 8f e6 7e 3b ca 1c 27 3c c0 13 75 bd
       -0.0027414674 0.0038894748 0.010199735 -0.05983329
000110 cd b0 18 3d 36 eb c8 bc 0a f0 db 3d 7b 41 e5 3b
       0.037277985 -0.02452622 0.10739143 0.0069963313
000120 58 fc 24 3d e1 15 bb bd 1e db 38 bd 96 39 be 3d
       0.040279716 -0.091350324 -0.04513084 0.092883274
000130 38 4b 22 bd 84 ed dc bb a3 49 a8 3d a1 0e 1e 3b
       -0.039622515 -0.0067421813 0.0821717 0.0024117606
000140 19 71 ba 3d 4f f4 84 3c 8d e6 f1 3c 33 c8 a5 bc
       0.09103603 0.016229777 0.02952888 -0.020237064
000150 4a 77 02 3c c5 85 87 bd 1f bf 99 bb 91 77 0f 3d
       0.007963011 -0.066173114 -0.004691973 0.035026137
000160 d8 bb e8 bd 4c 4b 31 3d 8e 9c b0 3c 3e 70 72 3d
       -0.11363953 0.0432847 0.021559026 0.059189074
000170 38 0c 94 3d b5 02 09 3c 77 d4 e9 bc 2c aa 9b 3c
       0.07228893 0.008362462 -0.028543694 0.019002043
000180 09 08 c3 3c a5 0a 42 3c 7e 9b ac bd 23 24 4c 3d
       0.023807542 0.011843358 -0.08428095 0.04983915
000190 ab 09 48 bd 90 21 e5 bc bf cd ca ba 19 b2 95 bc
       -0.048837345 -0.027970105 -0.0015472694 -0.0182734
0001a0 50 d2 34 3c 0c 4a 73 bc dc 90 e7 3d c7 1a 8a 3b
       0.0110364705 -0.014849197 0.113069266 0.004214618
0001b0 79 50 ae 3d 86 b3 a1 bb ca 9d 13 3d a1 5d 21 bd
       0.08511443 -0.004934731 0.03603915 -0.039395932
0001c0 ed 5e 56 bd f4 f2 a1 3d 74 6e 1c bc 15 9a 3f 3c
       -0.052336622 0.07907668 -0.009547818 0.011694451
0001d0 e0 05 0c 3c 93 88 c3 bb 60 28 24 bd 80 67 be bc
       0.008546323 -0.0059672086 -0.040077567 -0.023242712
0001e0 62 b5 a4 3b e5 40 06 bd e4 d9 a5 bc 5f 50 80 3d
       0.0050265053 -0.032776732 -0.0202455 0.062653296
0001f0 b7 1e cb 3c 14 0a 83 3d da b2 20 bc 9d e1 68 bd
       0.02479492 0.063984066 -0.009808267 -0.056855787
000200 27 35 e4 3d f1 77 98 bc 09 44 06 3d 74 38 21 3d
       0.111429505 -0.01861188 0.032779727 0.03936048
000210 28 ba 74 bd 99 09 81 bb e8 47 8f bb e8 63 b0 bd
       -0.059747845 -0.0039379117 -0.0043725856 -0.086128056
000220 87 c4 80 3c e7 c9 42 3b 15 de 4f bd f1 8f 87 3c
       0.015718712 0.0029722394 -0.050748903 0.016548129
000230 23 35 2e bc 47 2b f3 bc 1d 10 91 bc 12 e3 1d 3d
       -0.010632786 -0.029683722 -0.017707879 0.03854663
000240 a9 69 08 3e db fe 0b bd 1f 5f 0e bd df 82 98 bb
       0.13321556 -0.034178596 -0.034758683 -0.004654273
000250 b7 53 10 bd 12 56 0d 3d 46 8c 18 3d bd d2 45 bd
       -0.035236087 0.03450591 0.03724315 -0.04829668
000260 a9 9e 23 bd fe 08 af 3c 63 06 5f bd d5 47 15 bb
       -0.039946232 0.021366592 -0.05444945 -0.002277841
000270 be 4b ac 3d 5f e6 0c bd 2a 7a 7d bd e3 e4 a4 bc
       0.08412884 -0.034399386 -0.061884083 -0.020128673
000280 b9 26 86 b9 f0 9b 31 3b 64 5a ca ba a1 96 19 bd
       -0.00025587322 0.0027101003 -0.0015438315 -0.037497167
000290 55 f3 a7 3d 5b 43 21 bd 70 96 8c bd a9 a8 a4 3a
       0.08200709 -0.039370876 -0.06864631 0.0012562472
0002a0 2f 4d e7 bc 77 f9 e5 3c 49 24 4b bd cb a8 5d 3d
       -0.028235046 0.028073056 -0.04959515 0.05411605
0002b0 c8 08 d8 bc cc e3 eb bd a5 f8 ca bc c0 57 3f 3d
       -0.026371375 -0.11518058 -0.024776766 0.046714544
0002c0 6f c0 f1 3d fb 18 0f bd 50 c2 02 3c 88 8a 29 3b
       0.11804282 -0.034935933 0.007980898 0.0025869925
0002d0 8e 06 ef 3d a3 6e a7 bc 21 5f 37 bb 16 38 eb 3c
       0.11671172 -0.020438498 -0.0027980285 0.028713267
0002e0 a7 2f c7 3d 98 c1 ad 3c d1 de 57 bd 3e 7c c7 3c
       0.09725886 0.021210477 -0.05270273 0.024351235
0002f0 8a 04 1f bd 11 13 5f 3c b6 f8 a6 bc 42 40 84 3d
       -0.03882269 0.013615386 -0.020382266 0.06457569
000300 ff 40 e5 3b c6 66 c1 3c 8b 3c 19 3d 48 31 84 bd
       0.0069962735 0.023608577 0.037411254 -0.06454712
000310 25 eb 54 3c af 3d e9 bc 88 19 bd 3c 9c 23 1d 3c
       0.012995516 -0.028471796 0.023083463 0.0095910095
000320 7f b5 8c 3d 49 68 08 bd c4 1b 26 3d 58 80 71 bb
       0.06870555 -0.03330258 0.040553823 -0.003685018
000330 3c 51 2a 3d 12 fd 7f 3d cf ba 8e bd bd db c2 3d
       0.041581377 0.062497206 -0.06969225 0.09514568
000340 83 43 0e 3d 8b 67 50 bd 63 8a 28 bd 8c 95 83 bb
       0.034732353 -0.050879996 -0.0411476 -0.00401563
000350 63 18 73 bd 52 d6 ec 3c b8 39 e3 bc 9c 59 ba 3d
       -0.05934943 0.02891079 -0.027737483 0.09099123
000360 6d c7 01 bd c0 4d 9b bd 52 cd 5a bc 1d 4b 8a 3c
       -0.031684328 -0.07583189 -0.013354616 0.01688152
000370 b8 83 90 3b 61 7d 7f bb 96 21 8a 3b ca e7 91 3c
       0.0044102333 -0.0038984644 0.0042154295 0.017810721
000380 de ad 5d 3d c8 97 e9 3c 1d a9 80 bb 21 b5 1f bc
       0.05412089 0.028514758 -0.00392641 -0.009747774
000390 a6 ae 92 bd b7 b2 1a bd 52 18 da 3c bd b8 6b bb
       -0.07162218 -0.037768092 0.026622925 -0.0035968267
0003a0 58 9b 73 bc ce 66 8b 3d c7 81 d2 bb 9f 20 43 bb
       -0.01486858 0.06806718 -0.006424162 -0.0029774082
0003b0 e6 5f aa 3a 8e d5 5d bd 13 c5 a8 3d 9e e8 6c 3c
       0.0012998551 -0.05415874 0.08240714 0.014459757
0003c0 93 04 23 3c 85 fa 8d bd 2e 24 b2 bc bf a8 c0 bb
       0.009949821 -0.069325484 -0.021745767 -0.005879491
0003d0 c0 2e 1e bd 92 e1 06 3d 86 c7 32 bd 48 0e 36 39
       -0.038618803 0.032929964 -0.04364731 0.00017362193
0003e0 08 e8 8e bb 2e dc 25 3d 86 5f f3 bc 82 b8 fb 3c
       -0.0043611564 0.040493183 -0.029708635 0.030727629
0003f0 0b ad 61 bd 19 ba ee 3b b2 90 71 3c 1f 00 0f 3c
       -0.055096667 0.007285368 0.014743971 0.008728056
