weights_old/just_and_cm.pt (torch, 4997 bytes, 1 tensors)

weight f4 [1, 768]
0	0xbe202547	-0.1563922
1	0xbe4c07fa	-0.19924918
2	0x3c815efc	0.015792362
3	0xbd57db6f	-0.052699503
4	0xbdaa66e9	-0.0832041
5	0xbcea9fc7	-0.02864064
6	0x3cc2cad3	0.023778355
7	0xbcbc64bb	-0.02299725
8	0xbcb24fdc	-0.021766596
9	0x3cb56b2a	0.022145826
10	0x3d993cb7	0.074822836
11	0xbc3cf7ad	-0.01153366
12	0x3bbfc9d2	0.0058529163
13	0xbdbfe2f7	-0.09369462
14	0xbcdb598a	-0.026776094
15	0xbcc36006	-0.023849498
16	0x3b992cf2	0.0046745474
17	0xbd7f79d3	-0.06237204
18	0xbcaa1d72	-0.020765994
19	0x3cf6d502	0.030130867
20	0xbda3ac38	-0.079918325
21	0x3cca028b	0.024659416
22	0xbce6b7e2	-0.028163854
23	0xbd4467ec	-0.04795067
24	0x3d728dda	0.05921731
25	0x3cf710c6	0.030159365
26	0xbdaea733	-0.085279845
27	0xbd590da6	-0.05299153
28	0x3d20f218	0.03929338
29	0x3c6c2fdb	0.0144157065
30	0x3db591e5	0.08865718
31	0xbdddb920	-0.108263254
32	0x3d9200fb	0.07129093
33	0xbd484469	-0.048893366
34	0x3cbbc628	0.022921637
35	0xbce68dae	-0.02814373
36	0x3d19fb89	0.0375934
37	0xbd743f20	-0.059630513
38	0xbc8c3bb5	-0.017118314
39	0xbdf80d96	-0.12111966
40	0xbd1fbbfe	-0.038997643
41	0xbc801f7e	-0.015640017
42	0x3d287802	0.041130073
43	0x3c227653	0.009915906
44	0x3d3abc5f	0.0455898
45	0xbda7756b	-0.081766926
46	0x3cea8fbf	0.028632997
47	0x3c1ce1a0	0.009575278
48	0xbd8e9a72	-0.06963052
49	0x3bbf70c6	0.005842301
50	0x3b833c51	0.004004993
51	0xbd1796de	-0.037009113
52	0x3e690715	0.22756608
53	0x3d646a24	0.055765286
54	0xbddfea90	-0.10933411
55	0x3da96f26	0.08273153
56	0xbd0419b8	-0.03225109
57	0xbdaafcab	-0.08348974
58	0x3c3425ff	0.010995387
59	0xbd302ffa	-0.043014504
60	0x3d301604	0.042989746
61	0x3bfe4b04	0.0077604074
62	0xbb316f8b	-0.0027074541
63	0xbd6d3d2e	-0.057919674
64	0x3c1b6f22	0.009486945
65	0x3c8f5fb5	0.017501691
66	0x3cc0a87a	0.023517836
67	0xbde5224b	-0.111881815
68	0x3c90d7b3	0.017680978
69	0x3b604d98	0.0034225937
70	0x3e1cccf4	0.15312558
71	0xbd2dbcee	-0.042416506
72	0x3cd53392	0.026025567
73	0xbdcc062c	-0.09962115
74	0x3cbadaa7	0.02280934
75	0x3e04eb39	0.12980355
76	0xbd1dc921	-0.03852189
77	0xbd217854	-0.039421394
78	0x3e0b9e13	0.1363452
79	0x3be0b75c	0.0068577956
80	0x3dd26861	0.10273815
81	0x3d813a05	0.063098945
82	0x3d0fe31e	0.035128705
83	0xbdbaab88	-0.09114748
84	0xbcab3314	-0.02089838
85	0xbd75f92b	-0.06005208
86	0xbcc3e335	-0.023912052
87	0x3ca415f4	0.02003
88	0xbddfadba	-0.109218076
89	0x3d250aa6	0.04029336
90	0x3d465939	0.048424933
91	0x3d95f2bb	0.07321688
92	0x3dbeff61	0.093260534
93	0x3cc27db7	0.023741586
94	0x3bbd06e0	0.005768642
95	0x3cc4335b	0.02395027
96	0xbbc474fd	-0.0059953914
97	0x3c31d5c7	0.010854191
98	0xbe349cf4	-0.17637998
99	0x3de4a610	0.111644864
100	0xbd9d6d28	-0.076868355
101	0x3d1e9783	0.03871871
102	0xbd769d30	-0.0602085
103	0xbc42fcba	-0.011901075
104	0x3d963fd9	0.07336397
105	0xbd1b4376	-0.037906133
106	0x3debb923	0.115099214
107	0xbe04476f	-0.12917875
108	0x3d7e100f	0.062027033
109	0xbd5c3d1e	-0.053769223
110	0x3b9c2b07	0.0047658714
111	0xbcd855dd	-0.02640813
112	0xbdaf54a1	-0.085610636
113	0x3e0f8814	0.14016753
114	0xbb624d93	-0.00345311
115	0xbd6f1762	-0.05837191
116	0x3d60619d	0.05478059
117	0xbd865e87	-0.065609984
118	0x3d87e302	0.06635095
119	0xbd9787c9	-0.07398946
120	0x3ca4d7cd	0.020122433
121	0xbd6e432e	-0.058169536
122	0x3daf1ff7	0.08551019
123	0x3db069f9	0.08613963
124	0xbc8a1d16	-0.016859572
125	0x3d9698cc	0.073533624
126	0x3b784ee8	0.0037888829
127	0xbd65d37c	-0.05610989
128	0x3d97391d	0.0738394
129	0x3c9f6cf0	0.019461125
130	0x3d327151	0.0435651
131	0x3d0b9baf	0.03408402
132	0xbd2638a2	-0.040581353
133	0xbd541295	-0.051775534
134	0x3b1a708b	0.0023565616
135	0xbe015666	-0.12630615
136	0xbd3de6ed	-0.046362806
137	0x3d0c5a3b	0.034265738
138	0xbd32f387	-0.043689277
139	0xbc74deca	-0.014945695
140	0x3d17d830	0.037071407
141	0xbc5ffa0f	-0.013670458
142	0x3d203379	0.03911159
143	0x3d56c5e4	0.052434817
144	0x3e18cd4a	0.14922062
145	0x3c8dc7eb	0.017307242
146	0xbb873df3	-0.004127258
147	0x3d859be0	0.065238714
148	0xbb898d9e	-0.0041977903
149	0x3cd5dff0	0.026107758
150	0xbcddd1be	-0.027077552
151	0xbcf271df	-0.029595314
152	0xbd1345e5	-0.03595533
153	0x3c4dcab0	0.0125605315
154	0xbdb259cf	-0.08708536
155	0xbd1c4f8d	-0.038161803
156	0x3dceac3d	0.100914456
157	0xbdcbc7ce	-0.09950219
158	0xbd78a0f1	-0.06070036
159	0x3c31d9d5	0.010855158
160	0xbd8584d4	-0.065194756
161	0x3d3ff02f	0.046859916
162	0xbd237911	-0.03991038
163	0xbd896ebe	-0.067105755
164	0x3ce44ce7	0.027868701
165	0xbda998d1	-0.082811005
166	0xbd98ca55	-0.07460467
167	0x3c96c55e	0.018404659
168	0xbd531129	-0.051530037
169	0x3d1eb102	0.038743027
170	0xbd8137f3	-0.063094996
171	0x3d81a55b	0.06330367
172	0xbd33736a	-0.04381124
173	0xbd217086	-0.03941395
174	0xbb06d3fe	-0.0020573135
175	0x3d8179c4	0.06322053
176	0x3e0d1b55	0.13779958
177	0xbcafb724	-0.021449633
178	0xbd262d82	-0.040570743
179	0xbd919ce5	-0.071100034
180	0x3d91d089	0.07119853
181	0xbcbbd7d5	-0.022930065
182	0xbcf7ef85	-0.030265579
183	0x3d736f69	0.05943242
184	0x3d844476	0.064583704
185	0xbd1d0ede	-0.038344257
186	0x3bbd3b35	0.0057748803
187	0xbaec9627	-0.001805012
188	0xbb9a5c6b	-0.004710724
189	0xbd255702	-0.04036618
190	0xbb2c10a5	-0.0026255038
191	0xbb140c2c	-0.0022590263
192	0xbd363caf	-0.044491466
193	0x3b1b5160	0.0023699626
194	0x3cc77ae0	0.024350584
195	0xbdb094f0	-0.086221576
196	0x3d2399d9	0.039941642
197	0x3d5abcf9	0.053402875
198	0x3ca7194f	0.02039781
199	0x3d804dbe	0.06264828
200	0x3c76ffea	0.015075663
201	0xbdaf62bf	-0.08563756
202	0x3db81144	0.08987668
203	0xbd1212db	-0.035662513
204	0x3c4334b2	0.011914419
205	0x3d80bf92	0.06286539
206	0xbd523741	-0.051322225
207	0x3da1ce8f	0.07900726
208	0x3de264dc	0.11054394
209	0xbd0f150e	-0.03493219
210	0x3d0c911f	0.034318086
211	0x3cabf342	0.020990018
212	0xbd3ea2fc	-0.046542153
213	0xbce76e25	-0.028250763
214	0xbcecbcd5	-0.028898636
215	0x3d32ff60	0.043700576
216	0xbd670460	-0.056400657
217	0xbdac7093	-0.08419909
218	0xbd17d138	-0.03706476
219	0x3d1ff0ad	0.039047886
220	0xbcf9ff01	-0.030517103
221	0x3d24faa6	0.0402781
222	0x3c66a4d0	0.01407738
223	0x3cebc8e9	0.028782325
224	0x3df8b040	0.12142992
225	0x3d5ac2b5	0.053408343
226	0x3d13e5d6	0.03610786
227	0x3d41a972	0.047280736
228	0xbcfc223d	-0.030778045
229	0xbd31fa6c	-0.04345171
230	0xbb766591	-0.003759716
231	0x3d280d19	0.041028116
232	0xbd616009	-0.055023227
233	0x3db11a75	0.086476244
234	0xbc520dc4	-0.012820665
235	0x3d334a66	0.043772124
236	0xbde467d5	-0.11152617
237	0xbd2bda06	-0.04195597
238	0x3da47eea	0.080320194
239	0x3dab86b5	0.08375303
240	0x3d8dbcd6	0.06920783
241	0xbdb9d917	-0.0907461
242	0x3d7ac282	0.061220653
243	0xbd1eb033	-0.038742255
244	0x3cb55950	0.022137314
245	0xbb850ae5	-0.0040601366
246	0x3b8d3b77	0.0043100673
247	0xbd2b3ae1	-0.0418042
248	0xbcd52d3c	-0.026022546
249	0x3daf1d82	0.0855055
250	0x3c447941	0.0119918
251	0x3d31cb8b	0.043407004
252	0x37dfe7fb	2.6691696e-05
253	0x3cc00d28	0.023443773
254	0xbd659af5	-0.05605598
255	0x3da5fe22	0.081051126
