weights/best.pt (torch, 4877 bytes, 1 tensors)

weight f4 [1, 768]
0	0xbd0bd008	-0.03413394
1	0xbe27eb55	-0.16398366
2	0xbd24aa61	-0.04020155
3	0xbcd0fac3	-0.025510198
4	0xbcba2fea	-0.022727925
5	0xbd31f0d9	-0.04344258
6	0x3d76548e	0.06013923
7	0xba3a9882	-0.00071180623
8	0x3cc50296	0.024049085
9	0x3c28dea4	0.010306988
10	0x3c8dee4c	0.017325543
11	0xbcfa32e4	-0.030541845
12	0x3d1117c8	0.03542307
13	0xbdca0a8e	-0.098652944
14	0xbd3054d9	-0.043049667
15	0x3ca95a60	0.020672977
16	0xbdad28c7	-0.08455043
17	0x3b5e125f	0.0033885462
18	0xbc853c3b	-0.016264072
19	0x3d20df80	0.039275646
20	0xbd4db1b1	-0.050218288
21	0x3d07045d	0.032963146
22	0xbd66c505	-0.056340236
23	0x3d21e611	0.03952605
24	0x3c4b4c2b	0.012408297
25	0x3d73810a	0.059449233
26	0xbd48e860	-0.049049735
27	0xb9fdd33a	-0.00048413296
28	0x3d480c01	0.048839573
29	0xbc65e9da	-0.014032805
30	0x3d3e2909	0.046425853
31	0xbddda1c9	-0.10821874
32	0x3d6373ad	0.05553024
33	0xbcf83b2a	-0.03030165
34	0x3c5d18aa	0.01349465
35	0xbd6dc20c	-0.058046386
36	0x3b17fae6	0.0023190319
37	0x3cd81280	0.026376009
38	0xbca3747e	-0.019953009
39	0xbd231175	-0.03981157
40	0xbdbfdcb6	-0.09368269
41	0xbd697109	-0.056992564
42	0xbc10b449	-0.008832046
43	0xbc8d13df	-0.01722139
44	0x3d02b710	0.031912863
45	0xbd31ff3a	-0.043456294
46	0x3d3489f5	0.04407688
47	0xbd4ca198	-0.049958795
48	0xbd9ee72c	-0.07758936
49	0xbc951439	-0.01819812
50	0x3cab59e0	0.02091688
51	0x3c224e84	0.009906415
52	0x3e16d18f	0.14728378
53	0x3d011e92	0.031523295
54	0xbe16a1fc	-0.1471023
55	0x3bb1dfcc	0.00542829
56	0x3ca2ccd3	0.019873058
57	0xbbba4fb2	-0.00568577
58	0xbc6d1a84	-0.014471654
59	0x3c8ddd25	0.017317364
60	0x3d3fb1c0	0.046800375
61	0xbc766fc0	-0.015041292
62	0x3d4ece69	0.050489817
63	0xbd04fd5f	-0.032468196
64	0xbd214f46	-0.03938224
65	0x3d307aec	0.043085977
66	0x3c4057e5	0.011739706
67	0xbda80d01	-0.08205605
68	0x3d5ef333	0.05443115
69	0xbb98f050	-0.0046673194
70	0x3e12f4be	0.14351174
71	0xbbab7be4	-0.005233275
72	0x3d5e0d9f	0.05421221
73	0xbda51af9	-0.08061785
74	0xbb764b98	-0.0037581678
75	0x3de193e4	0.11014536
76	0x3c834e3e	0.01602852
77	0xbd8cb2aa	-0.06870015
78	0x3d853e8c	0.065060705
79	0x3c9fbab4	0.019498207
80	0x3d7613dd	0.060077537
81	0x3ce62c9a	0.02809744
82	0x3ba79894	0.0051146243
83	0xbcd68ed3	-0.02619115
84	0x3cb5d5f9	0.022196757
85	0xbdc5e29a	-0.096623614
86	0xbccf9b84	-0.02534271
87	0x3d1a978c	0.037742183
88	0xbdd2bd52	-0.10290016
89	0x3cb45391	0.022012504
90	0x3cb68871	0.022281857
91	0x3d966288	0.07343012
92	0x3ca53d67	0.02017088
93	0x3c88bccb	0.016691586
94	0x3c018c89	0.007907041
95	0xbc2e524d	-0.010639739
96	0x3bae7fdd	0.005325301
97	0xbd5734f3	-0.05254073
98	0xbd88bd8f	-0.066767804
99	0x3d83a830	0.064285636
100	0xbd97e556	-0.07416789
101	0xbcee14bd	-0.029062623
102	0x3d24ce81	0.040236
103	0xbd52814a	-0.05139283
104	0x3d88c7e6	0.066787526
105	0x3d39d94b	0.045373242
106	0x3e094733	0.13406067
107	0xbd44255a	-0.047887184
108	0x3d32d231	0.043657485
109	0xbc07a3ab	-0.008278768
110	0xbcbfcf4e	-0.02341428
111	0xbc65bdbe	-0.014022289
112	0xbdb44232	-0.08801688
113	0x3d578ba2	0.0526234
114	0xbc15fcf1	-0.009154544
115	0xbc9b0aa4	-0.018925972
116	0x3cc1b07a	0.02364372
117	0xbccf272a	-0.02528723
118	0x3c2ff682	0.010739924
119	0xbce80ccc	-0.028326415
120	0x3cbfd123	0.023415154
121	0xbd980839	-0.07423443
122	0xbaf49364	-0.0018659648
123	0x3d8597a1	0.065230615
124	0xbc85b403	-0.016321188
125	0x3d67a0cd	0.056549836
126	0xbb714035	-0.0036811952
127	0xbd0dc56a	-0.034612097
128	0x3d56b158	0.052415222
129	0x3aa7455f	0.0012761763
130	0x3d15e5f9	0.036596272
131	0x3d4195a4	0.04726185
132	0xbc74f19e	-0.014950184
133	0xbb32c035	-0.002727521
134	0x3c8d332e	0.017236318
135	0xbd96cdd9	-0.07363481
136	0x3d224a3d	0.03962158
137	0xbc336c5b	-0.010951127
138	0xbd1ceded	-0.03831284
139	0x3d2253f2	0.039630838
140	0x3cb1b028	0.021690443
141	0xbcb13fba	-0.021636833
142	0x3cd12ae6	0.02553315
143	0xbbd9a611	-0.006642111
144	0x3df03259	0.11728353
145	0xbbd5595d	-0.006510897
146	0xbd5c9f4f	-0.053862866
147	0x3c19dc3e	0.009390889
148	0xbd1dfc57	-0.03857073
149	0x3cc5112f	0.024056045
150	0x3ccffb07	0.025388254
151	0xbd43aa5f	-0.0477699
152	0xbd27d26d	-0.040972162
153	0x3caefef0	0.021361798
154	0xbd34e498	-0.044163316
155	0xbc80fe41	-0.015746238
156	0x3dae1c4e	0.085014924
157	0xbca4a106	-0.020096313
158	0xbd47164b	-0.048605245
159	0xbccaa12d	-0.024735058
160	0xbd035cf2	-0.03207106
161	0x3cdcf206	0.026970875
162	0xbcc73da3	-0.024321383
163	0xbccff43a	-0.025385011
164	0x3d6cdd35	0.057828147
165	0xbc659efd	-0.014014957
166	0xbda1d6a4	-0.079022676
167	0xbc545d6f	-0.012961729
168	0xbd4ac34a	-0.04950265
169	0x3cdec19b	0.027191928
170	0xbd6cd72d	-0.057822395
171	0x3d51b05c	0.05119358
172	0xbbca8a0e	-0.006181008
173	0xbdcdb005	-0.10043339
174	0xbd1c7ae7	-0.038203146
175	0x3beef213	0.007292041
176	0x3de7cef7	0.11318772
177	0xbc46cf20	-0.012134343
178	0x3b0822f3	0.0020772784
179	0xbcb6d1ae	-0.02231678
180	0x3dbfceaf	0.09365594
181	0x3b8fa06d	0.004383138
182	0x3bb2986d	0.0054502995
183	0x3cad95f0	0.02118966
184	0x3dd736a1	0.105084665
185	0xbc0a0b52	-0.008425551
186	0xbcc7ee42	-0.024405602
187	0x3cfa8268	0.03057976
188	0x39e49973	0.00043601877
189	0xbd3a4adb	-0.045481544
190	0xbd8df3d1	-0.0693127
191	0x3cfc0375	0.030763367
192	0x3c71b3b1	0.014752314
193	0x3d15457f	0.03644323
194	0x3c4b4d59	0.012408578
195	0xbd3b23df	-0.045688506
196	0x3d5a8e2d	0.053358246
197	0xbcfd3b99	-0.030912207
198	0x3d1a50fd	0.037674893
199	0x3cb82dd7	0.022482796
200	0x3d7d22a9	0.061800633
201	0xbd5367ec	-0.05161278
202	0x3d9cdd5a	0.07659407
203	0xbbc61301	-0.006044746
204	0x3d40eae7	0.04709902
205	0x3d89f17f	0.06735515
206	0xbd4cf8ad	-0.050041843
207	0x3d6534b3	0.05595846
208	0x3d0aa30b	0.033846896
209	0xbd4b6951	-0.049660984
210	0xbcd2ee85	-0.0257485
211	0x3c6b914d	0.014377904
212	0xbcd8c1d8	-0.02645962
213	0xbc9998fc	-0.018749706
214	0x3d050acf	0.03248101
215	0x3cde5e69	0.027144628
216	0xbceb8e72	-0.028754447
217	0xbd2ac931	-0.041695777
218	0xbc3d2a0f	-0.011545672
219	0x3d71b7de	0.05901324
220	0xbd59aa5b	-0.05314098
221	0xbd790048	-0.060791284
222	0xbc1bfa2e	-0.009520097
223	0x3ca82346	0.020524632
224	0x3cbe240c	0.023210548
225	0x3c0f3232	0.008739995
226	0x3ce73a63	0.028226083
227	0xb969a78e	-0.0002228303
228	0xbd72cfa9	-0.05928007
229	0xbc6028b1	-0.013681577
230	0x3ca2e2ed	0.019883597
231	0x3b201ce6	0.0024431287
232	0xbc1381c6	-0.009003108
233	0x3dacd6b3	0.08439388
234	0xbd10a822	-0.035316594
235	0x3bfd3625	0.007727402
236	0x3cf47b8a	0.029844064
237	0xbc8b05d4	-0.016970553
238	0x3dc395f1	0.095500834
239	0x3cc65ab0	0.024213165
240	0x3c7248fd	0.01478791
241	0xbd042a02	-0.032266624
242	0x3cbdb288	0.02315642
243	0xbd540bc4	-0.051769033
244	0xbd1d759e	-0.038442247
245	0x3c4e8d97	0.012607
246	0xbd5c8c6c	-0.053844854
247	0xbd1cf78f	-0.038322028
248	0xbc2b7f23	-0.0104673235
249	0x3c477d05	0.012175803
250	0xbc8aca1d	-0.016942078
251	0x3d358038	0.044311732
252	0xbd8ce7ff	-0.06880187
253	0x3c8223da	0.015886236
254	0xbc26e9c7	-0.010187573
255	0xbace668c	-0.0015747114
