weights/cm.pt (torch, 795838 bytes, 7 tensors)

0.fc_red.weight f4 [256, 768]
0	0x3cb5efdb	0.022209099
1	0xbc527cfb	-0.0128471805
2	0x3c9cbc5d	0.019132787
3	0x3c4dab77	0.012553087
4	0xbcb0e6b1	-0.021594377
5	0xbcae0233	-0.021241283
6	0x3d224cb7	0.039623942
7	0x3baf2c68	0.00534587
8	0x3ccdacdf	0.025106845
9	0xbbbe1721	-0.005801097
10	0x3d12a717	0.03580388
11	0x3d13d4d8	0.036091655
12	0x3c903d80	0.01760745
13	0xbb9265a5	-0.0044676834
14	0x3c58fcd9	0.013243877
15	0xbd07248e	-0.032993846
16	0x3cc91db1	0.02455029
17	0xbbe07062	-0.0068493346
18	0x3c42c9a9	0.0118889
19	0x3c1f6ec4	0.009730998
20	0x3cef8e57	0.029242678
21	0xbd48cdb5	-0.049024303
22	0x3bff48c3	0.0077906563
23	0x3b2ec13a	0.0026665465
24	0x3b44e508	0.003004374
25	0xbc1b050f	-0.009461655
26	0xbca6226f	-0.020280091
27	0x3c1fae42	0.009746136
28	0x3d3c1915	0.045922358
29	0x3c72a6e9	0.014810302
30	0xbc32056c	-0.0108655505
31	0x3bfacb38	0.00765362
32	0xbb334759	-0.002735576
33	0x3c1950b7	0.009357623
34	0xbcd37d99	-0.025816726
35	0x3cbf9428	0.023386076
36	0xbc8de840	-0.01732266
37	0x3c68f72d	0.014219088
38	0x3cc8f62c	0.024531446
39	0x3cc0eef5	0.023551444
40	0xbc5f8235	-0.013641884
41	0x3c1da33a	0.009621436
42	0x3cef6f87	0.029227985
43	0xbcf4465e	-0.02981871
44	0x3d01cecd	0.03169136
45	0xbc6b5881	-0.014364363
46	0x3baa2fb7	0.0051936763
47	0xbb4575d3	-0.0030130043
48	0xbb02da0c	-0.0019966392
49	0xbc9eee74	-0.019400813
50	0xbc4ea80c	-0.012613308
51	0x3cefdf89	0.029281395
52	0xbcba1ba1	-0.022718253
53	0x3ca2cc82	0.019872908
54	0x3c8424fe	0.01613092
55	0xbc669a3e	-0.01407486
56	0x3c154c15	0.009112378
57	0x3ca6d210	0.020363837
58	0x3c360657	0.01110991
59	0x3c5b1430	0.013371512
60	0x37a76cb3	1.9958568e-05
61	0x3c954bd2	0.01822463
62	0x3cfcd8e7	0.030865146
63	0xbb0de992	-0.0021654111
64	0x3cd8eb6a	0.026479442
65	0xbcdad7b7	-0.026714189
66	0xbce6ac20	-0.028158247
67	0x3d241384	0.040057674
68	0x3bfcf32e	0.007719419
69	0xbd274f85	-0.04084732
70	0x3cb42a55	0.021992842
71	0xbcc515b8	-0.024058208
72	0xbc576ab5	-0.0131479995
73	0x3ac8b2f7	0.0015312125
74	0xbcb4c550	-0.022066742
75	0xbba09869	-0.004900981
76	0xbd06bdcc	-0.03289585
77	0xbc71f036	-0.014766743
78	0xbc8b0cb2	-0.016973827
79	0x3cfabb02	0.03060675
80	0xbcc960f6	-0.024582367
81	0x3a72d9ea	0.0009264039
82	0x3d36e25a	0.04464946
83	0xba2e6259	-0.0006652228
84	0xbcc1093b	-0.023563972
85	0xba60dfaf	-0.00085782533
86	0x3c852e0d	0.01625731
87	0xbaf79fd9	-0.0018892243
88	0xbbfd4339	-0.007728961
89	0x3c018bcd	0.007906866
90	0xbc8d0a84	-0.017216928
91	0xbd01cd39	-0.031689856
92	0x3c8890ac	0.016670547
93	0xb930279f	-0.00016799428
94	0x3bdc2ec8	0.006719444
95	0x3ade2e9c	0.0016951147
96	0xbc74e492	-0.0149470735
97	0x3c2ae625	0.010430847
98	0xbb93980d	-0.00450421
99	0xbcedaf2e	-0.029014196
100	0x3c0fd3f3	0.00877856
101	0xbcb3cf8a	-0.021949548
102	0x3c53b2fc	0.012921091
103	0xbc8fe37a	-0.017564524
104	0x3c431a08	0.011908062
105	0x3c9fc72a	0.019504149
106	0x3a0f3e42	0.0005464294
107	0x3cd3cbd2	0.025854025
108	0xbc945654	-0.01810757
109	0x3ce72794	0.028217115
110	0xbca51693	-0.020152366
111	0x3c0b2418	0.008492492
112	0x3c756965	0.014978741
113	0x3c4081a2	0.011749657
114	0x3ce18609	0.027529733
115	0x3d18073b	0.03711627
116	0xbb1a5999	-0.002355194
117	0xbad28526	-0.001606141
118	0x3d0d6a5c	0.03452526
119	0x3c31f0e8	0.010860659
120	0xbbe644b9	-0.0070272353
121	0xbd065b86	-0.032802127
122	0x3c8f1465	0.01746578
123	0x3ca53321	0.020165982
124	0xbc435fef	-0.011924728
125	0x3c97cd83	0.018530613
126	0xbbd889c5	-0.0066082203
127	0x3b10862e	0.0022052634
128	0xba3583da	-0.00069242495
129	0xbbd68900	-0.0065470934
130	0x3ca0df58	0.019637749
131	0x3b9e22e6	0.0048259376
132	0x3c251df5	0.010077943
133	0x3caabded	0.020842517
134	0xbcac8c07	-0.021062864
135	0xbcc8da8c	-0.024518274
136	0x3c31fee5	0.010863994
137	0x3b021bad	0.0019852922
138	0x3b9241ed	0.0044634254
139	0xbd136cee	-0.035992555
140	0xba23e6cd	-0.00062523485
141	0xbc37f55a	-0.01122793
142	0x3c9cca65	0.019139478
143	0x3c823487	0.015894188
144	0xbb0febde	-0.0021960656
145	0x3c99b5fa	0.018763531
146	0xbcad6b56	-0.021169346
147	0xbc07a752	-0.008279638
148	0xbca2704d	-0.01982894
149	0x3c5b234b	0.013375114
150	0xbb95b474	-0.004568631
151	0xbc972ff5	-0.018455485
152	0xba46f42e	-0.0007589486
153	0x37a37df5	1.9489768e-05
154	0xbc4be9e9	-0.012445905
155	0xbbecd0fc	-0.0072270613
156	0x3c2b4075	0.0104523795
157	0xbcd26ef5	-0.025687674
158	0x3c8ae951	0.016956957
159	0x3c5af101	0.013363124
160	0xbbb8d214	-0.0056402776
161	0xbc4e06c4	-0.012574855
162	0xbc260a84	-0.010134343
163	0x3d1089eb	0.03528778
164	0xbc9c2c47	-0.019064082
165	0xbc8b6f7d	-0.017020935
166	0x3cc9fa84	0.024655588
167	0xbb83c6b5	-0.0040214905
168	0xbd476731	-0.048682395
169	0xbca6678a	-0.020313043
170	0xbc8283b9	-0.01593195
171	0xbcf3f24c	-0.029778622
172	0xbcf84cd5	-0.030310074
173	0xbd0848e9	-0.033272658
174	0xbc329ea5	-0.010902082
175	0x3b84e437	0.0040555256
176	0xbce0d00a	-0.02744295
177	0x3aded4fc	0.001700073
178	0xbc0615df	-0.008183925
179	0x3a3faf13	0.000731216
180	0xbd30b639	-0.04314253
181	0xbc18e7e9	-0.009332635
182	0xbc96a15c	-0.018387489
183	0x3cecc547	0.028902663
184	0xbc293ac2	-0.01032895
185	0x3c46ad20	0.012126237
186	0xbc83c6a6	-0.016085934
187	0xbcc2173b	-0.023692718
188	0xbc96bf39	-0.018401729
189	0xb9807abe	-0.00024505513
190	0xbcb08f52	-0.021552715
191	0xbcc25290	-0.02372101
192	0x3c96fff1	0.01843259
193	0x3cd73aeb	0.026273211
194	0xbcd880f7	-0.026428683
195	0x3cc40706	0.02392913
196	0x3ca8e2db	0.020615986
197	0xbcc86c82	-0.024465803
198	0x3ca4dd4e	0.020125058
199	0x3d0f4d92	0.034986086
200	0xbd0dabda	-0.03458772
201	0xba7ce550	-0.00096472073
202	0x3cf98ae0	0.030461729
203	0xbd10a744	-0.035315767
204	0xbcabf16a	-0.020989139
205	0x3c86218f	0.016373424
206	0xbcaf5168	-0.021401122
207	0x3c2124fe	0.00983548
208	0x3b0a01e8	0.0021058265
209	0xbcbc8256	-0.023011368
210	0x3d1290b5	0.035782535
211	0x3ca40e90	0.020026475
212	0xbcff318f	-0.031151561
213	0x3cad4358	0.021150276
214	0x3d1a7a56	0.037714325
215	0xbca34e50	-0.019934803
216	0x3c752912	0.014963405
217	0xbc829a85	-0.015942821
218	0x3d1d24b4	0.03836508
219	0x3d30a07e	0.043121807
220	0x3bf9f2f2	0.0076278383
221	0xbc5ccfd9	-0.013477289
222	0x3c94ee0d	0.018179918
223	0xbc992922	-0.018696371
224	0x3cf6aaeb	0.030110797
225	0x3cd2bc3c	0.025724523
226	0xbcd6f30f	-0.026238946
227	0x3c6aaf92	0.014324086
228	0x3c6584d1	0.014008717
229	0x3c1d568b	0.009603153
230	0x3ca8b28f	0.020592956
231	0xbc851e49	-0.016249793
232	0x3bc3069a	0.0059517147
233	0xbb02a3c1	-0.001993403
234	0x3ccbc833	0.024875736
235	0x3b86e61f	0.004116788
236	0x3c8d8516	0.017275374
237	0xbbf2be6c	-0.007407954
238	0x3a98ba38	0.0011652177
239	0x3ce67a44	0.028134473
240	0x3cabb3a4	0.020959683
241	0x3cc4f17e	0.024040934
242	0xbccd6a3e	-0.025075074
243	0x3c997688	0.018733278
244	0x3cb8093c	0.02246534
245	0x3b48a17b	0.0030613828
246	0xbc70c479	-0.01469528
247	0x3bf0b11b	0.0073453314
248	0xbca17b24	-0.019712038
249	0xbc9371cd	-0.0179986
250	0xbc96f89d	-0.018429095
251	0x3b185f83	0.0023250289
252	0xbcd70ef8	-0.026252255
253	0x3c540777	0.012941233
254	0xbb603f4a	-0.003421741
255	0xbc9ae174	-0.018906333

0.fc_red.bias f4 [256]
0	0xbd05d8aa	-0.03267733
1	0x3c8fbf58	0.017547294
2	0xbc5a9476	-0.01334106
3	0xbcc6fa45	-0.02428926
4	0x3c1febac	0.009760778
5	0xbcec6ed5	-0.028861443
6	0xbc8afcfa	-0.016966332
7	0xbd12737b	-0.035754662
8	0xbc4b4d8d	-0.012408626
9	0x3b134bcc	0.0022475598
10	0x3ce30dd8	0.027716562
11	0x3b34f1d6	0.0027609966
12	0xbcf897e0	-0.030345857
13	0x3ca118e5	0.019665191
14	0x3ab74c3c	0.0013984512
15	0x3b91cd08	0.0044494905
16	0xbd02dd40	-0.03194928
17	0xbcfb5e1a	-0.03068452
18	0xbd0ce363	-0.03439654
19	0x3d0f2cc9	0.03495482
20	0xbcb46cc0	-0.022024512
21	0x3c43e7b1	0.011957095
22	0xbc8d66d0	-0.017260939
23	0x3b5b0a4b	0.0033422883
24	0xbc991474	-0.01868651
25	0x3cd35b8d	0.02580049
26	0xbcf43d84	-0.02981449
27	0x3d0a30fb	0.033738118
28	0xbd0e1be4	-0.034694567
29	0x3c8e7513	0.01738981
30	0xbc123bca	-0.008925388
31	0x3c0cd807	0.008596427
32	0x3ca04282	0.019562963
33	0x3c9c76ad	0.019099558
34	0xbd0bcca6	-0.034130715
35	0xbcd78c2b	-0.026311954
36	0x3c7f3d39	0.015578561
37	0xbcb8688d	-0.022510791
38	0x3cd34638	0.025790319
39	0xbc0d3a65	-0.008619879
40	0xbcca7c0f	-0.024717359
41	0x3d03e1e9	0.032197867
42	0x3adf187a	0.0017020844
43	0x3cf7b9e9	0.030240016
44	0xbc4c8c76	-0.01248466
45	0xbc683c76	-0.014174571
46	0x3c99fcb5	0.018797258
47	0xbc978696	-0.018496793
48	0xbc808bb8	-0.015691623
49	0xbc076480	-0.008263707
50	0xbce0d839	-0.027446853
51	0x3bbd32f3	0.005773896
52	0xbc5a5400	-0.013325691
53	0xbc8f34d9	-0.017481254
54	0x3c2c8da9	0.010531821
55	0xbc816a05	-0.015797624
56	0x3af89506	0.0018965311
57	0xbcea7e6b	-0.028624734
58	0x3cf7b26c	0.030236445
59	0xbd09fbcd	-0.0336874
60	0x3cb100e0	0.021606863
61	0xbcd8f9fa	-0.026486386
62	0x3cec526c	0.028847896
63	0x3b924524	0.0044638086
64	0x3d11d32a	0.035601772
65	0xbc2cc2f5	-0.010544528
66	0x3c0c0c39	0.008547836
67	0xbc32ea0b	-0.010920058
68	0xbcaa9b49	-0.020825999
69	0x3cba324f	0.022729067
70	0x3cf7b665	0.03023834
71	0x3cb0d715	0.021586934
72	0xbc7ab8fc	-0.015302893
73	0xbbfc67cf	-0.0077028046
74	0x3c702c77	0.014659039
75	0x3c851683	0.016246086
76	0x3b630eee	0.003464635
77	0xbcf9cbec	-0.030492745
78	0xbc8eeedd	-0.017447883
79	0x3cacfaf4	0.021115758
80	0xbcff93f0	-0.031198472
81	0x3bd680af	0.006546102
82	0xbc283c8b	-0.010268341
83	0xbccec401	-0.025239946
84	0x3cc47fba	0.023986686
85	0xbcbc92ba	-0.023019183
86	0xbd09daf9	-0.033656094
87	0xbca44c8d	-0.020056034
88	0x3c8dd6a4	0.017314263
89	0xbcb29672	-0.021800254
90	0x3c414e6c	0.011798482
91	0x3a9df491	0.0012051036
92	0x3d0458f3	0.03231139
93	0x3b466747	0.003027396
94	0x3b2c6a5b	0.002630851
95	0x3d0d19f0	0.034448564
96	0x3ce3065e	0.027712997
97	0x3cdb6112	0.026779685
98	0x3d039211	0.03212172
99	0xbc07b2c5	-0.008282368
100	0xbbd96293	-0.0066340654
101	0xbad72316	-0.0016413655
102	0x3c859b14	0.016309299
103	0xbd0c0de2	-0.034192927
104	0x3d06f8be	0.032952063
105	0x3c9a5acd	0.018842125
106	0x3c9880e2	0.018616144
107	0xbbe801a5	-0.007080274
108	0xbb077e7e	-0.002067476
109	0x3ab13ead	0.0013522707
110	0x3d002cea	0.031292833
111	0x3c5ec733	0.0135972975
112	0x3c678a71	0.014132128
113	0x3cc9a92c	0.0246168
114	0xbc7714a1	-0.015080602
115	0xbc8c97f4	-0.0171623
116	0xbcf718fe	-0.030163284
117	0x3c2d74b2	0.010586904
118	0xbc3a843d	-0.011384067
119	0x3c482de1	0.01221797
120	0x3d11c19f	0.035585042
121	0xbb97dd12	-0.004634508
122	0xba6c1358	-0.0009005568
123	0x3bb63c9c	0.0055614244
124	0x3cef6e1a	0.029227305
125	0xbd11300e	-0.03544622
126	0x3c7d70db	0.015468801
127	0xbc200aff	-0.009768247
128	0xbceb7fff	-0.028747557
129	0xbb3610ec	-0.0027781082
130	0xbb2149f4	-0.002461073
131	0xbcd19aa7	-0.02558644
132	0xbc1ae4e4	-0.009453986
133	0xbc92ccb8	-0.017919883
134	0x39f88de8	0.00047407974
135	0xbc72b596	-0.014813801
136	0x3a77d715	0.0009454352
137	0xbaa304e3	-0.001243737
138	0x3c37746e	0.011197193
139	0x37fe729c	3.0332529e-05
140	0x3ceaecff	0.028677462
141	0x3c35fd4c	0.011107754
142	0x3cd9fdfb	0.026610365
143	0x3bea18d6	0.007144074
144	0xbcc3cc27	-0.023901058
145	0x3cc2d7b3	0.023784494
146	0xbcac4385	-0.02102829
147	0x3ca6be60	0.02035445
148	0x3cb89107	0.022530092
149	0xbd0abce2	-0.03387154
150	0xbbdd4c88	-0.006753508
151	0xbd05e2cc	-0.032686993
152	0xbc8e85e9	-0.017397838
153	0x3ccada21	0.024762215
154	0x3c8a4b84	0.016881712
155	0x3ca62e25	0.020285675
156	0xbc9fdac0	-0.019513488
157	0xbce363c6	-0.027757537
158	0xbc5650f7	-0.013080827
159	0xbc557501	-0.013028384
160	0xbc34d5ae	-0.011037273
161	0x3bff90ef	0.00779926
162	0xbcfa7df6	-0.030577641
163	0xbce30776	-0.027713519
164	0xbc863035	-0.016380409
165	0xbcadb2a9	-0.021203356
166	0x3c5e0040	0.013549864
167	0x3cfaf5c5	0.03063477
168	0xbd01e800	-0.031715393
169	0x3d107165	0.03526439
170	0xbcf9994b	-0.030468604
171	0x3ba5165d	0.0050380663
172	0xbce00d70	-0.027350157
173	0xbcf62ab8	-0.030049667
174	0xbbcea051	-0.0063057323
175	0xbcf4e191	-0.029892715
176	0xbcc50dea	-0.024054486
177	0xbc3c8c49	-0.011508056
178	0x3b9c1424	0.004763143
179	0x3c0facbf	0.008769213
180	0x3cf58503	0.029970651
181	0xbcf7141f	-0.030160962
182	0xbce619e1	-0.028088512
183	0xbb1f33d9	-0.0024292378
184	0x3aa62dd3	0.0012678452
185	0xbb8965a7	-0.004193026
186	0xbcafd0d9	-0.021461891
187	0xbbe07dfc	-0.006850956
188	0x3c8d1adb	0.01722472
189	0xbccc8ad6	-0.024968546
190	0x3961c7f7	0.00021532165
191	0x3b5d60d4	0.0033779638
192	0x3cc51992	0.024060044
193	0x3c4f2493	0.012642997
194	0x3ca7b2d8	0.020471022
195	0x3b8327b2	0.004002535
196	0xbca3b6bb	-0.019984594
197	0xbcdd48f9	-0.027012335
198	0xbce1210b	-0.027481576
199	0x3cc2177a	0.023692835
200	0x3c60cbd1	0.013720469
201	0x3b17b71e	0.0023149918
202	0xbd134052	-0.035950013
203	0x3c9af207	0.018914236
204	0xbcccb5fc	-0.02498912
205	0x3cefa54b	0.029253623
206	0x3c57ec4d	0.013178897
207	0xbcc8e350	-0.024522454
208	0xba9dee52	-0.0012049174
209	0x3cd013da	0.025400091
210	0x3ba0b68b	0.0049045733
211	0xba13df39	-0.0005640868
212	0x3d08b66c	0.033377096
213	0x3c6f550f	0.014607682
214	0xbce84f9d	-0.028358275
215	0x3c3fae2c	0.011699241
216	0xbc056ed3	-0.008144098
217	0x3c47940d	0.012181294
218	0x3c846dcf	0.016165642
219	0xbcf58001	-0.029968264
220	0xbcda9d44	-0.026686318
221	0x3cc8a446	0.024492394
222	0xbb5c46c1	-0.0033611509
223	0x3c83a8e1	0.016071739
224	0xbc58fe27	-0.013244188
225	0x3cba5e6a	0.022750098
226	0x3c8b267e	0.016986128
227	0x3ab0bbb9	0.001348368
228	0xbcf5bc08	-0.029996887
229	0x3c591524	0.013249669
230	0x3c0c44b2	0.0085613
231	0xbb0361ac	-0.002004723
232	0x3cb2549c	0.02176886
233	0x3c183a0f	0.009291186
234	0x3c917b93	0.01775912
235	0x3d0593a7	0.032611515
236	0x3bf965cf	0.0076110135
237	0xbcbe930e	-0.02326348
238	0xbca3af07	-0.01998092
239	0x3d0eca1a	0.034860708
240	0x3bc2add7	0.0059411335
241	0x3cae205b	0.021255663
242	0x3bb88438	0.005630996
243	0x3c7eeaad	0.015558881
244	0xbd026bac	-0.031840965
245	0xbcee29f5	-0.029072741
246	0xbbf4ea95	-0.0074742534
247	0xbc9309b0	-0.017948955
248	0x3beb541f	0.007181659
249	0xbbf4ff24	-0.007476704
250	0xbcfe4693	-0.031039512
251	0x3ccee7fd	0.025257105
252	0xbc1406ba	-0.009034807
253	0xbcd9caad	-0.026585901
254	0x3d05883d	0.03260063
255	0x3cee3469	0.029077725

0.bn_red.weight f4 [256]
0	0x3f83e5f3	1.030455
1	0x3f87f119	1.0620452
2	0x3f828cc6	1.0199211
3	0x3f8284be	1.019676
4	0x3f7fecb1	0.9997054
5	0x3f821bf8	1.0164785
6	0x3f823dfe	1.0175169
7	0x3f82dff3	1.0224594
8	0x3f8599b3	1.043753
9	0x3f8767d6	1.0578563
10	0x3f86acd3	1.0521492
11	0x3f81585d	1.0105091
12	0x3f83a420	1.0284462
13	0x3f8505f6	1.0392444
14	0x3f8104b3	1.0079559
15	0x3f871b7f	1.0555266
16	0x3f875aa4	1.0574536
17	0x3f84ea6f	1.0384043
18	0x3f81ced6	1.0141246
19	0x3f877f36	1.0585697
20	0x3f869b90	1.0516224
21	0x3f81770e	1.0114458
22	0x3f8768cb	1.0578855
23	0x3f828f65	1.020001
24	0x3f805242	1.0025103
25	0x3f84deae	1.0380456
26	0x3f8164a7	1.0108842
27	0x3f8333a4	1.0250134
28	0x3f811188	1.0083475
29	0x3f871347	1.0552758
30	0x3f82e8ed	1.0227333
31	0x3f82fea4	1.023396
32	0x3f813a75	1.0095965
33	0x3f8030ea	1.0014927
34	0x3f83031f	1.0235327
35	0x3f7fd282	0.99930584
36	0x3f8452cd	1.0337769
37	0x3f800968	1.000287
38	0x3f8010b4	1.0005097
39	0x3f824124	1.0176129
40	0x3f81ba8c	1.0135055
41	0x3f80c42a	1.0059865
42	0x3f8034ce	1.0016115
43	0x3f84ba0c	1.0369277
44	0x3f850782	1.0392916
45	0x3f823a9e	1.0174139
46	0x3f7fda12	0.99942124
47	0x3f81bca9	1.01357
48	0x3f877ad8	1.0584364
49	0x3f7ff373	0.9998085
50	0x3f82be0a	1.0214245
51	0x3f85d29a	1.0454895
52	0x3f83dd00	1.0301819
53	0x3f81ab1a	1.0130341
54	0x3f851d19	1.0399505
55	0x3f81edff	1.0150756
56	0x3f7fe1d2	0.9995395
57	0x3f828068	1.0195436
58	0x3f84885e	1.0354116
59	0x3f84443e	1.0333326
60	0x3f80a393	1.0049919
61	0x3f806ec0	1.0033798
62	0x3f80fbc4	1.0076833
63	0x3f82146b	1.0162481
64	0x3f7fe5d6	0.99960077
65	0x3f859773	1.0436844
66	0x3f85b883	1.0446934
67	0x3f818cd1	1.0121099
68	0x3f8048ad	1.0022179
69	0x3f810cc6	1.0082023
70	0x3f80036a	1.0001042
71	0x3f807bbb	1.003776
72	0x3f8175e2	1.01141
73	0x3f81886e	1.011976
74	0x3f8160bc	1.0107646
75	0x3f803df7	1.001891
76	0x3f823533	1.0172485
77	0x3f8562f2	1.0420821
78	0x3f867b5a	1.0506394
79	0x3f829ec7	1.0204705
80	0x3f826699	1.018756
81	0x3f84d724	1.0378156
82	0x3f812f0d	1.0092484
83	0x3f8b00c1	1.0859605
84	0x3f8351ca	1.0259335
85	0x3f8355d5	1.0260569
86	0x3f83b8a4	1.0290723
87	0x3f821013	1.0161155
88	0x3f85ea47	1.0462121
89	0x3f837fe4	1.0273404
90	0x3f83f375	1.0308672
91	0x3f804ebf	1.0024031
92	0x3f80455e	1.0021169
93	0x3f8589d8	1.0432692
94	0x3f801a34	1.0007997
95	0x3f80075d	1.0002247
96	0x3f82c077	1.0214986
97	0x3f8179e4	1.0115323
98	0x3f85e7ed	1.0461403
99	0x3f817148	1.0112696
100	0x3f806f0d	1.003389
101	0x3f8313da	1.0240433
102	0x3f820558	1.0157881
103	0x3f80cd12	1.0062582
104	0x3f84097c	1.0315394
105	0x3f809976	1.0046833
106	0x3f85f564	1.0465512
107	0x3f81117f	1.0083464
108	0x3f84af0a	1.0365918
109	0x3f809ca3	1.0047802
110	0x3f80f250	1.0073948
111	0x3f813282	1.0093539
112	0x3f7fce43	0.99924105
113	0x3f81c48a	1.0138104
114	0x3f84b7e8	1.0368624
115	0x3f815b7f	1.0106047
116	0x3f84416a	1.0332463
117	0x3f842155	1.0322672
118	0x3f7ff333	0.9998047
119	0x3f83844b	1.0274748
120	0x3f8015a4	1.0006604
121	0x3f80d4cc	1.006494
122	0x3f800f05	1.0004584
123	0x3f814fb3	1.0102447
124	0x3f8369b1	1.026663
125	0x3f80017b	1.0000452
126	0x3f81b266	1.0132568
127	0x3f859d5a	1.0438645
128	0x3f811fb6	1.0087802
129	0x3f841396	1.0318477
130	0x3f8334e4	1.0250516
131	0x3f806b89	1.0032817
132	0x3f8568e2	1.0422633
133	0x3f819fcd	1.0126892
134	0x3f828c28	1.0199022
135	0x3f81bede	1.0136373
136	0x3f853b74	1.0408769
137	0x3f83a6fa	1.0285332
138	0x3f8182f9	1.0118095
139	0x3f82cc72	1.0218642
140	0x3f851176	1.0395954
141	0x3f81a607	1.0128793
142	0x3f81dd9e	1.0145757
143	0x3f841b87	1.0320901
144	0x3f804c3a	1.0023263
145	0x3f82eb46	1.022805
146	0x3f80a7ee	1.0051248
147	0x3f83a9df	1.0286216
148	0x3f867026	1.0502975
149	0x3f814279	1.0098411
150	0x3f81008f	1.0078295
151	0x3f82666e	1.0187509
152	0x3f8257c2	1.0183032
153	0x3f8134c2	1.0094225
154	0x3f80bfe7	1.0058564
155	0x3f8445d1	1.0333806
156	0x3f85133c	1.0396495
157	0x3f7ffd22	0.99995625
158	0x3f80ab56	1.0052288
159	0x3f85954b	1.0436186
160	0x3f850dfd	1.0394894
161	0x3f810427	1.0079392
162	0x3f82f2f1	1.023039
163	0x3f80a0d5	1.0049082
164	0x3f81cebe	1.0141218
165	0x3f807e17	1.003848
166	0x3f841158	1.0317793
167	0x3f814f8a	1.0102398
168	0x3f80f8a9	1.0075885
169	0x3f86d9c5	1.0535208
170	0x3f8153bc	1.0103679
171	0x3f80089c	1.0002627
172	0x3f8192d3	1.0122932
173	0x3f80d90b	1.0066236
174	0x3f81ef03	1.0151066
175	0x3f820373	1.0157303
176	0x3f8272d4	1.0191293
177	0x3f83e24c	1.0303435
178	0x3f82d02c	1.0219779
179	0x3f80823f	1.0039748
180	0x3f82633b	1.0186533
181	0x3f849095	1.0356623
182	0x3f866245	1.049874
183	0x3f840955	1.0315348
184	0x3f84708c	1.0346847
185	0x3f81ac9a	1.0130799
186	0x3f864fed	1.0493141
187	0x3f803b7a	1.0018151
188	0x3f843822	1.032963
189	0x3f801cb6	1.0008762
190	0x3f83b4f0	1.0289593
191	0x3f84bd77	1.037032
192	0x3f8462bd	1.0342633
193	0x3f803cc7	1.0018548
194	0x3f823fb4	1.0175691
195	0x3f80ec8e	1.0072191
196	0x3f831c99	1.0243102
197	0x3f87db7d	1.0613858
198	0x3f8207bb	1.0158609
199	0x3f83544e	1.0260103
200	0x3f85e15b	1.0459398
201	0x3f8561e5	1.04205
202	0x3f83d7b8	1.0300207
203	0x3f8029ec	1.0012794
204	0x3f82e02a	1.022466
205	0x3f8179c6	1.0115287
206	0x3f8451f4	1.033751
207	0x3f80019d	1.0000492
208	0x3f85c947	1.045205
209	0x3f844ebc	1.0336528
210	0x3f825f79	1.0185386
211	0x3f864b0e	1.0491655
212	0x3f820305	1.0157171
213	0x3f82e55f	1.0226249
214	0x3f823325	1.0171858
215	0x3f80f468	1.0074587
216	0x3f84124b	1.0318083
217	0x3f8280f9	1.0195609
218	0x3f840b99	1.0316039
219	0x3f8006fb	1.000213
220	0x3f809d04	1.0047917
221	0x3f82eb19	1.0227996
222	0x3f832b04	1.0247502
223	0x3f8067e6	1.0031707
224	0x3f7ff5e3	0.9998457
225	0x3f8264a7	1.0186967
226	0x3f84cc7e	1.0374906
227	0x3f82fd9f	1.0233649
228	0x3f819a7d	1.0125271
229	0x3f82915e	1.0200613
230	0x3f81e035	1.0146548
231	0x3f85cb6e	1.0452707
232	0x3f850c08	1.0394297
233	0x3f820788	1.0158548
234	0x3f805e64	1.0028806
235	0x3f81fa1b	1.0154451
236	0x3f803db8	1.0018835
237	0x3f80446a	1.0020878
238	0x3f8405dd	1.0314289
239	0x3f849935	1.0359255
240	0x3f855dcd	1.0419251
241	0x3f83bcd5	1.0292002
242	0x3f84b2e4	1.0367093
243	0x3f82bd58	1.0214033
244	0x3f831b00	1.0242615
245	0x3f85609d	1.0420109
246	0x3f82f561	1.0231134
247	0x3f874aee	1.0569742
248	0x3f84b493	1.0367607
249	0x3f83b64a	1.0290005
250	0x3f8234f9	1.0172416
251	0x3f821bd9	1.0164748
252	0x3f884a38	1.064765
253	0x3f88d417	1.0689725
254	0x3f81cfda	1.0141556
255	0x3f8102d6	1.007899

0.bn_red.bias f4 [256]
0	0xbccb3dbf	-0.024809716
1	0xbd6da134	-0.058015063
2	0xbc9bd28b	-0.019021293
3	0xbcb375e1	-0.021906795
4	0xbb16be66	-0.002300167
5	0xbc99c6a4	-0.018771477
6	0xbc4b46c2	-0.012407007
7	0xbcb852ce	-0.022500422
8	0xbd62b993	-0.05535276
9	0xbd9097b5	-0.07060186
10	0xbd739bed	-0.059474874
11	0xbc367db9	-0.011138373
12	0xbcee0e5d	-0.029059583
13	0xbd1d9e9b	-0.038481336
14	0xbc3efe69	-0.011657336
15	0xbd907593	-0.070536755
16	0xbd5bbe64	-0.053648368
17	0xbd41dcbb	-0.047329646
18	0xbb7321fe	-0.0037099118
19	0xbd91c056	-0.07116763
20	0xbd840494	-0.06446186
21	0xbbef1977	-0.007296737
22	0xbd870e76	-0.06594555
23	0xbc5eef0e	-0.0136068
24	0xbbb8f73c	-0.005644707
25	0xbd6fa7fd	-0.058509815
26	0xbc679e0d	-0.014136803
27	0xbd12a4e7	-0.035801794
28	0xbb94ed22	-0.00454487
29	0xbd88e152	-0.066836014
30	0xbc998342	-0.018739346
31	0xbd111e57	-0.035429325
32	0xbc2fbcf0	-0.010726199
33	0xbb34aabf	-0.0027567593
34	0xbca7f12e	-0.020500746
35	0xba0b7abc	-0.0005320718
36	0xbca87d33	-0.020567512
37	0xb9555ef0	-0.0002034863
38	0xbade0ca5	-0.0016941024
39	0xbc44a4f6	-0.01200222
40	0xbc332027	-0.010932959
41	0xbba3a49a	-0.0049939873
42	0xbb9c8cd4	-0.00477753
43	0xbd00a59d	-0.03140794
44	0xbd57a08c	-0.052643344
45	0xbbf58690	-0.0074928477
46	0xba2f82a4	-0.0006695187
47	0xbc5a67b9	-0.0133303935
48	0xbd4fdb39	-0.050746176
49	0xbabf494b	-0.0014593987
50	0xbce0c660	-0.027438343
51	0xbd82cffa	-0.06387325
52	0xbd27c738	-0.040961474
53	0xbc74554e	-0.014912916
54	0xbd6edf1d	-0.058318246
55	0xbc1f3381	-0.009716869
56	0xbb77cf49	-0.003781276
57	0xbc6bebc2	-0.014399471
58	0xbd33d71e	-0.043906324
59	0xbd02601c	-0.03182994
60	0xbaf2ab18	-0.0018514125
61	0xba24eba7	-0.00062912185
62	0xbb9f0e49	-0.004853998
63	0xbc89f0f8	-0.016838536
64	0xba461a90	-0.00075570587
65	0xbd70c679	-0.05878303
66	0xbd3b65d0	-0.045751393
67	0xbc994d4d	-0.018713618
68	0xba4134fa	-0.000737026
69	0xbc12203b	-0.008918817
70	0x392017df	0.00015267682
71	0x3aa43044	0.0012526591
72	0xba3e70a8	-0.0007264712
73	0xbc07a1f7	-0.0082783615
74	0xbc451b17	-0.0120303845
75	0xb99d3ad4	-0.00029989204
76	0xbc3e25b5	-0.01160567
77	0xbd1f722c	-0.038927242
78	0xbd7daaaf	-0.061930355
79	0xbc8a2620	-0.016863883
80	0xbc88d806	-0.01670457
81	0xbd28558a	-0.0410972
82	0xbc2bf2b8	-0.01049488
83	0xbdb59be2	-0.08867623
84	0xbd01ff75	-0.031737763
85	0xbd10dfa7	-0.03536954
86	0xbce19a20	-0.027539313
87	0xbd012d91	-0.031537596
88	0xbd5f5da9	-0.05453268
89	0xbcd6eeab	-0.026236853
90	0xbd13ec07	-0.036113765
91	0xbb26fd4d	-0.002548057
92	0xbb7e673b	-0.0038818854
93	0xbd4b63e4	-0.04965581
94	0xb98ff82a	-0.00027459982
95	0xbabf3b5d	-0.0014589835
96	0xbc834b41	-0.016027095
97	0xbb9b2ea1	-0.004735783
98	0xbd308ae1	-0.043101195
99	0xbbc0da23	-0.005885379
100	0xba0fdffe	-0.00054883945
101	0xbca2e669	-0.019885259
102	0xbc53e878	-0.012933843
103	0xbb4b8b2b	-0.0031058292
104	0xbc9e50b9	-0.019325601
105	0xbc0876e1	-0.008329124
106	0xbd6d3d0d	-0.05791955
107	0xbbfe2e19	-0.00775696
108	0xbd1590a5	-0.036514897
109	0xbaf5241c	-0.0018702778
110	0xbc1abac7	-0.009443945
111	0xbbecd3ce	-0.0072273975
112	0xb9ab1be4	-0.00032636442
113	0xbc02b3dc	-0.007977452
114	0xbd1942b5	-0.037417132
115	0xbc4204f6	-0.011842003
116	0xbce11e3a	-0.027480233
117	0xbcbb747d	-0.022882694
118	0xb9754066	-0.00023389011
119	0xbc8c1c58	-0.01710336
120	0xba81395a	-0.0009859011
121	0xbb53baad	-0.0032307312
122	0xbb43e2af	-0.0029889753
123	0xbbe00ce2	-0.0068374733
124	0xbcdd1a05	-0.026989946
125	0xb9d41543	-0.00040451632
126	0xbc546ed3	-0.012965876
127	0xbd3eac64	-0.046551123
128	0xbc0a02d9	-0.0084235305
129	0xbce64a6e	-0.028111663
130	0xbc9f6dc5	-0.019461522
131	0xbb0b114f	-0.0021220034
132	0xbd6c3e40	-0.057676554
133	0xbc715aae	-0.014731092
134	0xbcb055a6	-0.021525215
135	0xbc56df98	-0.013114832
136	0xbd21c2c8	-0.0394924
137	0xbd2a3db6	-0.04156276
138	0xbc6d5434	-0.014485408
139	0xbcb47313	-0.022027528
140	0xbd1a6ea3	-0.037703168
141	0xbc6258c4	-0.013815109
142	0xbc353ca4	-0.011061821
143	0xbcfc0fba	-0.030769218
144	0xbb853381	-0.0040649776
145	0xbcd932e3	-0.026513522
146	0xbb3ad75c	-0.0028509712
147	0xbcc8ec18	-0.02452664
148	0xbd78960c	-0.06068997
149	0xbc64c2cd	-0.01396246
150	0xbb06cd60	-0.002056919
151	0xbc43e36b	-0.011956076
152	0xbca85fd8	-0.020553514
153	0xbc206e8b	-0.0097919805
154	0xbbc3de25	-0.0059774094
155	0xbcc7fd76	-0.024412852
156	0xbd0fb601	-0.03508568
157	0x39d9db5e	0.00041552907
158	0xbb4957e9	-0.0030722565
159	0xbd52638d	-0.05136447
160	0xbd4d0a29	-0.050058518
161	0x39a9b45f	0.0003236858
162	0xbcd17e46	-0.025572907
163	0xbbd32d2a	-0.006444593
164	0xbc8be9dd	-0.017079288
165	0xbbac7a1f	-0.0052635814
166	0xbd117e51	-0.035520855
167	0xbc1cf792	-0.00958051
168	0xbaad2d3c	-0.0013212333
169	0xbd8007fe	-0.062515244
170	0xbc288763	-0.010286185
171	0xbae5f7c4	-0.0017545153
172	0xbc8c925f	-0.017159639
173	0xbc010c68	-0.007876493
174	0xbc442d74	-0.0119737275
175	0xbc1a48ef	-0.009416803
176	0xbc849324	-0.016183443
177	0xbce1698d	-0.02751615
178	0xbc5b81a1	-0.013397605
179	0xba381224	-0.0007021746
180	0xbc3bcce3	-0.011462423
181	0xbd2e1eea	-0.04250995
182	0xbd27f8ee	-0.041008882
183	0xbd0574d3	-0.032582115
184	0xbd263600	-0.040578842
185	0xbc723f3d	-0.014785585
186	0xbd9204da	-0.071298316
187	0xba8777e4	-0.0010335413
188	0xbce03ed9	-0.027373718
189	0xbb4b2b51	-0.003100116
190	0xbcf109de	-0.02942365
191	0xbd149a11	-0.03627974
192	0xbd372b97	-0.044719305
193	0xbbc903a7	-0.0061344686
194	0xbc83ce66	-0.01608963
195	0xbb490860	-0.0030675158
196	0xbcde9f30	-0.027175516
197	0xbd8d6bec	-0.0690535
198	0xbca857ac	-0.020549618
199	0xbc9943b7	-0.018709047
200	0xbd4d1f33	-0.050078582
201	0xbd11303d	-0.035446394
202	0xbce05e89	-0.027388828
203	0xbb219f34	-0.0024661543
204	0xbcdd6dfd	-0.027029986
205	0xbc93bf5e	-0.018035587
206	0xbd1c3f34	-0.038146213
207	0xba796af1	-0.00095145317
208	0xbd541ade	-0.051783435
209	0xbcdc7bc6	-0.026914489
210	0xbc4d2db6	-0.012523105
211	0xbd65a61c	-0.056066617
212	0xbc10a54b	-0.008828471
213	0xbca2dd48	-0.019880906
214	0xbc3e2487	-0.0116053885
215	0xbb669330	-0.0035182945
216	0xbce93a47	-0.028470172
217	0xbca36cb5	-0.019949296
218	0xbcd2a275	-0.025712231
219	0xb91a9c53	-0.0001474482
220	0xbbdbea2d	-0.0067112655
221	0xbc7e5b38	-0.015524678
222	0xbd111adf	-0.035426017
223	0xbbdb892c	-0.006699702
224	0xb7c83b13	-2.3869366e-05
225	0xbca74982	-0.020420793
226	0xbd148adb	-0.036265235
227	0xbca4c9a0	-0.020115674
228	0xbcbfdb4a	-0.023419995
229	0xbcd06955	-0.025440851
230	0xbc8401fa	-0.016114224
231	0xbd33b7f9	-0.043876622
232	0xbd424f88	-0.04743913
233	0xbc8ce3d2	-0.017198477
234	0xbb0fa5de	-0.0021918933
235	0xbc5e2641	-0.013558925
236	0xbb1aca54	-0.0023619132
237	0xba8fcbdf	-0.0010970793
238	0xbd169da7	-0.036771443
239	0xbd22a3ea	-0.039707102
240	0xbd22bf3e	-0.039733164
241	0xbceb014a	-0.028687138
242	0xbd18b4c2	-0.03728176
243	0xbc9b55d6	-0.018961828
244	0xbd1122a3	-0.035433423
245	0xbd3adc35	-0.045620162
246	0xbd279dfe	-0.040922157
247	0xbd7e882a	-0.062141575
248	0xbd12c42f	-0.035831627
249	0xbceb4f72	-0.028724406
250	0xbcb0e4c3	-0.021593457
251	0xbcabadcf	-0.020956902
252	0xbd97d96a	-0.07414515
253	0xbd73df22	-0.059538968
254	0xbc406515	-0.01174285
255	0xbc2e4064	-0.010635469

0.bn_red.running_mean f4 [256]
0	0xbd0aa6a8	-0.033850342
1	0x3c4bc8c4	0.012438003
2	0xbc1e616e	-0.009666784
3	0xbcc11ac4	-0.023572333
4	0xbb53e876	-0.0032334602
5	0xbcf7976e	-0.030223574
6	0xbc7b7c13	-0.015349406
7	0xbd123acf	-0.035700615
8	0xbb978dbb	-0.00462505
9	0x3b3a1c1e	0.0028398107
10	0x3d03c590	0.032170832
11	0x3c519a51	0.01279314
12	0xbc8a3807	-0.016872419
13	0x3c835efc	0.016036503
14	0x3b843e42	0.004035742
15	0x3b6cea31	0.003615033
16	0xbca184ed	-0.019716704
17	0xbd07f7de	-0.03319537
18	0xbd454747	-0.04816368
19	0x3d0a01e1	0.033693198
20	0xbcc6d3e7	-0.024270965
21	0x3b9b0201	0.0047304635
22	0xbcff2b2c	-0.031148516
23	0x3be45794	0.006968448
24	0xbb92d91a	-0.004481447
25	0x3c950058	0.01818864
26	0xbd2015b5	-0.0390832
27	0x3cc5c1f6	0.02414034
28	0xbcbc0f59	-0.022956537
29	0x3cd52f27	0.02602346
30	0xbcae0866	-0.021244239
31	0x3bd24e1d	0.0064180032
32	0x3bdfc75c	0.0068291854
33	0x3c6bb554	0.014386494
34	0xbd14e95d	-0.036355365
35	0xbc9ab04e	-0.018882897
36	0x3c64c5ee	0.013963206
37	0xbc86ec76	-0.016470175
38	0x3cf23b71	0.02956936
39	0xbbcea1c9	-0.0063059074
40	0xbcab03cd	-0.020875836
41	0x3ceb2c4a	0.028707642
42	0xbc6bd26b	-0.014393429
43	0x3cfa4cb7	0.030554159
44	0xbc4e0230	-0.012573764
45	0xbc688c24	-0.014193568
46	0x3ae9174f	0.0017783436
47	0xbc5a190b	-0.013311635
48	0xbc68ea1c	-0.014215972
49	0xbc99a7c3	-0.018756753
50	0xbcea22f8	-0.028581128
51	0xba6e0f3d	-0.000908125
52	0xbc864320	-0.01638943
53	0xbd1c9b4f	-0.03823405
54	0x3bf230d8	0.0073910765
55	0xbc3c3e51	-0.011489467
56	0xbb6f70f2	-0.0036535827
57	0xbcee6c67	-0.029104425
58	0x3d1f4c41	0.03889108
59	0xbd52bd6f	-0.05145019
60	0x3cbe46fe	0.023227211
61	0xbccd000b	-0.025024435
62	0x3c55efa2	0.013057621
63	0x3bb0dda3	0.005397515
64	0x3d20b824	0.03923811
65	0xbaa8f545	-0.0012890479
66	0x3b1234df	0.0022309346
67	0xbc9559f2	-0.018231366
68	0xbcd1b4f3	-0.025598979
69	0x3bae5e36	0.0053212894
70	0x3ce0e196	0.027451318
71	0x3cb40314	0.021974124
72	0xbc645372	-0.013935911
73	0xbc0bdbe5	-0.008536314
74	0x3c964a97	0.018346114
75	0x3bade76d	0.005307129
76	0x3b54e86f	0.0032487174
77	0xbd0113ab	-0.031512897
78	0xbd0a9f07	-0.033843067
79	0x3ce31af9	0.027722823
80	0xbd131d09	-0.035916362
81	0x3c1af89a	0.009458685
82	0xbcb64b44	-0.022252686
83	0xbd114dfd	-0.035474766
84	0x3c6f4563	0.014603945
85	0xbcf7f664	-0.030268855
86	0xbcf9b2b1	-0.030480715
87	0xbcc5d23b	-0.024148097
88	0x393e70ec	0.00018161879
89	0xbcc1491e	-0.023594435
90	0x3c2f0513	0.010682362
91	0xbb06b1a3	-0.0020552657
92	0x3d1390c3	0.036026727
93	0x3c47d110	0.0121958405
94	0xbbdf4c8f	-0.0068145464
95	0x3cd977c1	0.02654636
96	0x3cb77e17	0.022398992
97	0x3cc62853	0.02418915
98	0x3d15a7e7	0.036537077
99	0xbc980596	-0.018557351
100	0xbc361b53	-0.011114913
101	0xbc0600c0	-0.00817889
102	0x3ca35da1	0.019942107
103	0xbcabc1d2	-0.020966444
104	0x3d20759b	0.039174657
105	0x3c8bee9a	0.017081548
106	0x3cd3e3dc	0.025865488
107	0xbc580f7f	-0.013187288
108	0x3b525fbf	0.0032100526
109	0x397b5649	0.00023969369
110	0x3d4135ed	0.04717057
111	0x3d03a9ee	0.03214448
112	0x3c154ae9	0.009112098
113	0x3d1dc9a0	0.038522363
114	0xbc11ed29	-0.008906641
115	0xbc044b1c	-0.008074548
116	0xbd0d5d1d	-0.034512628
117	0x3c96eaf2	0.018422578
118	0xbb49c108	-0.0030785222
119	0x3c127e35	0.008941223
120	0x3d1e1ff4	0.03860469
121	0xbc25df2e	-0.010124011
122	0x3ba87eb4	0.0051420573
123	0x3c2aeb42	0.010432066
124	0x3ca88552	0.020571385
125	0xbd0b29dd	-0.03397547
126	0x3c3c6f1a	0.011501098
127	0xbc6ee287	-0.0145803755
128	0xbc9d9cd9	-0.01923983
129	0xbc750ca4	-0.014956627
130	0x3ba509ea	0.0050365822
131	0xbcf17815	-0.029476205
132	0x3b20e674	0.0024551423
133	0xbcda8c83	-0.02667833
134	0xbb554bb0	-0.0032546334
135	0xbc5a08aa	-0.01330773
136	0x3b91dbc5	0.0044512474
137	0x3b7ec2d8	0.003887346
138	0xbb10fc11	-0.00221229
139	0x39cf6b21	0.00039561934
140	0x3c50b839	0.012739235
141	0x3c82d49c	0.01597052
142	0x3cc363d9	0.023851322
143	0x3c8a7acc	0.016904257
144	0xbce5b0c7	-0.028038396
145	0x3c004032	0.007827805
146	0xbc542bdf	-0.012949913
147	0x3c215e9d	0.009849218
148	0x3cc94538	0.024569139
149	0xbc6f022d	-0.014587921
150	0x3be48d3c	0.0069748443
151	0xbd0603f9	-0.032718632
152	0xbbdb0e2d	-0.0066850395
153	0x3c7bc2cf	0.01536627
154	0x3d10ce11	0.03535277
155	0x3c6d7770	0.014493808
156	0xbc77519b	-0.01509514
157	0xbcdc7b2b	-0.0269142
158	0xbc8af932	-0.016964529
159	0xbc3da2e4	-0.011574481
160	0xbc8e5189	-0.017372863
161	0xbba24f49	-0.004953299
162	0xbd31d1a7	-0.04341283
163	0xbc354403	-0.011063579
164	0xbc8939af	-0.016751138
165	0xbd177bcd	-0.0369833
166	0x3c4831e3	0.012218925
167	0x3d20ee0c	0.03928952
168	0xbcebb2ba	-0.028771747
169	0x3d0afcaa	0.033932365
170	0xbd0211d7	-0.031755295
171	0x39f090be	0.00045884209
172	0xbc681ad9	-0.014166557
173	0xbca05284	-0.019570597
174	0x3b2c5074	0.002629307
175	0xbd0d3fee	-0.034484796
176	0xbce5437f	-0.027986286
177	0xbc027e9e	-0.007964758
178	0x3bb58d3d	0.0055405186
179	0x3c9c6e86	0.01909567
180	0x3d379da3	0.04482807
181	0xbc8f847f	-0.017519234
182	0xbd0aed62	-0.033917792
183	0x3ad4c604	0.001623333
184	0xbab3c94d	-0.0013716609
185	0xbc12b783	-0.008954885
186	0xbcda3c82	-0.02664018
187	0xbc4ed591	-0.01262416
188	0x3c8e0fe8	0.017341569
189	0xbc164ae8	-0.0091731325
190	0xbbe922cc	-0.007114744
191	0xbc16d9f6	-0.009207239
192	0x3c9227aa	0.017841179
193	0xbc26567d	-0.010152456
194	0x3d021577	0.03175875
195	0xbb866220	-0.004101053
196	0xbcef5977	-0.029217465
197	0xbcec1f2f	-0.028823463
198	0xbcc73f32	-0.024322126
199	0x3cfff89a	0.031246472
200	0x3c75cdf8	0.01500272
201	0xbb054eb7	-0.0020341107
202	0xbd0ce1d2	-0.034395047
203	0x3c81f8f3	0.015865779
204	0xbcfffc29	-0.031248169
205	0x3ca4dc9b	0.020124724
206	0x3c8a1771	0.01685688
207	0xbbf20a27	-0.007386464
208	0xbbb65298	-0.005564045
209	0x3cce47a3	0.025180643
210	0xbb2df92a	-0.0026546218
211	0x3c0fd95a	0.008779848
212	0x3d03c762	0.03217257
213	0x3c477769	0.012174466
214	0xbcacfdb2	-0.021117065
215	0x3c8ac735	0.016940692
216	0x3b702b94	0.0036647068
217	0x3c30d0b8	0.01079195
218	0x3c9921e1	0.018692913
219	0xbd0ea104	-0.034821525
220	0xbcd55615	-0.026042024
221	0x3c6630ae	0.014049692
222	0xbc157c4e	-0.009123875
223	0x3cc8b1b3	0.024498796
224	0xbbc7e3f1	-0.006100171
225	0x3c83572a	0.016032774
226	0x3c8602f7	0.016358836
227	0xbb5a4811	-0.0033307115
228	0xbc83e3bb	-0.016099801
229	0x3c967ab7	0.018369062
230	0x3c260116	0.010132095
231	0x3c19a141	0.009376825
232	0x3cae7a85	0.021298656
233	0x3c267661	0.01016006
234	0x3c72ed0a	0.014827022
235	0x3ce0ac54	0.027425922
236	0x3c9d8586	0.019228708
237	0xbcd95a82	-0.026532415
238	0xbcaa6897	-0.020801825
239	0x3d2058c8	0.03914717
240	0x3c62ecfb	0.013850446
241	0x3c6854f5	0.014180412
242	0x3c1bb792	0.009504216
243	0x3c8081e7	0.015686942
244	0xbcd0017f	-0.025391338
245	0xbccb5f19	-0.02482562
246	0xbc077717	-0.008268139
247	0xbcbe534d	-0.02323308
248	0x3b4c4e11	0.003117446
249	0xbb8aed0c	-0.004239684
250	0xbcb73632	-0.02236471
251	0x3ce0f62c	0.027461134
252	0xbbea52f2	-0.007151001
253	0xbcdb0ca4	-0.026739426
254	0x3cc37d51	0.023863466
255	0x3d2a7c80	0.04162264

0.bn_red.running_var f4 [256]
0	0x395f2b31	0.00021283027
1	0x390ca820	0.00013414072
2	0x39a8c94e	0.0003219344
3	0x39acb6ac	0.00032942498
4	0x39f8d126	0.00047458074
5	0x3984a49f	0.00025299654
6	0x39709a41	0.00022945648
7	0x3967c420	0.00022102939
8	0x3966858a	0.00021984256
9	0x3965de96	0.00021922062
10	0x393b174f	0.00017842393
11	0x39897c5f	0.0002622334
12	0x39881196	0.00025953044
13	0x395d49fe	0.00021103767
14	0x39ae0eb3	0.00033198818
15	0x3967d900	0.00022110716
16	0x39628c8e	0.000216054
17	0x39557b4d	0.00020359196
18	0x399e90b4	0.0003024392
19	0x39417aed	0.00018451708
20	0x3955a41f	0.00020374403
21	0x39ab9c16	0.00032731955
22	0x3942a61e	0.00018563165
23	0x3982f714	0.0002497962
24	0x399463eb	0.00028303204
25	0x3951f0f2	0.00020021552
26	0x39c2c51c	0.0003714942
27	0x398989b1	0.00026233264
28	0x39c38dec	0.00037299038
29	0x3932abbe	0.00017039382
30	0x397f167b	0.0002432707
31	0x39c1b510	0.0003694673
32	0x39b139de	0.00033803185
33	0x3998ba23	0.00029130382
34	0x398968aa	0.00026208657
35	0x399e683d	0.00030213772
36	0x396a03e7	0.00022317433
37	0x39a7f9dc	0.00032038882
38	0x3998ea26	0.00029166153
39	0x39763891	0.00023481461
40	0x399ce9b3	0.00029928758
41	0x39b4d840	0.00034493394
42	0x39dc61db	0.00042034578
43	0x397dc4cd	0.00024201274
44	0x395b4398	0.00020910648
45	0x3980431a	0.00024464057
46	0x39be157e	0.00036255637
47	0x399ee39b	0.00030305688
48	0x393d992a	0.00018081503
49	0x39a918a9	0.00032252565
50	0x39768414	0.00023509591
51	0x3936fb47	0.0001745048
52	0x39775c4d	0.0002359014
53	0x399d3deb	0.00029991506
54	0x396ca4b4	0.0002256807
55	0x3994fb16	0.00028415833
56	0x39cc2e6a	0.00038944493
57	0x394d38c1	0.00019571466
58	0x3940fdab	0.00018405046
59	0x394996ad	0.00019224985
60	0x3994ca11	0.0002837931
61	0x39ad5234	0.00033058377
62	0x3978da9f	0.00023732566
63	0x399edb0e	0.00030299317
64	0x3a0318e0	0.000500096
65	0x395756d2	0.00020536341
66	0x396a45d8	0.00022341998
67	0x397d9166	0.00024182125
68	0x3a0088e9	0.00049032137
69	0x39a163ee	0.00030782766
70	0x398e3cde	0.000271297
71	0x39938826	0.00028139463
72	0x398628b3	0.00025588795
73	0x3989c204	0.0002627523
74	0x397e0633	0.00024225637
75	0x39c4a5a2	0.0003750744
76	0x397488ed	0.00023320662
77	0x3964fc50	0.00021837768
78	0x394fd9d7	0.0001982221
79	0x39735b54	0.00023208308
80	0x399896e4	0.00029104121
81	0x395014e1	0.00019844204
82	0x399a49ec	0.00029428245
83	0x3925276c	0.00015750312
84	0x398e0078	0.000270847
85	0x395a9e53	0.0002084908
86	0x398bed81	0.000266891
87	0x39c7b12b	0.00038088238
88	0x39732581	0.00023188257
89	0x397eec52	0.00024311364
90	0x39427737	0.00018545693
91	0x39c26c16	0.00037083094
92	0x399f7841	0.0003041644
93	0x3968fdf1	0.00022219845
94	0x39bd22f3	0.00036074928
95	0x39f77b10	0.000472032
96	0x3952ea3d	0.00020114421
97	0x39967a9e	0.00028701586
98	0x393ff49f	0.00018306308
99	0x399381a6	0.0002813462
100	0x3998677a	0.00029068795
101	0x3978314f	0.00023669492
102	0x398d946a	0.00027004193
103	0x39a77469	0.00031939454
104	0x395bbe51	0.00020956366
105	0x39954a25	0.00028474737
106	0x3957425c	0.00020528719
107	0x398fd1d4	0.0002743142
108	0x396ea92b	0.00022760469
109	0x39ba5b50	0.00035544718
110	0x398a05cb	0.00026325727
111	0x39a5d1e4	0.00031627633
112	0x39e92cde	0.00044474652
113	0x39847a7b	0.00025268257
114	0x395e29d4	0.00021187152
115	0x397ec077	0.00024295026
116	0x39674265	0.0002205461
117	0x39642aac	0.00021759671
118	0x39a352a6	0.0003115136
119	0x397711ef	0.00023562436
120	0x39904c25	0.00027522552
121	0x399fdeeb	0.0003049293
122	0x399cbc99	0.00029895155
123	0x399c0c18	0.0002976365
124	0x393e24c7	0.00018133513
125	0x39f62d52	0.00046954543
126	0x3977b7b7	0.00023624195
127	0x395b8e31	0.00020938438
128	0x3973f586	0.0002326575
129	0x39803735	0.00024455195
130	0x3981bc64	0.0002474516
131	0x39a26ece	0.00030981604
132	0x394ec220	0.00019718008
133	0x39bd82d0	0.00036146352
134	0x39679941	0.00022086968
135	0x39b07f58	0.00033664214
136	0x396a7d69	0.00022362698
137	0x398cba84	0.00026841846
138	0x399a199c	0.0002939225
139	0x3983fd74	0.00025175104
140	0x397c744c	0.00024075917
141	0x3971a9fc	0.00023046875
142	0x3988a445	0.00026062332
143	0x39526646	0.0002006526
144	0x39d2c34e	0.00040199835
145	0x39a0ed06	0.00030694174
146	0x39a12e71	0.00030742915
147	0x398a71fb	0.00026406333
148	0x39679a38	0.00022087328
149	0x39a8021e	0.00032045034
150	0x398fdcc2	0.00027439563
151	0x397166d8	0.00023021863
152	0x398adcc8	0.00026485906
153	0x3982f025	0.00024974454
154	0x39a77e7d	0.00031946963
155	0x397ee6bb	0.00024309281
156	0x394928dd	0.00019184077
157	0x39861ddf	0.00025580727
158	0x3986b6b7	0.00025694605
159	0x394f2fee	0.00019758914
160	0x397742bb	0.00023580615
161	0x398d7c2b	0.00026986128
162	0x39765daf	0.00023495288
163	0x399dd908	0.00030107074
164	0x399f199d	0.00030345927
165	0x39b269d7	0.00034029662
166	0x395a47eb	0.00020816892
167	0x39836910	0.00025064545
168	0x39928726	0.00027947983
169	0x395d9c61	0.00021134458
170	0x39877ad1	0.00025840712
171	0x399e8b9b	0.00030240123
172	0x399b6013	0.00029635485
173	0x397c73ba	0.00024075704
174	0x39838a65	0.0002508938
175	0x3998654e	0.00029067177
176	0x398e29f9	0.00027115623
177	0x397251c6	0.00023109381
178	0x393b4d42	0.0001786249
179	0x39a506bb	0.00031476267
180	0x397f6e51	0.00024359791
181	0x396aa72c	0.00022378255
182	0x39421de6	0.0001851242
183	0x397481ad	0.00023317961
184	0x3979a04d	0.00023806207
185	0x3950fd0f	0.00019930697
186	0x39904166	0.00027514546
187	0x39ac722e	0.00032891467
188	0x398c102f	0.0002671494
189	0x39fbe89b	0.00048047755
190	0x39816445	0.00024679504
191	0x397b4e0b	0.00023966299
192	0x39a6afa2	0.00031792844
193	0x3a049ff1	0.00050592335
194	0x39530c19	0.00020127035
195	0x39cc4e0d	0.00038968064
196	0x394c66d6	0.00019493265
197	0x395cb027	0.00021046457
198	0x3978a03b	0.00023710814
199	0x39835431	0.00025048995
200	0x396a994f	0.00022373091
201	0x39787cf3	0.0002369767
202	0x3925241f	0.00015749082
203	0x39d0c749	0.0003982133
204	0x399eda77	0.00030298877
205	0x39a4a475	0.00031403048
206	0x3968b9f9	0.00022194524
207	0x39898fde	0.00026237866
208	0x39512295	0.00019944676
209	0x3978d1e2	0.0002372931
210	0x3995474e	0.0002847262
211	0x395403a6	0.00020219255
212	0x398d7153	0.0002697805
213	0x39764eff	0.00023489817
214	0x39a14533	0.0003075987
215	0x39b2d1f4	0.00034107233
216	0x39600a6c	0.00021366187
217	0x398aa71b	0.00026445914
218	0x39775651	0.00023587911
219	0x39aa7ad6	0.00032516447
220	0x39b9fae3	0.00035472875
221	0x3982313f	0.00024832223
222	0x394bfb50	0.0001945321
223	0x39ced9f4	0.0003945377
224	0x39fbc75d	0.00048022988
225	0x399bf087	0.0002974311
226	0x392d64e9	0.00016536158
227	0x39651598	0.00021847186
228	0x399adb3b	0.00029536508
229	0x397ef3ac	0.00024314102
230	0x39bf7e57	0.0003652449
231	0x39614d7b	0.00021486536
232	0x39869d50	0.0002567568
233	0x397cdea6	0.00024115536
234	0x39d04ff4	0.0003973242
235	0x399b13c2	0.00029578625
236	0x39ba0cd4	0.00035486242
237	0x39a893f2	0.00032153685
238	0x39646a65	0.0002178341
239	0x39692759	0.0002223527
240	0x397d3f7d	0.00024151611
241	0x396770f0	0.00022071949
242	0x39659467	0.00021894426
243	0x39a93557	0.00032273933
244	0x397c0c66	0.00024037212
245	0x3972b628	0.00023146777
246	0x3996c603	0.0002875776
247	0x3940c893	0.00018385267
248	0x3975f0a6	0.0002345467
249	0x3962c4c2	0.00021626338
250	0x3985a9b6	0.0002549418
251	0x3972e0ea	0.00023162705
252	0x392e46de	0.00016620333
253	0x394b9311	0.00019414375
254	0x399a5e5b	0.0002944347
255	0x39c1ea71	0.000369865

1.weight f4 [1, 256]
0	0xbe840516	-0.2578513
1	0xbebc0316	-0.36721104
2	0xbe536edf	-0.20647763
3	0x3e559752	0.20858505
4	0x3d126576	0.035741292
5	0xbe4050cc	-0.18780822
6	0xbe45e7a1	-0.1932664
7	0x3e5c5d01	0.21519853
8	0x3e9d9421	0.30777076
9	0x3eb6248a	0.35574752
10	0x3eacde59	0.33763388
11	0x3e1694d5	0.14705212
12	0x3e7c9a15	0.24668153
13	0xbe95b4da	-0.2923954
14	0x3e0c9075	0.13726981
15	0x3eb37f25	0.3505794
16	0x3eb51444	0.35367024
17	0x3e927f54	0.2861277
18	0xbe34f282	-0.17670634
19	0xbeb82e41	-0.3597279
20	0x3eab2c78	0.33432364
21	0x3e1e6f06	0.1547204
22	0x3eb6d024	0.35705674
23	0xbe4f2872	-0.20230272
24	0x3d9e1192	0.07718195
25	0x3e9271f3	0.2860256
26	0x3e1b8a06	0.1518937
27	0x3e7082bb	0.2348737
28	0xbe05df28	-0.13073409
29	0xbeb21211	-0.3477941
30	0xbe5f6a9a	-0.21818009
31	0x3e699900	0.22812271
32	0x3e158bdd	0.14604135
33	0x3d6d9bb3	0.058009814
34	0x3e63ad97	0.22234188
35	0xbc2f84ba	-0.010712797
36	0xbe86ede8	-0.26353383
37	0xbcee9b54	-0.0291268
38	0xbd15f85f	-0.03661382
39	0x3e46460c	0.19362658
40	0xbe2a48dc	-0.16629356
41	0x3de30955	0.11085764
42	0x3d930906	0.071794555
43	0xbe8f7af0	-0.2802348
44	0xbe94c0b0	-0.2905326
45	0xbe4369b4	-0.19083291
46	0x3b7ed14b	0.0038882073
47	0xbe33ad6e	-0.17546627
48	0x3eb529a6	0.35383338
49	0x3ca7dd08	0.020491138
50	0x3e5c63e8	0.21522486
51	0x3ea222fe	0.31667322
52	0x3e80c7d3	0.25152454
53	0x3e313cb7	0.17308317
54	0x3e970256	0.2949397
55	0x3e35c44e	0.17750666
56	0x3d4fa09d	0.050690282
57	0x3e4d4260	0.20044851
58	0x3e8ebb10	0.27877092
59	0xbe891c62	-0.26779467
60	0xbdd0d30a	-0.101965025
61	0xbdad0de2	-0.084499136
62	0x3e036334	0.12830812
63	0x3e3c0b34	0.18363649
64	0xbca91e6e	-0.020644393
65	0x3e9e9513	0.3097311
66	0xbe9f338d	-0.31094018
67	0x3e256d78	0.1615504
68	0xbd93a6b5	-0.07209531
69	0x3e0a7130	0.1351974
70	0xbcd3fab4	-0.02587638
71	0xbdb759e3	-0.089526914
72	0xbe1c46e5	-0.15261419
73	0x3e226c6d	0.15861674
74	0x3e18919d	0.14899297
75	0xbd87f92a	-0.06639321
76	0xbe404f2b	-0.187802
77	0xbe995118	-0.29944682
78	0x3eaaae50	0.33336115
79	0xbe5347c2	-0.20632842
80	0x3e494273	0.19654255
81	0x3e9219cb	0.28535303
82	0x3e0cebb3	0.13761787
83	0x3edf7db5	0.43650594
84	0x3e6ef7bf	0.23336695
85	0x3e7643f5	0.24049361
86	0xbe80b09b	-0.2513474
87	0x3e4304f3	0.19044857
88	0x3ea3351c	0.31876457
89	0x3e75d9a3	0.24008803
90	0x3e858b06	0.2608263
91	0x3d9fd699	0.07804603
92	0x3d9295d1	0.071574815
93	0xbe9d03a1	-0.3066683
94	0xbd43ca7d	-0.04780053
95	0xbd439356	-0.047747932
96	0xbe5c82ed	-0.21534319
97	0xbe1cd13d	-0.15314193
98	0xbea0fa01	-0.31440738
99	0xbe1ba082	-0.15197948
100	0xbdac54cc	-0.08414611
101	0xbe68c7e9	-0.2273251
102	0xbe3c893b	-0.18411724
103	0xbde7f1bd	-0.11325405
104	0xbe8414d3	-0.25797138
105	0x3dcba949	0.09944398
106	0x3ea3df9a	0.32006532
107	0xbe05dde4	-0.13072926
108	0xbe8d84e5	-0.27640453
109	0xbdcb5495	-0.09928242
110	0x3e0161ac	0.12634915
111	0x3e172610	0.14760613
112	0xbc9745e4	-0.018465944
113	0xbe2e7881	-0.17038156
114	0xbe904dcd	-0.28184357
115	0x3e1a0641	0.15041448
116	0x3e878f8b	0.26476702
117	0xbe851ebd	-0.26000014
118	0x3cacd1d9	0.021096157
119	0x3e74c673	0.23903827
120	0x3d2ee960	0.042703032
121	0x3dec7d9f	0.11547398
122	0x3d461214	0.048357084
123	0x3e15655c	0.14589447
124	0xbe75f68d	-0.24019833
125	0xbcb403cd	-0.021974469
126	0x3e2d6c73	0.16935901
127	0x3e9cbf39	0.3061464
128	0x3e11b3cb	0.14228742
129	0xbe83aa6f	-0.25715968
130	0xbe6ccf5d	-0.23125978
131	0x3db32b43	0.08748486
132	0x3e9c8479	0.3056982
133	0x3e27fb08	0.16404355
134	0x3e51ceb9	0.20489015
135	0xbe2b2d3c	-0.16716474
136	0x3e9891ac	0.2979864
137	0xbe7f65ee	-0.24941227
138	0x3e2a91ec	0.16657227
139	0x3e5c5c3b	0.21519558
140	0x3e93c389	0.2886012
141	0x3e266162	0.16248086
142	0xbe34aae0	-0.17643309
143	0xbe859578	-0.26090598
144	0x3da2eea2	0.07955672
145	0x3e61d1b2	0.22052649
146	0x3dd2ef6f	0.102995746
147	0xbe7fe23e	-0.24988648
148	0x3ea7fe68	0.32811284
149	0x3e132b59	0.14372005
150	0x3e071d7c	0.13194841
151	0xbe49f836	-0.19723591
152	0xbe47642c	-0.19471806
153	0x3e10fd46	0.14159116
154	0x3de12a09	0.10994346
155	0x3e88a0ad	0.26685086
156	0xbe960bcb	-0.29305872
157	0xbc87f228	-0.016594961
158	0xbdd4fa2f	-0.10399281
159	0xbe9cdde2	-0.30638033
160	0x3e93c9c4	0.28864872
161	0x3e090fa7	0.13384877
162	0x3e6469c0	0.22305965
163	0x3dd6ae0d	0.10482416
164	0x3e35b75f	0.17745732
165	0x3db7ad9d	0.08968661
166	0x3e8595cf	0.26090857
167	0x3e21231f	0.15736054
168	0xbe01a01a	-0.1265873
169	0xbeafbda6	-0.34324378
170	0xbe1521d1	-0.14563681
171	0x3cfbce82	0.030738119
172	0x3e2eb89a	0.17062607
173	0xbdfa03ea	-0.12207778
174	0xbe354c36	-0.17704853
175	0x3e3aa352	0.18226364
176	0xbe4abdc6	-0.19798955
177	0x3e80f86d	0.25189534
178	0xbe5ed7b3	-0.2176197
179	0xbdbb22de	-0.0913751
180	0xbe4a8b78	-0.19779766
181	0xbe8e8c9a	-0.27841645
182	0xbea66262	-0.32496935
183	0xbe85f735	-0.26165166
184	0xbe8b7a06	-0.27241534
185	0xbe282c1a	-0.16423073
186	0xbea9983d	-0.3312396
187	0xbd8003f6	-0.062507555
188	0x3e887753	0.26653537
189	0xbd56c419	-0.052433107
190	0xbe7ec448	-0.24879563
191	0xbe8f774a	-0.28020698
192	0xbe8af8d5	-0.2714297
193	0x3d8739c5	0.066028155
194	0x3e42f8e3	0.19040255
195	0xbdf946db	-0.12171718
196	0x3e6bbf20	0.23022127
197	0xbebc0903	-0.36725625
198	0x3e42dcbc	0.19029516
199	0xbe71c06b	-0.23608558
200	0xbea17b72	-0.31539494
201	0xbe97f582	-0.29679495
202	0x3e80353d	0.25040618
203	0x3d65b0c3	0.056076776
204	0x3e5f2c6a	0.21794286
205	0xbe2883e5	-0.16456564
206	0xbe8ae8a7	-0.27130625
207	0x3d3b631a	0.045748807
208	0xbea03641	-0.31291392
209	0xbe87759b	-0.26456913
210	0xbe4f96ea	-0.20272413
211	0x3ea83097	0.3284957
212	0xbe3b37a1	-0.1828294
213	0x3e644ac1	0.22294141
214	0xbe44e1a6	-0.19226703
215	0xbdfd22cd	-0.12360153
216	0x3e84cf72	0.25939518
217	0xbe563352	-0.20918015
218	0xbe8670dc	-0.2625798
219	0x3d01879d	0.03162347
220	0x3dcd50a7	0.10025149
221	0x3e632185	0.22180755
222	0x3e6efdc4	0.23338991
223	0x3dabf471	0.08396233
224	0x3bf71132	0.0075398916
225	0xbe4f8a10	-0.2026751
226	0xbe90f480	-0.2831154
227	0x3e64e5b6	0.22353253
228	0x3e29fc65	0.16600187
229	0xbe52c951	-0.20584609
230	0xbe337aff	-0.17527388
231	0xbe9e071f	-0.30864808
232	0xbe962110	-0.293221
233	0x3e3bcaaf	0.18339036
234	0x3da985f4	0.08277503
235	0xbe379cb9	-0.17930879
236	0x3d83ab72	0.06429185
237	0x3d8a39c1	0.06749297
238	0xbe8512eb	-0.25990996
239	0xbe8cb759	-0.27483633
240	0xbe97dc35	-0.29660192
241	0x3e7c075f	0.24612187
242	0x3e8f86c9	0.2803252
243	0xbe5c7112	-0.21527508
244	0x3e6a2c7a	0.22868529
245	0xbe9a1ceb	-0.30100188
246	0x3e691b1c	0.22764248
247	0x3eb50597	0.35355827
248	0xbe8e1110	-0.27747393
249	0x3e7fda1a	0.24985543
250	0x3e41b90a	0.18918243
251	0xbe4208aa	-0.18948618
252	0xbec14f71	-0.3775592
253	0x3ec624fc	0.38700092
254	0x3e338e2c	0.17534703
255	0xbe07b0b3	-0.13250999
