weights/cm.pt (torch, 4733 bytes, 1 tensors)

weight f4 [1, 768]
0	0x3dc5bbd0	0.09654963
1	0x3da62f6d	0.081145145
2	0x3b460dd5	0.0030220647
3	0x3c3a54f1	0.011372791
4	0xbc42ce0a	-0.011889944
5	0x3d2effcc	0.042724416
6	0xba03f8c8	-0.0005034325
7	0x3d0d599d	0.03450929
8	0x3cd9ff1e	0.026610907
9	0xbcad7359	-0.021173166
10	0xbddb89d0	-0.10719645
11	0x3b9c9c68	0.0047793873
12	0x3d4622b7	0.04837295
13	0x3d0c2299	0.034212682
14	0xbb964637	-0.004586007
15	0x3aa229b4	0.0012372048
16	0xbd2473fe	-0.04014968
17	0x3d93a52b	0.07209238
18	0x3d0b5abb	0.034022074
19	0xbce24c61	-0.02762431
20	0x3d3feb9f	0.046855565
21	0xbc90d734	-0.017680742
22	0x3d5b34ce	0.053517155
23	0x3bdf3bbb	0.0068125403
24	0x3c961ed6	0.01832525
25	0x3c8f008c	0.017456315
26	0x3a5a8bcc	0.00083368714
27	0x3ac7e5f4	0.0015251026
28	0x3b8d67bd	0.004315345
29	0x3c9dbf0a	0.019256134
30	0xbd0186d9	-0.03162274
31	0x3c9126e2	0.017718736
32	0xbd3fda34	-0.046838954
33	0x3cb7f7a5	0.022456953
34	0xbc58e93d	-0.013239202
35	0xbc6a0282	-0.0142828245
36	0xbd3b1dc7	-0.045682695
37	0x3d0bdb74	0.034144834
38	0x3ccbac6d	0.024862492
39	0x3dc4745c	0.09592506
40	0x3c0df143	0.008663478
41	0x3d0a75c3	0.033803713
42	0xbb70a196	-0.0036717406
43	0x3b8e37c1	0.0043401425
44	0xbd413cce	-0.04717713
45	0x3cf1d6cb	0.029521367
46	0xbc6b7475	-0.014371027
47	0x3c099f0d	0.008399737
48	0x3d92118e	0.071322545
49	0xbd282287	-0.041048553
50	0xbbea1b7e	-0.0071443906
51	0x3d9aba74	0.07555094
52	0xbdaa7552	-0.08323158
53	0xbd8adc63	-0.06780317
54	0x3d38cd00	0.04511738
55	0xbd4abbe2	-0.049495585
56	0xbc1f9b23	-0.009741577
57	0x3d133744	0.035941377
58	0xbd90dd5e	-0.070734724
59	0x3c012c0d	0.007884038
60	0xbd70e644	-0.05881335
61	0xbd38a7a8	-0.045081764
62	0x3cd225c8	0.025652781
63	0xbad710d6	-0.0016408216
64	0xbcacc180	-0.021088362
65	0xbc7c04a3	-0.015381965
66	0x3c196929	0.009363451
67	0xbcadb160	-0.021202743
68	0x3c652cfd	0.013987777
69	0x3c820f1f	0.01587635
70	0xbd07ba73	-0.033136796
71	0x3cc4ecba	0.024038661
72	0x3d36edef	0.044660505
73	0xbb67e158	-0.0035382118
74	0xbca1e7f0	-0.019763917
75	0xbd24de7f	-0.04025125
76	0x3ce8ba0c	0.028409027
77	0x3c1746f6	0.009233227
78	0xbd67d469	-0.056599054
79	0x3cfafa3a	0.030636895
80	0xbc9e48a0	-0.01932174
81	0xbd88b712	-0.06675543
82	0xbbdb7548	-0.0066973306
83	0x3d84b9d2	0.06480755
84	0x3ce873a9	0.028375464
85	0xbd32a53d	-0.043614615
86	0x3cd83db7	0.026396615
87	0xbc3155d2	-0.010823684
88	0x3d33358e	0.043752246
89	0xbd0b33da	-0.033984996
90	0xbd2a561e	-0.041586034
91	0xbc4e42e8	-0.012589194
92	0xbd825e86	-0.06365685
93	0xbcc02af2	-0.023457978
94	0xbc4a5d00	-0.0123512745
95	0xbbe194bd	-0.006884186
96	0xbd092e30	-0.033491313
97	0xbd2254bc	-0.03963159
98	0x3cb66f06	0.022269737
99	0xbccf5ab1	-0.0253118
100	0x3d9eda06	0.077564284
101	0xbceb6981	-0.028736832
102	0x3dcf00fc	0.1010761
103	0x3c31faa2	0.010862978
104	0x3c0ffdaa	0.008788506
105	0x3d6b1259	0.057390545
106	0xbbab8028	-0.0052337833
107	0x3dd5ef41	0.10446025
108	0xbc8b4c1a	-0.017004061
109	0x3c53efa4	0.012935553
110	0x3c19e5b6	0.009393146
111	0xbd5e1a39	-0.054224227
112	0x3d958b43	0.07301953
113	0xbd9e1eaa	-0.077206925
114	0x3c45929d	0.012058881
115	0x3dc61607	0.0967217
116	0xbd090223	-0.033449303
117	0xbd12ea3a	-0.035867907
118	0xbd1a988c	-0.037743136
119	0x3c947f05	0.018126974
120	0x3bb75367	0.005594659
121	0x3d68b9c3	0.05681778
122	0xbd45fb9b	-0.048335653
123	0xbd85976e	-0.065230235
124	0xbc308dbf	-0.010775982
125	0x3ba1e569	0.004940678
126	0x3bcbae20	0.0062158257
127	0x3d3e98b4	0.046532348
128	0xbcb9c846	-0.022678506
129	0xbbbc86bc	-0.0057533663
130	0xbd511286	-0.051043056
131	0xbce3a59f	-0.027788935
132	0x3c4f200b	0.012641917
133	0x3d9d6040	0.07684374
134	0x3c4f3e0d	0.012649071
135	0x3dae3947	0.085070185
136	0x3d0a1225	0.03370871
137	0x3cf4837f	0.029847858
138	0xbcaabc26	-0.02084167
139	0x3d22ba36	0.039728366
140	0xbd6dfb9c	-0.05810128
141	0xbca6d866	-0.020366859
142	0xbac0a681	-0.001469806
143	0xbd9c7822	-0.07640101
144	0xbd575492	-0.052570887
145	0xbd583963	-0.052789103
146	0xbd42783d	-0.04747795
147	0xbd809e0a	-0.062801436
148	0x3d2c5a78	0.042078465
149	0x3d085359	0.03328261
150	0xbd15f565	-0.03661098
151	0x3cb47585	0.022028694
152	0x3c15eef0	0.009151205
153	0xbd21a462	-0.03946341
154	0x3bc34966	0.0059596775
155	0x3d49bf5a	0.049254753
156	0xbc3fc304	-0.01170421
157	0x3cf23049	0.02956404
158	0x3d244ac1	0.040110353
159	0x3d11ab9c	0.03556405
160	0x3d87b8f8	0.06627077
161	0xbd846a31	-0.06465567
162	0xbd277684	-0.04088451
163	0xbbd57238	-0.00651386
164	0x3d09048e	0.03345161
165	0xbbb654d9	-0.005564314
166	0x3c476ff7	0.012172691
167	0x3c5631fa	0.013073439
168	0x3cbbec57	0.022939844
169	0xbd195221	-0.03743184
170	0xbb931bbd	-0.0044893906
171	0xbbc5d333	-0.00603714
172	0x3c0d37ed	0.008619291
173	0xbd1cb630	-0.038259685
174	0xbd2772ee	-0.04088109
175	0xbd081ed9	-0.033232544
176	0xbd07ebbe	-0.033183806
177	0xbc783010	-0.015148178
178	0x3cf0bc46	0.02938665
179	0x3d645535	0.055745322
180	0xbbb068ad	-0.005383572
181	0x3d372860	0.04471624
182	0x3cdb972b	0.026805481
183	0xbd21ca4a	-0.03949956
184	0xbcbbdf1e	-0.022933539
185	0x3cb44154	0.022003807
186	0xbb86f6ab	-0.0041187606
187	0x3bed4cd3	0.007241824
188	0x3add3a02	0.001687825
189	0xbd10fc70	-0.035396993
190	0xbc30f96c	-0.010801654
191	0x3c05c822	0.008165391
192	0x3cc31599	0.02381401
193	0x3d05849d	0.032597173
194	0x3d2ccde0	0.042188525
195	0x3d9eca6c	0.07753453
196	0x3c0b9f14	0.008521814
197	0xbd046fd4	-0.03233321
198	0xbbd7bbac	-0.0065836515
199	0x3c25ee60	0.010127634
200	0x3c8a6f5c	0.016898803
201	0x3d6b48a5	0.057442326
202	0xbd3943f9	-0.04523084
203	0xbcb680f9	-0.022278296
204	0x3d0bd1dc	0.034135684
205	0xbbf4920e	-0.0074637
206	0x3aac45b5	0.0013143333
207	0xbb989088	-0.0046559013
208	0xbda24945	-0.07924131
209	0x3ce64781	0.028110268
210	0xbd6830a4	-0.056687012
211	0x3ace39b0	0.0015733745
212	0xbd3783a7	-0.044803288
213	0x3b0670f9	0.0020514114
214	0x3ccc6105	0.024948606
215	0x3c2021f3	0.009773719
216	0xbd3fc1da	-0.04681573
217	0x3ccd67ee	0.025073972
218	0x3bc9ed9c	0.0061623584
219	0xbca16383	-0.019700771
220	0x3c6e541f	0.014546423
221	0xbd4f9418	-0.050678343
222	0xbd139f0d	-0.036040355
223	0xbd7c2657	-0.06156
224	0xbdc84de7	-0.09780484
225	0x3c02ccf6	0.007983437
226	0xbd3c914d	-0.046037007
227	0xbcf6eb13	-0.030141389
228	0x3c2bc9a1	0.010485084
229	0x3ca152c7	0.019692792
230	0x3c6c4878	0.014421575
231	0xbd1329a0	-0.03592837
232	0xbc640136	-0.013916304
233	0xbc014c49	-0.007891723
234	0x3c6472b9	0.013943368
235	0xbd973b29	-0.07384331
236	0x3dedfd6a	0.116206005
237	0x3c3c925b	0.011509503
238	0x3ce306e5	0.027713249
239	0xbd0ed3ff	-0.034870144
240	0x3ac5eb20	0.001509998
241	0x3d8fc788	0.070204794
242	0xbd2c028f	-0.041994628
243	0x3d73892e	0.059456997
244	0xbcd7755b	-0.026301077
245	0x3d5ac00b	0.053405803
246	0xbcee7c28	-0.029111937
247	0xbd1bc94d	-0.038033772
248	0x3c8f00c0	0.017456412
249	0xbd3e9a57	-0.04653391
250	0xbcae7a29	-0.021298485
251	0xbbc33a9f	-0.005957916
252	0xbb258f77	-0.0025262514
253	0xbcf3b941	-0.029751422
254	0x3d432f13	0.047652315
255	0xbd294e56	-0.041334473
