weights/cm_ethics.pt (torch, 796519 bytes, 7 tensors)

0.fc_red.weight f4 [256, 768]
00000000: b3a7 b53c f0b1 4fbc 8fe4 9a3c dd51 4f3c
00000010: 1a7f b1bc 093c b0bc 6d09 243d b9c3 bd3b
00000020: 50ea d13c d774 b7bb 9b9f 113d 6bf5 143d
00000030: 5791 953c 2717 a2bb 92c5 5d3c 6f17 08bd
00000040: cf29 c93c a6e1 eabb 3758 3a3c e632 1b3c
00000050: f846 ee3c e186 48bd 53cf 013c ef8f 223b
00000060: 1d46 5c3b ed0b 16bc 5695 a3bc 39bf 1f3c
00000070: 1fc7 3c3d 23b1 783c 6dae 2cbc 4718 023c
00000080: cba7 3abb a12b 103c 997d d3bc 8635 c43c
00000090: 0136 89bc 2523 673c 2ced c73c 0fc4 c23c
000000a0: 65e6 5abc 59c2 293c 33b9 ee3c 0398 f5bc
000000b0: ba50 013d fb71 68bc eed3 983b 9e47 88bb
000000c0: 0178 2cbb feb6 a0bc 5554 4ebc e1a0 f23c
000000d0: 6d49 bcbc 1bc7 a33c f05c 813c 5787 63bc
000000e0: fca3 183c edbf a43c 8c97 3d3c 2485 593c
000000f0: ba7a 1bb9 9ccc 963c c493 ff3c be06 14bb
00000100: c704 df3c 020e d8bc c0d9 e1bc f5b3 253d
00000110: d41d f23b 6374 28bd b596 b63c b355 c4bc
00000120: 6a8e 58bc d861 9c3a 9084 afbc 9652 a7bb
00000130: 55f0 04bd b17a 71bc 754a 8bbc 50a7 fc3c
00000140: ca43 c8bc 6a36 713a 5c72 353d 3848 4eba
00000150: 09ff bfbc e446 f5b9 5d61 873c 61c7 edba
00000160: a50a febb 71ac 093c 5867 8cbc 522b 02bd
00000170: 5e18 8b3c b78b e8b9 a25c da3b d2b2 bd3a
00000180: c7bb 73bc bcc9 283c 8c94 9cbb 9754 eebc
00000190: b37f 123c ddc8 b2bc 545a 543c 2dfc 8dbc
000001a0: 3eca 473c 8dae 9d3c cc46 393a 2cb0 d33c
000001b0: c865 97bc 97b0 e83c 732b a7bc ba25 063c
000001c0: f070 763c ac36 4c3c e7bc e13c bac9 173d
000001d0: 30c6 29bb d1f1 d0ba 5197 0c3d afbd 303c
000001e0: b532 dfbb de5d 05bd 51b3 923c 22bc a33c
000001f0: 2814 4dbc 12b8 9e3c 938e cfbb 0c4b 1e3b
00000200: 3a4d 66ba 76bc d3bb a8ae a33c b948 a83b
00000210: f620 223c d752 a93c 34d9 abbc d6c4 c9bc
00000220: ddb2 2d3c 0e44 dc3a c683 953b 602f 13bd
00000230: abb9 89b9 e79d 2bbc 78a8 993c ceda 823c
00000240: b0f2 06bb 8bb2 993c 480c acbc 9139 09bc
00000250: b4c4 a1bc cd61 593c d941 9cbb d21b 94bc
00000260: aa0d 92ba 0b26 fe39 c499 47bc 0a16 eebb
00000270: f4a3 2d3c 3320 d0bc c6af 883c 7b85 513c
00000280: cd16 cbbb 9c74 54bc 299e 28bc 45fe 103d
00000290: f900 9ebc f4c5 8cbc 39ce cc3c 2117 7abb
000002a0: 70ca 47bd 2286 a4bc e4ed 80bc 93ba f6bc
000002b0: f831 f6bc 9c90 06bd 40d0 32bc f9eb 6c3b
000002c0: a746 dcbc 172e 023b 7673 0abc a954 623a
000002d0: a012 33bd 01d9 0cbc 3f5d 97bc 250d f03c
000002e0: ed00 22bc 2497 443c f279 77bc 6242 c1bc
000002f0: 3103 98bc 8ba8 b3b9 e8e5 adbc bb97 bfbc
00000300: ee6c 973c 911a d83c 6289 d6bc 2dd3 c13c
00000310: 44e6 ab3c aa73 c5bc b385 a93c 41f5 0f3d
00000320: 229e 0cbd b93b 85ba a9c8 f53c 0df1 10bd
00000330: dd34 aebc 32eb 813c a72f afbc fbb0 2b3c
00000340: bd77 0a3b 6f7c bcbc 0d63 153d 7ae3 a43c
00000350: 3035 01bd 585e ae3c 5a4f 193d 2339 a0bc
00000360: 840c 6e3c 63d1 7bbc 33ca 1a3d 5f96 323d
00000370: d99e f33b 7624 5bbc 65bb 993c 8272 97bc
00000380: d9a1 f53c 604c d93c 5a51 d4bc f611 6d3c
00000390: dfc5 613c 659a 193c 35b1 a73c 08d5 85bc
000003a0: f67c be3b ceec 15bb c323 cc3c 3b76 813b
000003b0: b928 8b3c 93d6 e7bb 51d7 a83a 8567 e53c
000003c0: 1dcc a53c 6577 c23c 7d30 cbbc 41cf 963c
000003d0: a0a2 be3c efbc 4d3b 6400 66bc 7b9f f83b
000003e0: 93ae 9fbc 9ecb 92bc 54a6 9abc 77bb 1e3b
000003f0: 7f58 d4bc 2672 5b3c 6919 6ebb eb0e 9cbc
0.022174692 -0.012676701 0.018907813 0.012653795 -0.021667052 -0.021513002 0.04004805 0.005791154
0.025624424 -0.005598645 0.035552602 0.03636686 0.01825778 -0.0049466076 0.013535874 -0.033225473
0.024556069 -0.0071680127 0.011373571 0.009472584 0.029086575 -0.048956756 0.007922965 0.002480503
0.0033611127 -0.009158117 -0.01996867 0.009750181 0.046088334 0.015178951 -0.010539633 0.0079403585
-0.002848136 0.008799464 -0.025816726 0.023951303 -0.016749384 0.0141075 0.024405085 0.023775129
-0.013360594 0.0103612775 0.029141044 -0.029979711 0.031571127 -0.014187331 0.004663936 -0.004158928
-0.0026316645 -0.019618507 -0.0125933485 0.029617729 -0.02298423 0.019992402 0.015791386 -0.013887248
0.009316441 0.020111049 0.011571776 0.013276372 -0.00014827671 0.018408112 0.03119839 -0.0022587026
0.027223958 -0.026373867 -0.027569652 0.040454824 0.0073888097 -0.04112662 0.02228866 -0.023966646
-0.013217548 0.0011931015 -0.021425515 -0.0051062806 -0.03245576 -0.014738725 -0.017003277 0.0308415
-0.024446387 0.0009201529 0.044298515 -0.0007869038 -0.02343704 -0.0004678286 0.016525919 -0.0018141085
-0.007752734 0.00840293 -0.017139122 -0.031779595 0.016979393 -0.00044354584 0.0066638747 0.0014472848
-0.014876313 0.0103020035 -0.0047784504 -0.02909307 0.008941579 -0.021824295 0.012960989 -0.01733216
0.012194214 0.019248271 0.00070677395 0.025840841 -0.01848115 0.028404517 -0.02040646 0.008187706
0.015041575 0.012464207 0.027555896 0.037057616 -0.0025905482 -0.0015941208 0.034323994 0.010787412
-0.0068114647 -0.03256022 0.01790777 0.01998717 -0.012517013 0.019374881 -0.006334135 0.0024153618
-0.00087853114 -0.0064616753 0.019980744 0.0051356223 0.009895554 0.020669384 -0.020977594 -0.024629992
0.010601726 0.001680495 0.0045628278 -0.035933852 -0.0002626901 -0.010474659 0.01875709 0.015973475
-0.002059143 0.018761894 -0.02100195 -0.008375541 -0.019747116 0.013267946 -0.004768592 -0.018079672
-0.0011142988 0.00048475 -0.012182657 -0.007265811 0.0105981715 -0.025405979 0.016685378 0.012788172
-0.0061977864 -0.012967255 -0.010291615 0.03539874 -0.019287573 -0.017184235 0.025000678 -0.0038160759
-0.048777044 -0.02008349 -0.015738435 -0.030118262 -0.030053124 -0.032852754 -0.0109139085 0.0036151393
-0.026889158 0.0019863897 -0.00845038 0.0008633831 -0.043718934 -0.00859666 -0.01847708 0.029303143
-0.009887916 0.011998925 -0.015104758 -0.023591224 -0.01855621 -0.00034267115 -0.021227792 -0.02338778
0.018484559 0.026379855 -0.026188556 0.023660267 0.020983823 -0.024103004 0.020693636 0.035146
-0.034330495 -0.0010164893 0.030002909 -0.035386134 -0.021265442 0.01585922 -0.021385027 0.010479207
0.0021128498 -0.023008553 0.036471415 0.020128 -0.031544864 0.021285221 0.03742919 -0.019558495
0.014529351 -0.015369746 0.03779049 0.043600436 0.0074347076 -0.013375392 0.018766114 -0.018487219
0.029984402 0.026525676 -0.025917698 0.014469614 0.013780086 0.009375189 0.020470241 -0.016336933
0.0058132363 -0.0022876742 0.024919396 0.0039508617 0.016987192 -0.00707514 0.0012881552 0.028003464
0.02023893 0.023738572 -0.024803394 0.018409373 0.023270905 0.003139313 -0.014038179 0.007587371
-0.019492423 -0.017919358 -0.01887814 0.0024220624 -0.025921104 0.013393914 -0.0036331064 -0.019050082

0.fc_red.bias f4 [256]
00000000: aad8 05bd 58bf 8f3c 7694 5abc 45fa c6bc
00000010: aceb 1f3c d46e ecbc fafc 8abc 7b73 12bd
00000020: 8c4d 4bbc c54b 133b d80d e33c d4f1 343b
00000030: e097 f8bc e518 a13c 434c b73a 06cd 913b
00000040: 3fdd 02bd 1a5e fbbc 63e3 0cbd c92c 0f3d
00000050: c16c b4bc b1e7 433c d066 8dbc 470a 5b3b
00000060: 7414 99bc 8c5b d33c 843d f4bc fb30 0a3d
00000070: e41b 0ebd 1275 8e3c ca3b 12bc 07d8 0c3c
00000080: 8242 a03c ad76 9c3c a6cc 0bbd 2b8c d7bc
00000090: 3c3d 7f3c 8d68 b8bc 3846 d33c 653a 0dbc
000000a0: 0f7c cabc e9e1 033d 7518 df3a e9b9 f73c
000000b0: 758c 4cbc 763c 68bc b5fc 993c 9686 97bc
000000c0: b88b 80bc 8064 07bc 39d8 e0bc f532 bd3b
000000d0: 0054 5abc d934 8fbc a88d 2c3c 056a 81bc
000000e0: 0795 f83a 6b7e eabc 6cb2 f73c cdfb 09bd
000000f0: e000 b13c faf9 d8bc 6c52 ec3c 2445 923b
00000100: 2ad3 113d f5c2 2cbc 390c 0c3c 0bea 32bc
00000110: 499b aabc 4f32 ba3c 65b6 f73c 15d7 b03c
00000120: fcb8 7abc cf67 fcbb 772c 703c 8316 853c
00000130: f90e 633b eccb f9bc ddee 8ebc f4fa ac3c
00000140: f093 ffbc b480 d63b 8b3c 28bc fbc3 cebc
00000150: ba7f c43c ba92 bcbc f9da 09bd 8d4c a4bc
00000160: a5d6 8d3c 7296 b2bc 6d4e 413c 8bf4 9d3a
00000170: f358 043d 4a67 463b 5b6a 2c3b f019 0d3d
00000180: 5e06 e33c 1261 db3c 1192 033d c5b2 07bc
00000190: 9362 d9bb 2023 d7ba 149b 853c e20d 0cbd
000001a0: bef8 063d cd5a 9a3c e180 983c a501 e8bb
000001b0: 787e 07bb af3e b13a ea2c 003d 33c7 5e3c
000001c0: 718a 673c 2ca9 c93c a114 77bc f497 8cbc
000001d0: fb18 f7bc b274 2d3c 3d84 3abc e12d 483c
000001e0: 9fc1 113d 12dd 97bb 5713 6cba 9c3c b63b
000001f0: 1a6e ef3c 0e30 11bd db70 7d3c ff0a 20bc
00000200: ff7f ebbc e110 36bb f749 21bb a79a d1bc
00000210: e1e4 1abc b8cc 92bc 038e f839 96b5 72bc
00000220: eed6 773a d504 a3ba 6e74 373c 2a73 fe37
00000230: ffec ea3c 4cfd 353c fbfd d93c df18 ea3b
00000240: 27cc c3bc b3d7 c23c 8543 acbc 60be a63c
00000250: 0791 b83c e2bc 0abd 884c ddbb cce2 05bd
00000260: e985 8ebc 21da ca3c 844b 8a3c 252e a63c
00000270: c0da 9fbc c663 e3bc f750 56bc fe74 55bc
00000280: a9d5 34bc ef90 ff3b f67d fabc 7607 e3bc
00000290: 3530 86bc a9b2 adbc 4300 5e3c c5f5 fa3c
000002a0: 00e8 01bd 6571 103d 4b99 f9bc 5d16 a53b
000002b0: 700d e0bc b82a f6bc 51a0 cebb 91e1 f4bc
000002c0: ea0d c5bc 4b8c 3cbc 2714 9c3b bfac 0f3c
000002d0: 0385 f53c 1f14 f7bc e219 e6bc da33 1fbb
000002e0: d22d a63a a765 89bb d9d0 afbc fc7d e0bb
000002f0: dc1a 8d3c d68a ccbc 11c8 6139 d260 5d3b
00000300: 9219 c53c 9324 4f3c d8b2 a73c b227 833b
00000310: bbb6 a3bc f948 ddbc 0c21 e1bc 7a17 c23c
00000320: cfcb 603c 1eb7 173b 5240 13bd 07f2 9a3c
00000330: fcb5 ccbc 4ba5 ef3c 4dec 573c 50e3 c8bc
00000340: 5bee 9dba da13 d03c 8ab6 a03b 53df 13ba
00000350: 6cb6 083d 1055 6f3c 9d4f e8bc 2cae 3f3c
00000360: d36e 05bc 0d94 473c cf6d 843c 0180 f5bc
00000370: 449d dabc 46a4 c83c b846 5cbb e1a8 833c
00000380: 27fe 58bc 6a5e ba3c 7e26 8b3c a9bb b03a
00000390: 08bc f5bc 2415 593c b244 0c3c ad61 03bb
000003a0: 9c54 b23c 0f3a 183c 937b 913c a793 053d
000003b0: cf65 f93b 0e93 bebc 07af a3bc 1aca 0e3d
000003c0: d5ad c23b 5d20 ae3c 3b84 b83b adea 7e3c
000003d0: ac6b 02bd f529 eebc 99ea f4bb b009 93bc
000003e0: 2054 eb3b 1fff f4bb 9346 febc fde7 ce3c
000003f0: b306 14bc adca d9bc 3d88 053d 6934 ee3c
-0.03267733 0.017547294 -0.01334106 -0.02428926 0.009760778 -0.02886144 -0.016966332 -0.035754662
-0.012408625 0.0022475582 0.027716562 0.002760996 -0.030345857 0.019665191 0.001398452 0.0044494895
-0.031949278 -0.03068452 -0.03439654 0.03495482 -0.022024514 0.011957095 -0.017260939 0.0033422874
-0.01868651 0.025800489 -0.02981449 0.033738118 -0.034694567 0.017389808 -0.008925388 0.008596427
0.019562963 0.019099558 -0.034130715 -0.026311954 0.015578564 -0.022510791 0.025790319 -0.008619879
-0.024717359 0.032197867 0.0017020839 0.030240016 -0.012484659 -0.014174571 0.018797258 -0.018496793
-0.015691623 -0.008263707 -0.027446853 0.005773897 -0.013325691 -0.017481254 0.01053182 -0.015797624
0.0018965312 -0.028624734 0.030236445 -0.0336874 0.021606863 -0.026486386 0.028847896 0.0044638086
0.035601772 -0.010544528 0.008547836 -0.010920058 -0.020825999 0.022729067 0.03023834 0.021586934
-0.015302893 -0.0077028046 0.014659039 0.016246086 0.0034646376 -0.030492745 -0.017447883 0.021115758
-0.031198472 0.0065461043 -0.010268341 -0.025239935 0.023986686 -0.023019183 -0.033656094 -0.020056034
0.017314265 -0.021800254 0.011798483 0.0012051029 0.03231139 0.0030273967 0.002630851 0.034448564
0.027712997 0.026779685 0.03212172 -0.008282368 -0.0066340654 -0.0016413666 0.016309299 -0.034192927
0.032952063 0.018842125 0.018616142 -0.007080274 -0.0020674746 0.001352271 0.031292833 0.0135972975
0.014132128 0.0246168 -0.015080602 -0.0171623 -0.030163279 0.010586904 -0.011384067 0.01221797
0.035585042 -0.004634508 -0.00090055674 0.0055614244 0.029227305 -0.03544622 0.015468801 -0.009768247
-0.028747557 -0.0027781057 -0.0024610737 -0.02558644 -0.009453983 -0.017919883 0.00047408053 -0.014813801
0.0009454329 -0.0012437353 0.011197193 3.0332787e-05 0.028677462 0.011107754 0.026610365 0.007144078
-0.023901058 0.023784494 -0.02102829 0.02035445 0.022530092 -0.03387154 -0.006753508 -0.032686993
-0.017397838 0.024762215 0.016881712 0.020285675 -0.019513488 -0.027757537 -0.013080827 -0.013028381
-0.011037269 0.00779926 -0.030577641 -0.027713519 -0.016380409 -0.021203356 0.013549867 0.03063477
-0.031715393 0.03526439 -0.030468604 0.0050380663 -0.027350157 -0.030049667 -0.0063057323 -0.029892715
-0.024054486 -0.011508058 0.0047631445 0.008769213 0.029970651 -0.030160962 -0.028088514 -0.002429238
0.001267845 -0.004193026 -0.021461891 -0.006850956 0.017224722 -0.024968546 0.00021532203 0.0033779633
0.024060044 0.012642997 0.020471022 0.004002535 -0.019984594 -0.027012335 -0.027481578 0.023692835
0.013720467 0.0023149918 -0.035950013 0.018914236 -0.02498912 0.029253623 0.013178897 -0.024522454
-0.0012049185 0.025400091 0.004904573 -0.0005640883 0.033377096 0.014607683 -0.028358275 0.011699241
-0.008144098 0.012181294 0.016165642 -0.029968264 -0.026686318 0.024492394 -0.0033611488 0.016071739
-0.013244188 0.022750098 0.016986128 0.0013483661 -0.029996887 0.013249669 0.0085613 -0.0020047233
0.02176886 0.009291186 0.01775912 0.032611515 0.0076110135 -0.02326348 -0.01998092 0.034860708
0.0059411325 0.021255666 0.0056309975 0.015558881 -0.031840965 -0.029072741 -0.0074742553 -0.017948955
0.0071816593 -0.007476702 -0.031039512 0.025257105 -0.0090348 -0.026585901 0.03260063 0.029077725

0.bn_red.weight f4 [256]
00000000: e420 843f 6348 883f f5ba 823f 3e5b 823f
00000010: fadc 7f3f 174d 823f 976c 823f 43ad 823f
00000020: e94c 853f 3419 873f fc66 863f 6935 813f
00000030: dc62 833f 6648 853f 27e2 803f 21c6 863f
00000040: 2c0f 873f 479d 843f 59f7 813f 7ac9 873f
00000050: 3151 863f d958 813f 5b0a 873f 25b5 823f
00000060: c941 803f 4b94 843f f141 813f 70f8 823f
00000070: 9c2c 813f 8063 873f 5518 833f 53d0 823f
00000080: f112 813f 7923 803f accf 823f bcd9 7f3f
00000090: 1d94 843f a111 803f 3019 803f c00e 823f
000000a0: 43de 813f 34a7 803f d927 803f 21f6 843f
000000b0: bd50 853f b665 823f ead9 7f3f c9e9 813f
000000c0: 7d2c 873f 2bec 7f3f 0b8a 823f 4b89 853f
000000d0: 81a7 833f cc82 813f 1ad8 843f 3dc9 813f
000000e0: 08cd 7f3f f14e 823f e743 843f f081 843f
000000f0: 45bc 803f 6284 803f f6db 803f 6ef0 813f
00000100: 40f1 7f3f 6854 853f 27fd 853f fb62 813f
00000110: e659 803f e4ed 803f 610b 803f 2e91 803f
00000120: 709e 813f 726b 813f 5243 813f 454f 803f
00000130: 1261 823f 36a8 853f d536 863f 46cd 823f
00000140: ed30 823f 8e98 843f 0f07 813f a3a3 8a3f
00000150: 431c 833f 0b22 833f a8fa 833f 7eec 813f
00000160: 59a9 853f 8d48 833f 7aba 833f 8f3e 803f
00000170: f536 803f 2bcf 853f 6826 803f 8313 803f
00000180: f2f2 823f d89e 813f 002b 863f df94 813f
00000190: 3682 803f 1943 833f c82e 823f 04e7 803f
000001a0: d83e 843f af7f 803f 21ad 853f 0930 813f
000001b0: b5eb 843f 1cb7 803f a8d1 803f 600e 813f
000001c0: d3d9 7f3f f4ea 813f 69f3 843f 1439 813f
000001d0: b8ff 833f 3a63 843f 2aec 7f3f e846 833f
000001e0: 8f0d 803f 2db7 803f ef03 803f 5f2d 813f
000001f0: 75a4 833f 5c07 803f 3687 813f cc4d 853f
00000200: 8803 813f 7952 843f 816b 833f 2755 803f
00000210: 2928 853f a779 813f 2c52 823f a3e7 813f
00000220: a102 853f 7ae2 833f 9a5c 813f 4598 823f
00000230: 8acc 843f 577c 813f 0f08 823f 5462 843f
00000240: 5139 803f c9b1 823f fb8e 803f 34e5 833f
00000250: f821 863f 3125 813f 27e4 803f dc91 823f
00000260: d784 823f cb10 813f a6a6 803f 0613 843f
00000270: 355b 853f 4c03 803f c6c4 803f 8dd6 853f
00000280: 6ad6 843f a8df 803f 6dc2 823f 8e87 803f
00000290: 60a6 813f 6a69 803f a1e0 833f 882d 813f
000002a0: 5518 813f 5829 873f 5a7b 813f 9c02 803f
000002b0: b763 813f 7af7 803f 891b 823f 74d6 813f
000002c0: aea2 823f 5da7 833f 7105 833f 5599 803f
000002d0: 2694 823f 7ec6 843f 0fac 863f 8b4b 843f
000002e0: aaa9 843f a1cf 813f cc9d 863f ed4b 803f
000002f0: cdf6 833f 272a 803f f6ec 833f 2bf8 843f
00000300: 18a4 843f 872e 803f 5e1b 823f 4109 813f
00000310: 3be4 823f 1a2e 883f 44de 813f a887 833f
00000320: 202f 863f 62a9 853f 74a5 833f 581e 803f
00000330: 66ac 823f 7e9e 813f 698f 843f 4ef1 7f3f
00000340: d511 863f 758e 843f 9390 823f 0f05 863f
00000350: 1329 823f ecc0 823f 7762 823f 0810 813f
00000360: dfd3 833f 98ae 823f d847 843f 9b00 803f
00000370: 8785 803f 98bb 823f 8aff 823f 4955 803f
00000380: fef3 7f3f 0a92 823f 4e0d 853f facf 823f
00000390: cc7a 813f 22c1 823f fb07 823f aa15 863f
000003a0: e052 853f 3fda 813f 7b49 803f 8e25 823f
000003b0: 2c31 803f 9036 803f 3242 843f 81e1 843f
000003c0: a397 853f 2a86 833f d275 843f 82f2 823f
000003d0: 16eb 823f 29a9 853f 31d2 823f 04fc 863f
000003e0: 14f7 843f c984 833f 6a0e 823f 7847 823f
000003f0: b9ad 883f 0e74 883f 2aae 813f d823 813f
1.0322537 1.0647091 1.0213305 1.0184095 0.9994656 1.0179776 1.0189389 1.0209125
1.0414096 1.0554566 1.0500178 1.0094424 1.0264544 1.0412719 1.0069016 1.0529214
1.0551505 1.0360497 1.015361 1.0608361 1.0493528 1.0105239 1.0550035 1.0211531
1.0020076 1.0357755 1.0098249 1.0232067 1.0091739 1.057724 1.02418 1.0219826
1.0083905 1.0010825 1.0219626 0.9994161 1.03577 1.000538 1.0007687 1.0160751
1.0145954 1.0051026 1.001216 1.0387613 1.0415264 1.018729 0.99941885 1.014947
1.0560452 0.9996974 1.0198377 1.0432523 1.0285493 1.0118041 1.0378449 1.0139538
0.9992223 1.0180341 1.0333222 1.0352154 1.0057455 1.00404 1.0067127 1.0151498
0.99977493 1.0416384 1.0467881 1.0108331 1.0027435 1.0072598 1.0003473 1.0044305
1.0126476 1.0110915 1.009867 1.0024191 1.0185874 1.0441959 1.0485483 1.0218894
1.0171181 1.0359056 1.0080279 1.0831188 1.0243 1.0244764 1.0310869 1.0150297
1.0442306 1.0256516 1.0291283 1.0019091 1.0016772 1.0453848 1.0011721 1.0005955
1.0230391 1.01266 1.0481873 1.0123557 1.0039737 1.0254852 1.0170527 1.00705
1.0331678 1.0038966 1.044346 1.0092784 1.0384432 1.005588 1.0063982 1.0082512
0.9994175 1.0149827 1.0386783 1.0095544 1.0312414 1.0342782 0.9996973 1.0256014
1.0004138 1.0055901 1.00012 1.0091971 1.0284563 1.0002246 1.0119388 1.0414367
1.0079203 1.0337669 1.0267183 1.0025986 1.0402881 1.011525 1.0181327 1.0148815
1.0391427 1.030349 1.0106385 1.0202719 1.037492 1.011607 1.0158709 1.0342507
1.0017492 1.0210506 1.0043634 1.0304322 1.0479116 1.0089475 1.0069627 1.0200763
1.019679 1.008325 1.0050857 1.0318305 1.0418459 1.0001006 1.006005 1.0456101
1.0377934 1.0068254 1.0215584 1.0041368 1.0128899 1.003217 1.0302926 1.009202
1.008555 1.0559492 1.0115769 1.0000796 1.0108556 1.0075524 1.0164653 1.0143571
1.0205896 1.028545 1.0236036 1.0046793 1.0201461 1.0373075 1.0521258 1.0335554
1.0364277 1.0141488 1.0516906 1.0023171 1.0309693 1.0012864 1.030669 1.0388235
1.0362577 1.0014199 1.0164602 1.0080949 1.02259 1.0639069 1.0145955 1.0275774
1.0483131 1.0442317 1.0284867 1.000926 1.0208862 1.0126493 1.0356265 0.99977577
1.0474192 1.0355974 1.020037 1.0470294 1.0168785 1.0215125 1.0186299 1.0083017
1.0299033 1.0209532 1.0334425 1.0000185 1.0040749 1.0213499 1.0234234 1.0026027
0.9998168 1.0200818 1.0394685 1.021972 1.01156 1.021519 1.0158685 1.0475361
1.0415916 1.0144728 1.0022424 1.0167711 1.0015006 1.0016651 1.0332701 1.0381318
1.0436901 1.0275319 1.0348456 1.0230258 1.0227993 1.0442249 1.0220395 1.0545659
1.0387902 1.0274898 1.0160649 1.017806 1.0678016 1.0660417 1.0131276 1.0089064

0.bn_red.bias f4 [256]
00000000: cdd1 b7bc 628d 62bd 63c1 8abc 6dfe c0bc
00000010: be67 32bb caea 88bc a579 2cbc 0502 c9bc
00000020: 60ac 6bbd e16f 96bd b712 7cbd 7672 49bc
00000030: 6486 febc 2c00 15bd 91e7 4ebc bef8 96bd
00000040: 7bd6 6abd 99a8 4fbd acec feba 23a2 8cbd
00000050: 2dbe 8abd 2808 0fbc 5baa 8cbd 632d 46bc
00000060: 0fe2 d2bb 39de 7bbd ba3b 7fbc 1daa 19bd
00000070: 46fd 58bb 7d87 82bd ce9e 8dbc b4f9 18bd
00000080: 2cf2 43bc ee33 59bb f72b b7bc e034 d0b9
00000090: f49d 94bc 3f13 8038 b05d b0ba fa95 66bc
000000a0: 3e32 15bc 3da6 bdbb 7a45 b4bb 4e54 ebbc
000000b0: 3e82 4abd f24e babb effd 2fba 2506 3cbc
000000c0: c92e 5dbd 8067 d9ba 8600 f1bc e51a 88bd
000000d0: 03c8 2ebd e5fd 84bc 3269 78bd 1ef8 37bc
000000e0: d2a4 8bbb 6bb4 82bc 4b54 3ebd 791c f3bc
000000f0: f0f7 50ba 93b4 4839 1418 c4bb 4064 92bc
00000100: 50da 13ba 3da8 79bd f3ed 32bd e702 a3bc
00000110: 8e6c 58b9 89e2 23bc 9244 ee39 3800 0c3b
00000120: 6de2 3a3a 0267 1fbc 01f1 5cbc 56b8 b439
00000130: 5c86 22bc 199b 17bd f73e 83bd 1f8d 74bc
00000140: 39fc 97bc 1eb2 31bd a5d8 41bc 8a3b bdbd
00000150: 9a56 09bd a119 1bbd 38a3 cebc e61d 06bd
00000160: 7231 6abd 2e3a e6bc 0f96 1bbd 162e 54bb
00000170: bea8 8fbb 8b5b 41bd eae3 a239 f034 7cba
00000180: f898 65bc 685e 5dbb 188e 23bd 44b6 98bb
00000190: 1c8b dd37 bb8c 90bc d35c 3dbc fbd4 f4ba
000001a0: 7ded 8ebc e3e9 15bc eb48 7cbd fe7b d6bb
000001b0: 593a 0cbd 86d2 83ba f095 2cbc c4b7 0abc
000001c0: 8406 14b9 de4f cfbb e30e 11bd 9282 56bc
000001d0: 2a37 f4bc 77fb adbc c70c e5b9 a575 9abc
000001e0: 3026 acba 6451 87bb f3a7 61bb 9165 05bc
000001f0: 3eac cdbc 4920 3eb9 b94b 70bc 4624 4abd
00000200: f469 1bbc d774 d4bc 6762 8fbc 9f31 43bb
00000210: bdb1 78bd ebf6 86bc da29 c2bc 8244 3fbc
00000220: d180 2cbd c91c 21bd aa86 84bc dddc bfbc
00000230: d1a2 24bd 6006 7fbc 9309 18bc 1f7b e9bc
00000240: 10e3 97bb 453c ebbc b70c 73bb 5559 b4bc
00000250: 23d5 81bd d124 77bc 6c3e 48bb f081 28bc
00000260: ccab 9bbc 96cf 37bc aaa5 dabb 914c dcbc
00000270: b185 04bd 38b2 103a 5210 0abb 118a 4abd
00000280: 9010 58bd d180 3bba 0759 e4bc 0205 f5bb
00000290: 89d2 9abc 903f c5bb 1535 1cbd 44b6 30bc
000002a0: cbf1 2db9 fb4f 75bd 64cf 0cbc fbdf fdba
000002b0: 937c 9bbc 1ab3 debb e984 25bc 0d69 36bc
000002c0: d255 6fbc 3eaa efbc e137 37bc 2a8b 9738
000002d0: fdc4 1bbc 0c8d 25bd 1213 1ebd e045 f6bc
000002e0: eae4 1ebd 55be 5dbc 7753 8dbd 061c a0b9
000002f0: 8902 f6bc 42ee 31bb f313 dfbc 398d 0abd
00000300: d353 2dbd 8fb0 d9bb 0d8b 90bc 8afc fdba
00000310: 93f6 edbc 0792 87bd 1f41 b7bc fed2 86bc
00000320: 2571 41bd 316a 07bd 647d f1bc 0d89 40bb
00000330: 4f1e ecbc 1cf7 84bc 6e64 12bd 7f6a aeba
00000340: 7c05 4bbd 47f6 c7bc b602 35bc c8a9 6fbd
00000350: 10bd f4bb 2055 b2bc 4248 27bc b355 1cbb
00000360: b892 f8bc 3600 95bc 9a75 c3bc e9b3 dab9
00000370: ff25 f9bb 65c6 8dbc 0d2f 19bd 0bf3 f5bb
00000380: bbde 61b8 4073 9abc ff97 0abd ecbe b3bc
00000390: 8865 cabc 264a c5bc 1adf 72bc 7c95 2abd
000003a0: 0673 39bd 0209 9cbc ec18 47bb c164 3dbc
000003b0: 93f8 36bb a86d e0ba 26e6 0cbd e829 17bd
000003c0: 9a3d 1abd f9e8 fdbc d9a0 24bd 2ed0 8fbc
000003d0: f6d1 19bd 6e9b 31bd 2432 2ebd 1e81 85bd
000003e0: 6f27 0bbd 3be8 01bd 8080 bdbc 33f0 9dbc
000003f0: 3746 92bd 1bda 81bd a4e3 61bc fe6c 19bc
-0.022438908 -0.055310614 -0.016937917 -0.02355882 -0.002722248 -0.016713519 -0.010527049 -0.024537096
-0.057537436 -0.07345558 -0.061541285 -0.012295356 -0.031069942 -0.036377117 -0.012628452 -0.073716626
-0.05733345 -0.050697897 -0.0019449196 -0.068668626 -0.067745544 -0.008729972 -0.0686843 -0.012095782
-0.0064356397 -0.061491225 -0.015578205 -0.03751575 -0.0033109947 -0.063734986 -0.017287638 -0.03734751
-0.011959594 -0.0033142525 -0.022359831 -0.00039712247 -0.018141724 6.1071005e-05 -0.0013455655 -0.014073843
-0.009106217 -0.0057876394 -0.0055014463 -0.028726723 -0.049440615 -0.0056856805 -0.0006713559 -0.011476074
-0.053999696 -0.0016586632 -0.029419195 -0.06645755 -0.042671215 -0.016234348 -0.060647197 -0.011228589
-0.0042615915 -0.01595517 -0.046467107 -0.029676663 -0.0007971516 0.00019140755 -0.0059843156 -0.017870069
-0.0005640136 -0.06095146 -0.043683957 -0.019898845 -0.00020639805 -0.010002741 0.00045445986 0.0021362435
0.0007129077 -0.009729149 -0.013485194 0.00034469616 -0.009919729 -0.037013147 -0.06408494 -0.014926224
-0.018552886 -0.043382756 -0.011831437 -0.09239872 -0.033529855 -0.03786624 -0.025224313 -0.032743357
-0.05717606 -0.028103914 -0.037984904 -0.0032376102 -0.0043841293 -0.047206443 0.00031068857 -0.00096209254
-0.014013521 -0.0033778194 -0.039930433 -0.0046603996 2.641003e-05 -0.01764523 -0.011557776 -0.0018679196
-0.017447228 -0.009150001 -0.061592977 -0.0065455427 -0.034235332 -0.0010057248 -0.010533795 -0.008466665
-0.00014116807 -0.0063266596 -0.035414588 -0.013092654 -0.02981146 -0.021238072 -0.00043687804 -0.018854925
-0.0013133939 -0.0041295756 -0.003443238 -0.008141891 -0.025106546 -0.00018131839 -0.014666491 -0.049351
-0.00948571 -0.02593462 -0.017502977 -0.0029784215 -0.06071638 -0.016475162 -0.023701597 -0.011674048
-0.042115036 -0.039334092 -0.016177494 -0.023420746 -0.040194336 -0.015565485 -0.009279626 -0.028501092
-0.0046352223 -0.028715262 -0.0037086436 -0.022015253 -0.06339481 -0.015084461 -0.0030554784 -0.010284886
-0.019002818 -0.011218926 -0.0066725807 -0.026891978 -0.03235406 0.0005519721 -0.0021066857 -0.049448077
-0.05275017 -0.0007152679 -0.027874483 -0.0074774036 -0.01889922 -0.00601954 -0.03813656 -0.010785643
-0.0001658864 -0.05989073 -0.008594368 -0.001936912 -0.0189803 -0.006796253 -0.010102489 -0.0111334445
-0.0146078635 -0.029255982 -0.011182756 7.2261624e-05 -0.009507415 -0.040417716 -0.038592406 -0.030062616
-0.03879253 -0.013534148 -0.06900685 -0.00030538457 -0.030030506 -0.002715007 -0.027231192 -0.033826087
-0.04231627 -0.006643362 -0.01764443 -0.0019377631 -0.02904824 -0.066196494 -0.02236992 -0.01645803
-0.047227044 -0.033060256 -0.029478736 -0.0029378564 -0.028823046 -0.016231112 -0.03574031 -0.0013306885
-0.049565777 -0.024409426 -0.01104801 -0.058511525 -0.007468827 -0.021769106 -0.010210099 -0.0023854792
-0.030343398 -0.018188577 -0.023859788 -0.00041714244 -0.0076034064 -0.017306516 -0.037398387 -0.0075057796
-5.3851614e-05 -0.018853784 -0.03383636 -0.021941625 -0.024706617 -0.024083208 -0.014823699 -0.041646466
-0.04527571 -0.019047264 -0.0030379845 -0.011559666 -0.0027919158 -0.0017122524 -0.034399174 -0.0369052
-0.037656404 -0.03099488 -0.04019246 -0.017555322 -0.03755375 -0.04336112 -0.042528287 -0.06518768
-0.033973154 -0.031715613 -0.023132563 -0.019279575 -0.07142299 -0.063404284 -0.013787184 -0.009364365

0.bn_red.running_mean f4 [256]
00000000: 2caa a1bc b978 413c 44ab 0fbc af09 32bc
00000010: a655 0c3c 88fe 43bd 98cf 0cbc 690c 04bd
00000020: d77b afbc 6d6b c83b d651 ba3c 7b98 6a3c
00000030: 1427 3fbd e333 3c3a 57b3 8cbb ff16 87bc
00000040: 7a23 01bd 5f90 51bd ec7f fdbc 5edf 9a3c
00000050: 232e 13bc 9a11 563c dc11 1cbc 46a3 2f3c
00000060: 8e96 38bc 95d5 f63c 2e13 e4bc ed57 013d
00000070: 5540 28bd 499b c23c 864c 9a3b d5a7 9a3c
00000080: 0871 ca3c a4b2 d53c b345 48bd 09ef 3cbc
00000090: b11c 443c a599 a9bc 98a3 cc3c 70c0 c33b
000000a0: 4910 e3bc 18a2 223d 5f84 24bb d874 013d
000000b0: a6e3 8abc e137 9cbc d6db 5d3c fd3d 26bc
000000c0: 2ec6 15bc 5569 15bc 0e0d d8bc a5c6 e7ba
000000d0: b734 9bba 0577 f6bb 55b9 1fbb 1bd9 22bc
000000e0: a2f8 79bc c623 8dbc 2903 4e3d 4657 c9bc
000000f0: 1089 b83c 91b1 4bbd 61b0 9d3c 5e4a 873c
00000100: e1ce d43c d059 013b d46a 483c e105 6cbc
00000110: 9424 22bd 67c0 b63c 19c2 c83c abac c73c
00000120: 4cb2 5abc f7da 893b 5dfc ba3c e987 453c
00000130: 4e83 773a a77e 33bc f4f8 cabc 23cb 293d
00000140: 7bca 3cbd f7f8 8d3c 6664 80bb 35fb 02bd
00000150: b774 163c a073 aebc 0156 c7bc ac66 0ebd
00000160: d671 dc3c eff4 02bd 1c10 b53c a66e a7bc
00000170: 72bb f23c f619 233c 5157 393c a2cc 373d
00000180: 757c e93c 6eb1 a93c d995 e23c eba6 13bc
00000190: 80b5 6dba e757 983b cfb9 243d 0a4f 15bd
000001a0: 2f09 283d 23ad 163c 74aa 103d 39ef 62bb
000001b0: 7248 abbb 68c6 96bb 9fae 123d 2f24 513c
000001c0: f203 293b 03fd d63c 579b 51bb 3a9f 91bc
000001d0: 3fd1 42bd 895e 943c 4f97 02bc 4925 1d3c
000001e0: 53af 913d 9645 473a db61 c03b 963b ac3c
000001f0: 69fe aa3c 6a9c 28bd 505d 60bb 4fe5 dcbb
00000200: c6f9 05bd 930f 42bb c349 02ba 80cf 90bc
00000210: 3167 f7ba 0f33 cbbc 4907 a33c eb6a 77bc
00000220: 2eb2 92bc 1ed0 e9ba f36e e93b 1db9 603c
00000230: 1a1c 223c 816f b03c cc7d 833d 0759 8f3c
00000240: 85c5 94bc 9abb 223d 1863 7dbc 8a94 c43b
00000250: b3ff 063d a71b 3bbd 6db5 49bb 88fe 42bd
00000260: 6557 1bbd 34db 993b 1e2e 6d3c a80b 823c
00000270: 9bcb 6cbb ac3b 5dbd 580a 8fbc 0b1f e1bc
00000280: 907a 73bc 798b cd3c 715a 86bc df54 adbc
00000290: 9c0f f6bb 6204 bdbc 6f5c 5abb 2559 123d
000002a0: f3b4 34bc 4ad5 203d ce31 97bc bdaa 833c
000002b0: a9e2 74bc 20b4 dbbc 12fe 10bc 9f01 3cbd
000002c0: d1f6 b2bc f8f3 423c 1acf 3cbb 477d d63c
000002d0: d1ae a13c d644 acbc ca46 38bd 4c4e 003b
000002e0: 7744 553c c6f9 cc3c 7a61 64bc 5ddb 95bc
000002f0: 83ef ae3c 86c9 c6bc 9279 4bbc 84ad 71bb
00000300: babd b23c 3e40 f03c 7e41 7e3c 0f16 06bc
00000310: f0d0 26bc 9473 c9bc 1341 2ebd 28c7 8b3b
00000320: a4fd 8b3c e05b ab3b 0eeb 0abd 57f2 ff3c
00000330: b0e1 01bd f1bb 303d 4010 443c 6608 36bd
00000340: aaef e8bb 5cbf 033d f36c a1bc f4a2 603c
00000350: e355 333d 9d93 22bb dd72 0cbd 6906 8c3c
00000360: fe1f 85ba a743 493c 71f6 b83b 8a42 aebc
00000370: 3057 1ebb 6cc6 443d d139 7dbc 0421 1e3d
00000380: 2bde 93bc caac d53c d31c 083c 73a7 3a3c
00000390: 1525 01bd 4001 ed3c 8e1a 003d 3cd9 8ebb
000003a0: 407c 2ebb d985 b23c 2777 363c de0f 013d
000003b0: fd3e ac3b 6cf6 40bd 4108 adbc 37bb fd3c
000003c0: 73be 8b3c 38be 363d a747 f43c 9bcd 9d3c
000003d0: cbec 66bc 9e3c afbc eca8 ca3b 6930 df3b
000003e0: b17b 3cbb e40a 953b f671 08bd 9308 cb3c
000003f0: 27bb a4bc 5f32 15bc c951 1f3d 27f6 133d
-0.019734465 0.011808568 -0.00876886 -0.010866567 0.008565342 -0.04785016 -0.008594416 -0.032238398
-0.021421356 0.006116322 0.0227441 0.014318581 -0.046668127 0.00071793626 -0.00429384 -0.016490458
-0.031527974 -0.051163074 -0.030944787 0.018905338 -0.008983168 0.01306572 -0.009525742 0.01072008
-0.011266364 0.03013114 -0.027841177 0.031577993 -0.041076977 0.023755686 0.0047088293 0.018878857
0.0247121 0.026086159 -0.048894595 -0.0115316 0.011969731 -0.020703146 0.024980351 0.005973868
-0.027717726 0.039705366 -0.0025103313 0.03160557 -0.016954254 -0.019069614 0.0135411825 -0.010146615
-0.009141488 -0.009119351 -0.026373412 -0.0017683102 -0.0011841272 -0.0075215125 -0.002437194 -0.009939457
-0.015257033 -0.017228972 0.050295983 -0.024577748 0.022526294 -0.049729887 0.019249143 0.016514953
0.025977554 0.001973737 0.012232501 -0.0144056985 -0.039585665 0.022308541 0.024506615 0.024374327
-0.013348173 0.004207011 0.022825414 0.012056329 0.0009441868 -0.010955489 -0.024776913 0.041453492
-0.046091538 0.01733063 -0.0039182184 -0.03197785 0.0091831 -0.021295369 -0.024333002 -0.034765884
0.02690975 -0.031971868 0.022102408 -0.020438503 0.029630397 0.00995492 0.011312322 0.044872887
0.028501729 0.020714488 0.027659344 -0.009011964 -0.0009067878 0.0046491507 0.040216263 -0.03645233
0.041024383 0.009196552 0.035318807 -0.003462745 -0.005227142 -0.0046012886 0.035811063 0.0127649745
0.0025789705 0.026243692 -0.003198346 -0.01777612 -0.047562834 0.018111484 -0.007970645 0.009591409
0.071135186 0.00076016167 0.0058710403 0.021024507 0.020873265 -0.041164793 -0.0034235306 -0.006741203
-0.032708906 -0.0029611334 -0.0004970098 -0.017677069 -0.0018875358 -0.02480462 0.019900935 -0.015101175
-0.017907228 -0.0017838513 0.007123822 0.013716009 0.009894395 0.021537544 0.06420478 0.017498506
-0.01816059 0.039729692 -0.01546552 0.0059991525 0.032958698 -0.04568067 -0.0030778304 -0.04760602
-0.037925143 0.0046953205 0.014476327 0.015874699 -0.00361321 -0.054011986 -0.017460987 -0.027480623
-0.014860764 0.02509092 -0.016400548 -0.021158634 -0.007509185 -0.023073379 -0.0033319255 0.035729546
-0.01102947 0.03926591 -0.018456366 0.016072625 -0.014946618 -0.026819289 -0.008849638 -0.045899983
-0.021846207 0.011898987 -0.0028809966 0.026182784 0.01973668 -0.021028917 -0.044989385 0.0019577919
0.013016812 0.025021445 -0.013939256 -0.018293077 0.021354442 -0.024266016 -0.012419121 -0.0036877105
0.021818984 0.029327508 0.015518544 -0.00818397 -0.0101816505 -0.024591245 -0.04254253 0.0042656846
0.017088719 0.005229458 -0.033915572 0.031243486 -0.031709373 0.043147985 0.011966765 -0.044441603
-0.0071086483 0.032164916 -0.019705271 0.013710726 0.04378308 -0.0024807223 -0.03428923 0.0170929
-0.0010156629 0.012284196 0.0056446125 -0.021271963 -0.0024160855 0.048040792 -0.015455679 0.038605705
-0.018050274 0.026083369 0.0083076535 0.011392462 -0.031529505 0.02893126 0.031275325 -0.0043593924
-0.0026624352 0.02179234 0.011136807 0.031509273 0.005256532 -0.047110006 -0.0211221 0.03097306
0.017058587 0.044615 0.029819323 0.01926308 -0.014094542 -0.02139121 0.006184688 0.006811191
-0.002876025 0.0045484174 -0.033311807 0.024784362 -0.020108772 -0.009106248 0.038896356 0.03612342

0.bn_red.running_var f4 [256]
00000000: 8ed2 bb39 6369 003a de99 0239 57a6 2139
00000010: fbc2 013a 8e2e f338 302a 4e39 30a1 ab38
00000020: fe2a 2c39 147a 4439 1562 0f39 f44c 1f3a
00000030: bc0a 9e39 1d9c 4f39 c325 5c39 5c97 5f39
00000040: c200 0039 d4c9 b839 e90f 4939 4d02 6739
00000050: a1b3 b138 f3d3 3239 60b3 8039 00d0 ab39
00000060: 0f96 5939 47c3 8c38 7a02 8939 35dc 8a39
00000070: 6201 3539 033b 6e39 57d1 1739 c8a5 2c39
00000080: 202f 9239 de21 173a 4551 d238 33ce ae39
00000090: 3e45 0139 a587 c739 8021 a338 0971 b539
000000a0: d1aa ca39 5408 843a 1c78 ca39 05e6 e639
000000b0: b90d 2339 fbd1 7439 9317 cd39 e78b ee38
000000c0: f0bb 4b39 578b 2e38 f1b0 de39 2852 9e39
000000d0: 2ecd 3239 8d9f d238 ef18 9839 1fd3 f638
000000e0: b3db 8a39 d922 5739 3bd7 ba39 2814 8039
000000f0: ebce 2a3a cabb 2c39 4f00 273a 88f4 8239
00000100: f9f8 6d39 5234 4a39 6ff5 8939 e7e9 db39
00000110: 05ea 8a39 4e17 0e3a 6b4a 5339 9612 1939
00000120: 1c1f 4539 937a 7c38 9b39 0939 3752 8c39
00000130: ac24 2339 85e5 5339 f8e6 5539 2d2b 9b39
00000140: 105e 133a 0d2e 3039 fe01 9339 84a3 f238
00000150: 0e9e 8a39 0992 6e39 0e84 8639 7e0e ad39
00000160: 63d8 0739 0f55 ce39 f2ab 6639 1925 a439
00000170: 1d69 8439 5e22 f538 6aac 7039 c71d 5b39
00000180: e7a0 7139 a637 5539 7fb2 9c39 56b2 0d39
00000190: c26d 0639 38aa a839 d3fd 6e39 ac72 7039
000001a0: 8547 3139 68cf b139 0da9 7e39 1b1b e639
000001b0: 49c7 6c39 64c4 3e39 3d2e 3d3a 1655 b439
000001c0: f0cc 003a fbaa 1339 ec9d 7f39 8715 d039
000001d0: 2648 5839 9ad1 0e39 a50d e038 0946 6839
000001e0: dcdf 1339 c9f5 7939 cb46 b139 3315 3b3a
000001f0: 775b b139 2672 9739 d950 003a 966d d739
00000200: 37e8 9039 f82c 9939 2c74 aa39 3911 c139
00000210: 9740 ba38 7ca1 6739 4231 9739 9510 5839
00000220: 27af 2739 6f63 b539 134a a139 1eae 4939
00000230: 1e38 5639 4a6c 253a d73a d639 b398 9a38
00000240: c1b8 2139 91db 8f39 7933 8239 47b1 9d39
00000250: e7bb 2e39 5f04 8a39 00b0 3639 21c8 1739
00000260: 1aab c339 aaf4 4a39 ab65 c639 7af9 6338
00000270: d225 fe38 4142 4b39 c156 f439 9e67 1a39
00000280: d0f9 7838 2b7f a639 14a8 3039 1fc9 2a39
00000290: d6da 2c39 df39 d138 21c3 1c39 e185 8239
000002a0: 458c 1039 eda2 6a39 b697 af39 70b1 1e39
000002b0: b0b0 1139 f7b0 1939 8677 ca39 08bf 643a
000002c0: 1d15 4439 b0ee 4a39 4553 a239 0dbf d639
000002d0: 2b67 3639 19d0 1039 1ecd ce38 bc28 cd39
000002e0: 9409 8b39 8a11 9e39 7e58 073a 35b3 b939
000002f0: 2e30 3839 f601 c639 2356 bc39 7141 5239
00000300: 88f7 0639 8d6c 193a 923d 9a38 08e9 8d39
00000310: 3f11 8e3a 9106 3039 04e4 fa38 8196 8f39
00000320: 494d 1d39 4000 a139 0e09 2239 18ad 0f39
00000330: 976a 6739 164b 9539 14d6 e239 d53a 2e39
00000340: 3742 d438 2890 123a 7dac c639 f252 2839
00000350: ef88 3b39 b28a c538 c60c 4639 f8cf 5f39
00000360: 432b 1b3a a5f7 2239 56d0 8739 49e7 fa38
00000370: 0de7 9539 7527 7f39 e316 b438 145b 2b39
00000380: 0f6a 9e39 d765 8139 fea6 5039 3f3d c438
00000390: 6312 ad39 8f76 3b39 2e87 cc39 3c25 8d39
000003a0: f8e1 123a 3cb1 2939 6ec9 af39 2b40 d739
000003b0: 0c37 0639 6ca9 2639 579b 7d39 50e7 8339
000003c0: 55df 8139 8fa3 e938 98f4 5639 37b1 bf39
000003d0: 2eb8 fd38 3508 b839 86fa c038 5d1f 5f38
000003e0: 64e0 293a acb6 a439 21e2 2a39 2a0e 3f39
000003f0: 2762 7439 a0b4 7339 63d6 8839 a8d9 c939
0.00035824295 0.00048985163 0.00012455086 0.00015416123 0.0004950014 0.000115958144 0.00019661407 8.183939e-05
0.00016419214 0.00018737494 0.00013674081 0.00060768356 0.00030144106 0.00019799215 0.00020994902 0.00021323323
0.00012207314 0.00035245589 0.00019174781 0.00022030734 8.473476e-05 0.0001705436 0.00024547707 0.00032770634
0.00020750634 6.7120935e-05 0.0002613252 0.00026485478 0.0001726202 0.00022719432 0.00014478467 0.00016464957
0.000278824 0.00057652395 0.00010028718 0.00033341497 0.00012328193 0.000380573 7.7786855e-05 0.00034607228
0.0003865571 0.0010073283 0.0003861793 0.00044040396 0.00015550003 0.00023347877 0.0003911821 0.00011374783
0.00019429601 4.1614603e-05 0.0004247497 0.0003019732 0.00017051838 0.00010043299 0.00029010276 0.000117695185
0.000264851 0.0002051698 0.00035637044 0.0002442908 0.00065158185 0.00016473155 0.00063705904 0.00024977722
0.00022694831 0.00019283712 0.0002631354 0.00041945206 0.0002649577 0.0005420343 0.00020150251 0.00014598141
0.00018798973 6.0195638e-05 0.00013086798 0.00026764136 0.00015558553 0.00020208031 0.00020399306 0.00029596072
0.00056216214 0.00016801823 0.0002803951 0.000115699164 0.0002643917 0.00022751851 0.0002565686 0.0003300793
0.00012955214 0.00039354755 0.00021998564 0.00031308157 0.00025255317 0.00011688912 0.00022952413 0.0002089656
0.00023043492 0.00020333994 0.0002988763 0.00013513243 0.00012820124 0.0003217028 0.00022792006 0.00022930902
0.00016906679 0.000339146 0.00024286304 0.00043889214 0.00022580953 0.00018192973 0.0007216668 0.0003439567
0.00049133506 0.00014082708 0.00024377526 0.0003968889 0.00020626243 0.00013620258 0.00010683694 0.00022151334
0.00014102407 0.00023838053 0.00033812816 0.0007136643 0.00033828217 0.00028886012 0.000489486 0.00041089643
0.00027638834 0.00029215938 0.00032511482 0.0003682466 8.881202e-05 0.00022090034 0.00028837664 0.00020605543
0.0001599161 0.00034597094 0.00030763503 0.00019233717 0.00020429536 0.0006310387 0.000408611 7.371735e-05
0.00015422983 0.00027438675 0.00024833882 0.00030077455 0.00016663932 0.00026324668 0.00017422438 0.00014475036
0.0003732078 0.00019355366 0.00037841251 5.435336e-05 0.000121187084 0.0001938427 0.00046603943 0.00014725185
5.9360464e-05 0.00031756735 0.00016847282 0.00016287387 0.00016484721 9.976676e-05 0.0001495001 0.0002489528
0.00013785165 0.00022376674 0.00033491635 0.00015134155 0.00013894099 0.00014657142 0.00038617494 0.00087259756
0.00018699882 0.00019353139 0.00030961088 0.00040959605 0.00017395306 0.00013810433 9.8610515e-05 0.00039130996
0.00026519282 0.00030149176 0.00051630277 0.0003541947 0.00017565556 0.00037766964 0.0003592233 0.0002005154
0.00012871448 0.0005852662 7.3547606e-05 0.00027067238 0.001083888 0.00016787114 0.000119634 0.0002738722
0.00015001478 0.000307085 0.00015452897 0.00013702025 0.00022069585 0.00028475438 0.0004326558 0.0001661585
0.00010121281 0.0005590939 0.00037894017 0.00016052628 0.00017884721 9.419526e-05 0.0001888751 0.00021344412
0.0005919227 0.00015541779 0.0002590443 0.00011964009 0.0002859164 0.00024333394 8.587332e-05 0.0001634176
0.00030215128 0.00024680674 0.00019898635 9.357416e-05 0.0003301083 0.00017877876 0.0003901063 0.00026921357
0.000560313 0.00016183121 0.00033528678 0.00041055804 0.00012799742 0.00015894108 0.00024185829 0.00025158608
0.00024771193 0.00011140771 0.00020499749 0.00036562394 0.00012098286 0.0003510133 9.201937e-05 5.3196552e-05
0.0006480275 0.0003141662 0.00016296703 0.00018220456 0.00023306218 0.00023241574 0.00026099672 0.00038499874

1.weight f4 [1, 256]
00000000: ae8b 87be 41b6 bfbe 1946 5abe 635a 4f3e
00000010: 70ed e73c ca44 48be f752 4dbe 5cf2 543e
00000020: 19ac 993e 49c2 b23e a2a1 a93e 7ffc 0e3e
00000030: 9a38 743e c338 99be 1e81 043e 4fc8 af3e
00000040: 0dd3 b13e 815d 8e3e 180d 3cbe 1853 bbbe
00000050: 8ad2 a73e 4938 183e 75aa b23e a6ee 54be
00000060: 1a3b 903d d97f 8e3e e54d 143e 7196 683e
00000070: d636 0cbe 0f8c b5be 2a25 66be ee56 633e
00000080: 50de 0c3e 2cc8 4e3d ed59 5c3e d23a 96bc
00000090: 62ca 8abe 63a0 16bd 978b 30bd 9ff9 3d3e
000000a0: f6da 30be cf13 d23d 2e63 873d 67c5 92be
000000b0: e783 98be 9269 4abe 062f 60bb 2586 3bbe
000000c0: f1b7 b13e 244b 673c 40d3 543e cb97 9e3e
000000d0: 70ed 7a3e fad7 293e f268 933e 962d 2f3e
000000e0: 306b 343d 0e60 453e 69ec 8a3e 95a9 8cbe
000000f0: 3581 dfbd 7371 bcbd a9cd f63d a0d2 353e
00000100: 1624 e4bc 853c 9b3e 889e a2be 7a2f 1d3e
00000110: cfee a1bd 8123 033e 3963 0bbd acd9 c5bd
00000120: d578 24be 0ea1 1c3e db56 123e 7d71 97bd
00000130: 2a82 47be a3eb 9cbe 367d a73e 3235 5abe
00000140: 558f 403e 4fae 8e3e 8791 033e 723f dc3e
00000150: 35c5 673e 21ab 6f3e 06bb 84be 5236 3d3e
00000160: b016 a03e 5491 6e3e d51e 823e 9456 923d
00000170: 3f73 853d be77 a0be 528f 61bd 9b30 61bd
00000180: a0bd 63be d43d 24be 9f38 a4be 0bd3 22be
00000190: 9112 babd a728 6fbe 4077 43be dae4 f5bd
000001a0: ac4f 87be 8fdc ba3d a580 a03e fbf9 0cbe
000001b0: 6be3 90be c96e dbbd f92a f23d 054c 0f3e
000001c0: dd05 d8bc 8168 35be f38e 93be b1bd 123e
000001d0: 88a1 833e 4b15 89be eef7 783c 0589 6c3e
000001e0: 697a 153d 4cda db3d 262a 273d c7da 0d3e
000001f0: 557f 7dbe 8ad7 edbc 2c4f 253e b2af 983e
00000200: 3965 0b3e 4471 87be 3f1c 74be 576c a23d
00000210: 8057 993e fba2 203e bfda 483e d7a2 32be
00000220: 35a0 953e 2f4d 83be 6b4c 233e 37a4 543e
00000230: 9703 903e 613a 1e3e ab0b 3cbe dbc4 89be
00000240: ec60 933d caa1 593e fe35 c33d 4897 83be
00000250: 974f a43e 85b8 0c3e 302f 003e a7c6 50be
00000260: ea7a 4ebe addd 083e c055 d23d b7a5 853e
00000270: d5d4 99be 9dd9 c2bc 13cb e3bd b825 a0be
00000280: 65e1 903e 6132 003e cba5 5d3e 2922 c73d
00000290: bf90 2e3e e3b6 a83d a6bc 823e 6f40 1a3e
000002a0: f647 09be 6a49 b3be 5f64 1dbe 0071 c53c
000002b0: 78fa 253e 3390 04be 3e00 3dbe 4abe 323e
000002c0: f62f 52be d382 7a3e d369 66be 3361 cabd
000002d0: 2e2d 52be fa7e 91be b1ec a9be aad6 89be
000002e0: 13b3 8ebe e8b1 2ebe 1e2b adbe 6d8d 8fbd
000002f0: 829b 843e 54b5 74bd 5fd5 82be beab 92be
00000300: 799f 8ebe 1b30 723d 5df5 3c3e 24d6 03be
00000310: d906 643e 6478 bfbe 160a 3c3e 1678 78be
00000320: 943f a5be dfb2 9bbe 7e20 7a3e f256 4a3d
00000330: 0db4 573e 1040 2fbe 5a5c 8ebe 1724 213d
00000340: b8c7 a3be e02d 8bbe 7015 57be 1ee3 a43e
00000350: 46a8 41be 9231 5f3e 117c 4cbe 5066 05be
00000360: 6cfd 803e 21e3 5cbe 8d01 8abe 06b4 ca3c
00000370: 4730 be3d f853 5c3e fc46 693e d89e 9d3d
00000380: e006 c4b8 e167 56be 5f79 94be 9a75 5e3e
00000390: ae09 243e 0ae7 59be b16e 3abe 50c2 a1be
000003a0: 5ad6 99be 1bfc 333e 0ff5 983d 9504 3fbe
000003b0: bfc5 6d3d b57e 793d 079b 88be d3b8 90be
000003c0: 9cde 9abe 6115 753e 0e2b 8c3e 8014 64be
000003d0: 31bb 633e 70d3 9dbe b76b 643e ec96 b13e
000003e0: 46c9 91be 27c9 793e 2a55 3b3e 6b0b 49be
000003f0: de63 c5be 5248 c23e 6085 2d3e e13c 0fbe
-0.26473755 -0.37443736 -0.21315803 0.20249324 0.028311461 -0.19557491 -0.2005118 0.20795578
0.30014113 0.34913853 0.3313113 0.13963507 0.23849717 -0.29926118 0.1293988 0.3433251
0.3473133 0.27805713 -0.1836437 -0.36586833 0.32777816 0.14865221 0.34895673 -0.20794162
0.07042523 0.27831915 0.1448284 0.22713639 -0.13692793 -0.3545842 -0.22475114 0.2220113
0.1375668 0.050483868 0.21518679 -0.018338595 -0.2710753 -0.03677405 -0.043101873 0.18552254
-0.17271027 0.102576844 0.06610714 -0.2866623 -0.29788134 -0.19766834 -0.0034207716 -0.18312891
0.3471065 0.014117036 0.2078371 0.30975184 0.24504638 0.16586295 0.28791004 0.17107233
0.044047534 0.19274923 0.27133492 -0.2747313 -0.10913316 -0.09201326 0.12050945 0.17756128
-0.027849238 0.3031961 -0.31761575 0.15350142 -0.07906877 0.12806512 -0.034030173 -0.09660658
-0.16061719 0.15295812 0.14290945 -0.07394693 -0.19483247 -0.30648527 0.32712716 -0.21309355
0.18804677 0.27867362 0.12848483 0.43017155 0.22633822 0.23405124 -0.25923938 0.18477753
0.3126731 0.23297626 0.25414148 0.0714542 0.06516122 -0.31341356 -0.05506832 -0.054977994
-0.22240305 -0.1603921 -0.32074448 -0.15900819 -0.090855725 -0.23355351 -0.19088459 -0.120065406
-0.26427972 0.091240995 0.31348148 -0.13767235 -0.28298506 -0.1071449 0.11824603 0.13993843
-0.026369983 -0.17715646 -0.2882 0.14330174 0.25709176 -0.26774058 0.01519583 0.23099144
0.036493693 0.10734996 0.04081168 0.13852988 -0.24755605 -0.029033441 0.16143483 0.29821545
0.13612832 -0.26453602 -0.238389 0.079308204 0.2994957 0.15687172 0.19614695 -0.17444931
0.2922379 -0.25644824 0.1594712 0.20765768 0.2812774 0.15451957 -0.18363826 -0.26908
0.07196221 0.21253124 0.095317826 -0.25701356 0.32091972 0.13742264 0.12518 -0.2038828
-0.20164075 0.13365813 0.10270262 0.26102993 -0.3004519 -0.023785407 -0.11122718 -0.31278777
0.28296962 0.12519218 0.21645276 0.097233124 0.17047404 0.08238008 0.25534552 0.15063642
-0.13406357 -0.35016948 -0.1537032 0.024101734 0.16208827 -0.12945633 -0.18457124 0.17455402
-0.20526108 0.24463968 -0.22501306 -0.098818205 -0.20525047 -0.28417188 -0.33188394 -0.26921588
-0.27870998 -0.17060053 -0.33821958 -0.07009397 0.25899893 -0.05974324 -0.25553414 -0.28646654
-0.27856043 0.05912791 0.18452974 -0.12874657 0.22268237 -0.37396538 0.18363222 -0.24264559
-0.3227507 -0.30409905 0.24426457 0.049399324 0.21064778 -0.17114282 -0.27804834 0.03934106
-0.3198831 -0.27183437 -0.21004272 0.32204527 -0.18911847 0.21796253 -0.19969203 -0.1302731
0.25193346 -0.21571018 -0.26954308 0.024744045 0.09286552 0.21516407 0.22780985 0.07696313
-9.347289e-05 -0.20938064 -0.2899885 0.21724549 0.16019318 -0.2127954 -0.18206288 -0.3159356
-0.3004635 0.1757664 0.07468616 -0.18654092 0.058049913 0.060911853 -0.26680776 -0.2826601
-0.30247962 0.23933937 0.27376598 -0.22273445 0.22239377 -0.30825377 0.22306715 0.34685457
-0.28473872 0.2439314 0.18294206 -0.19633262 -0.38552755 0.379458 0.1694541 -0.13988067
