weights/comb_ethics.pt (torch, 796549 bytes, 7 tensors)

0.fc_red.weight f4 [256, 768]
0	0x3bc28b88	0.0059370436
1	0x3c32bd1b	0.010909344
2	0x3d357b92	0.0443073
3	0xbd0e7ac4	-0.034785047
4	0xbcb69886	-0.022289526
5	0x3d73928f	0.05946594
6	0xbc5a9173	-0.013340342
7	0xbc54353f	-0.012952148
8	0xbcf91dc6	-0.030409705
9	0xbc30db1a	-0.010794425
10	0xbcffe4d7	-0.031237049
11	0x3ca19ef8	0.019729123
12	0xbb8bd605	-0.0042674565
13	0xbc250c1e	-0.01007369
14	0x3cace4af	0.021105139
15	0xbd180e71	-0.037123147
16	0xbc1a7e3f	-0.0094295135
17	0xbcef1d25	-0.029188702
18	0x3c98f130	0.018669695
19	0x3cc33bb4	0.02383218
20	0xbbd3f476	-0.006468351
21	0x3c88946b	0.016672334
22	0x3b2f7498	0.0026772376
23	0xbca059c3	-0.019574052
24	0xbce1f0dc	-0.027580671
25	0xbcdcb80e	-0.026943233
26	0xbb5162ef	-0.0031949838
27	0xba13e191	-0.0005641217
28	0x3cc71e10	0.024306327
29	0x3c30dc78	0.010794751
30	0xbb4adbfc	-0.0030953875
31	0xbca28c03	-0.019842153
32	0x3991dec6	0.00027822534
33	0xbd167e1d	-0.036741365
34	0xbc87095c	-0.016483955
35	0x3ca59a68	0.020215228
36	0x3c9caac0	0.019124389
37	0x3c91898e	0.017765786
38	0x3c03ffaa	0.0080565605
39	0xbc7dff36	-0.015502742
40	0xbc9ecad0	-0.019383818
41	0x3d91545d	0.07096169
42	0x3bc251bd	0.005930154
43	0xbc6b09a0	-0.0143455565
44	0xbcd96bcf	-0.026540665
45	0x3cafec9c	0.021475129
46	0x3aeba7a8	0.0017979043
47	0xbba748fb	-0.0051051355
48	0xbcf97681	-0.030452015
49	0x3c908152	0.01763979
50	0xbcd379c2	-0.025814895
51	0xbc4dee17	-0.012568972
52	0x3c302e87	0.0107532805
53	0xbd101406	-0.035175346
54	0xbd1adb61	-0.037806872
55	0x3ca18f0d	0.019721532
56	0xbd24ab57	-0.040202465
57	0xbce0178f	-0.027354984
58	0xbc8a0936	-0.016850095
59	0x3d2100c2	0.039307363
60	0x3ce69f2d	0.028152073
61	0xbc345487	-0.011006481
62	0xbbc96e64	-0.006147193
63	0x3d1151d9	0.035478447
64	0x3cb03058	0.021507427
65	0xbc1eaefc	-0.009685274
66	0x3c43b5c2	0.01194519
67	0xbc81bdd6	-0.015837591
68	0xbc16d165	-0.009205197
69	0x3c7e5ebd	0.015525517
70	0x3b94abae	0.0045370674
71	0x3d2192fa	0.03944681
72	0x3ba7c5cb	0.0051200143
73	0x3beed6e3	0.0072888
74	0x3d057dad	0.032590557
75	0xbce795b2	-0.028269622
76	0x3d26ad9e	0.040692918
77	0x3c75978e	0.014989747
78	0x3c7c384c	0.015394282
79	0xbd2048d8	-0.03913197
80	0x3d138943	0.036019575
81	0xbcc965ff	-0.024584768
82	0x3cbe9d58	0.023268387
83	0xbc7b05f7	-0.015321246
84	0xbc68bbd5	-0.014204939
85	0x3c4ec617	0.0126204705
86	0x3d20db4c	0.039271638
87	0x3c209b48	0.009802647
88	0x3c1f77fe	0.009733198
89	0xbb3191a1	-0.0027094858
90	0x3b70cca9	0.003674308
91	0xbbbcfb02	-0.005767227
92	0x3b9f331e	0.0048583886
93	0x3d25befa	0.040465333
94	0x3c384801	0.011247636
95	0xbc7b3092	-0.015331404
96	0x3bb2dc95	0.0054584243
97	0xbce32b6b	-0.027730664
98	0xbd3510fc	-0.04420565
99	0x3b669acf	0.0035187488
100	0xbb7f8934	-0.0038991692
101	0xbcb5e9e5	-0.022206256
102	0x3cea350c	0.028589748
103	0xb9ce6488	-0.00039366283
104	0xbc953e08	-0.018218055
105	0x3d07462a	0.033025898
106	0x3c8c8fb5	0.017158369
107	0xbc859d92	-0.016310487
108	0xbd1d55de	-0.038411967
109	0xbb18e3b2	-0.0023329076
110	0xbc2597ef	-0.010107025
111	0xbcdda66f	-0.0270569
112	0xbbc51d69	-0.006015469
113	0x3d1224cf	0.035679635
114	0x3b04582c	0.0020194156
115	0xbd0de08b	-0.03463797
116	0xbcdcc0c3	-0.026947385
117	0xbc8668e8	-0.016407445
118	0xbd01f73d	-0.031729925
119	0x3d3d3f34	0.046202853
120	0xbd099239	-0.033586714
121	0x3c4efc4c	0.012633394
122	0xbc7d4e4e	-0.015460564
123	0xbab6a5a4	-0.0013934863
124	0x3bfa41ff	0.007637262
125	0x3ceef51e	0.029169615
126	0xbc5ae953	-0.013361293
127	0xbc89ed4f	-0.01683679
128	0xbd47361b	-0.048635583
129	0xbc1b532f	-0.009480282
130	0xbbd55588	-0.0065104403
131	0x3bde5cfe	0.006785988
132	0xbc6a5378	-0.014302127
133	0x3b8c0c80	0.004273951
134	0xbc3b4605	-0.011430268
135	0xbc9998f3	-0.01874969
136	0xbbf24a8b	-0.00739414
137	0x3bc3c7c6	0.0059747426
138	0x3c6a7439	0.014309936
139	0x3d1f1272	0.03883595
140	0x3ce55873	0.027996277
141	0x3c959903	0.018261438
142	0x3c9d91e0	0.019234598
143	0xbc114000	-0.008865356
144	0xbc7954a3	-0.015217933
145	0xbd399b97	-0.045314398
146	0x3c7453e9	0.014912584
147	0x3c05d3f7	0.008168212
148	0x3cad0768	0.021121696
149	0x3cae63b8	0.021287784
150	0xbaaca9b1	-0.001317313
151	0xbb8efc8c	-0.004363602
152	0xbc9ccc6d	-0.019140447
153	0x3cd74058	0.026275799
154	0x3cc430f3	0.023949122
155	0x3c1bcbf2	0.009509074
156	0xbc1bfe80	-0.009521127
157	0xbd11cda3	-0.0355965
158	0x3ca5c214	0.020234145
159	0x3c88c768	0.016696647
160	0xbb242208	-0.0025044698
161	0xbd234573	-0.039861154
162	0xbce70046	-0.028198373
163	0xb9a353b7	-0.00031152155
164	0x3c221e25	0.009894882
165	0xbd0c01ee	-0.034181528
166	0xbba1a671	-0.0049331714
167	0x3cab30fd	0.020897383
168	0x3caca9b4	0.021077015
169	0x3cc10794	0.023563184
170	0x3d12215f	0.035676356
171	0x3d052b8a	0.032512225
172	0xbc9d6026	-0.019210886
173	0x3bfd371d	0.0077275173
174	0xbb417ce1	-0.0029523897
175	0x3cff8a3d	0.031193847
176	0xbb1657be	-0.0022940482
177	0x3c706cf6	0.014674416
178	0xbd11a2c1	-0.035555605
179	0xbb0ae07a	-0.0021190927
180	0x3d5254e8	0.051350504
181	0x3c15c81d	0.009141949
182	0x3cedad40	0.029013276
183	0xbbb723e9	-0.0055889976
184	0x3d1be0bc	0.03805612
185	0x3c954900	0.018223286
186	0xbd020252	-0.031740494
187	0x3c351b62	0.011053892
188	0xbccb7b3f	-0.024839042
189	0xbc87c9c8	-0.016575709
190	0xbc023288	-0.007946618
191	0x3bbd18df	0.005770787
192	0xbc05aef1	-0.008159385
193	0x3d195077	0.037430253
194	0xbcfa6aaa	-0.03056844
195	0xbc6f9f0a	-0.01462532
196	0xbb5171c1	-0.0031958672
197	0xb9b7c48b	-0.00035050916
198	0xbcb2fa1e	-0.02184778
199	0x3cb6402d	0.022247398
200	0x3cb57eb6	0.022155147
201	0xbc890475	-0.016725758
202	0x3cce13ee	0.025155988
203	0xbcfaeb5e	-0.03062981
204	0x3d1053e3	0.03523625
205	0xbcfbd284	-0.03074003
206	0x3c51d931	0.01280813
207	0x3c406018	0.011741661
208	0xbd50ce4d	-0.050977994
209	0xbc1c3c32	-0.009535836
210	0x3c89bdca	0.016814131
211	0x3c47a348	0.012184925
212	0xbd18aa10	-0.03727156
213	0xbc995b90	-0.018720418
214	0xbb143f19	-0.0022620617
215	0x3d0bf220	0.034166455
216	0x3bd8b472	0.0066133076
217	0x3d471ced	0.04861157
218	0x3cf00209	0.029297845
219	0xbc15d0b7	-0.009144
220	0xbd38c4aa	-0.04510943
221	0xbcabf5a3	-0.020991152
222	0x3cbe703d	0.023246879
223	0x3c06be6a	0.008224109
224	0xbb845b50	-0.0040392056
225	0x3c181b68	0.009283878
226	0xbc6df90e	-0.014524711
227	0x3ca1a9cd	0.019734288
228	0x3bc892f3	0.0061210333
229	0x3c0d91a7	0.008640683
230	0x3be623ca	0.0070233094
231	0x3d02b70a	0.03191284
232	0x3b73f620	0.003722556
233	0xbbc06d32	-0.005872392
234	0xbc7a6711	-0.015283362
235	0x3cee3f4e	0.02908292
236	0xbc700fa4	-0.0146521665
237	0xbd44e4ef	-0.04806989
238	0xbc205d92	-0.009787934
239	0x3c8adbba	0.016950477
240	0x3c80df11	0.015731366
241	0xbd1311e2	-0.035905726
242	0xbcd0a4f9	-0.02546929
243	0xbcf25719	-0.029582547
244	0xbca570c2	-0.020195369
245	0xb9252234	-0.00015748368
246	0xbcffa03e	-0.03120434
247	0xbd08db2f	-0.033412155
248	0xbca3a48f	-0.019975929
249	0xbc34915c	-0.0110209845
250	0x3cb02cd4	0.02150575
251	0x3c7d8445	0.01547343
252	0xbc70c3d7	-0.014695129
253	0xbd0a7307	-0.033801105
254	0x3c75a0d9	0.014991962
255	0xbc413962	-0.011793466

0.fc_red.bias f4 [256]
0	0x3cb8ec0b	0.022573492
1	0x3b9cfe53	0.00479106
2	0x3c2ded33	0.010615635
3	0xbc9ceecb	-0.019156834
4	0xbcebfb55	-0.028806368
5	0x3c8048f4	0.015659787
6	0x3c4f0ccc	0.012637328
7	0x3cf0c42c	0.029390417
8	0x3c8d9474	0.017282702
9	0x3cfbafcb	0.030723473
10	0x3c2574f5	0.0100986855
11	0x3d04c3e8	0.032413393
12	0xbcd7575c	-0.026286773
13	0xbc3ffe60	-0.011718363
14	0x3a8130ca	0.0009856459
15	0x3bbad757	0.00570194
16	0xbd02f819	-0.031974886
17	0x3c173b2b	0.009230415
18	0xbcbc9074	-0.0230181
19	0x3a23491d	0.0006228851
20	0xbbd2fb74	-0.006438667
21	0x3d051052	0.032486267
22	0xbcae1cde	-0.021254
23	0x3ca58a24	0.020207472
24	0xbcf0467c	-0.029330485
25	0x3cf572e7	0.029962016
26	0xbd05a63d	-0.03262924
27	0xbcc9252a	-0.024553854
28	0xbc476b02	-0.012171509
29	0x3c1e95da	0.009679282
30	0x3c4a98d3	0.012365538
31	0xbd04f4ff	-0.03246021
32	0x3b6e7793	0.003638719
33	0xbcdbe5d2	-0.026842985
34	0x3baac33b	0.0052112616
35	0xbc200b56	-0.009768328
36	0xbbaa552c	-0.0051981416
37	0xbc24f7f4	-0.010068882
38	0xbce95dce	-0.028487112
39	0x3bfd8105	0.0077363276
40	0xbb9fb3f0	-0.004873745
41	0x3cf38359	0.029725717
42	0xbba77fa6	-0.0051116524
43	0xbcbfd866	-0.023418617
44	0xb98f6541	-0.00027350525
45	0xbbc4f963	-0.0060111745
46	0x3c764120	0.015030175
47	0xbca349c4	-0.019932635
48	0x3cfec9cb	0.031102082
49	0x3cbeb949	0.02328171
50	0x3cf53576	0.029932719
51	0x3c174be7	0.009234405
52	0xbb13b7d5	-0.0022539992
53	0x3c59d5cf	0.013295605
54	0xbd0c5872	-0.034264036
55	0x3cb922ed	0.022599662
56	0x3d0d665a	0.03452144
57	0x3c54e688	0.012994416
58	0x3d0ce070	0.034393728
59	0xbceb0e39	-0.028693305
60	0x3cf71e81	0.030165913
61	0xbd0a0dac	-0.033704445
62	0xbc8cfc5b	-0.017210176
63	0x3cad69a9	0.021168547
64	0x3cf31b94	0.029676236
65	0xbc5ede02	-0.0136027355
66	0xbc1f6058	-0.00972756
67	0xbc399557	-0.011327109
68	0xbcf7eca9	-0.030264216
69	0x3c6c359c	0.014417078
70	0xbcfae2b5	-0.03062568
71	0xbc91e88b	-0.01781108
72	0xbcd85763	-0.026408857
73	0xbd10ccc8	-0.035351545
74	0x3ab5bab4	0.0013864846
75	0x3ce46940	0.027882218
76	0xbc86e002	-0.016464237
77	0xbc4c273e	-0.012460528
78	0x3c5a6c32	0.01333146
79	0x3d078926	0.03308978
80	0xbcf1547c	-0.02945923
81	0xbc424158	-0.0118563995
82	0xbb86064f	-0.0040901075
83	0xbbfd0af8	-0.007722255
84	0xbc890812	-0.016727481
85	0xb7d8885e	-2.5812707e-05
86	0x3d086af1	0.033305112
87	0x3c214565	0.009843205
88	0xbcc2e227	-0.023789478
89	0xbcc58efd	-0.024116034
90	0x3ab46b14	0.0013764822
91	0xbb95938c	-0.004564708
92	0x3c467bb6	0.012114456
93	0x3cef9f63	0.029250806
94	0x3d00c96b	0.031442087
95	0xbcec822e	-0.028870668
96	0xbc1ba336	-0.009499362
97	0xba85b9c2	-0.0010202455
98	0x3c59431d	0.01326063
99	0x3ca01537	0.019541366
100	0xb9dd8216	-0.00042249326
101	0x3c0a359d	0.008435634
102	0xbc85cee7	-0.01633401
103	0xbc91648b	-0.017748138
104	0xbcdecab4	-0.027196266
105	0xbce03436	-0.027368646
106	0x3c9cf404	0.019159324
107	0x3b20a37d	0.002451151
108	0x39bb8ef6	0.00035773934
109	0x3cda9da4	0.026686497
110	0x3d04dd09	0.032437358
111	0xbc121335	-0.008915712
112	0x3bbc2b23	0.005742447
113	0xbcee6260	-0.029099643
114	0x3c94d8a8	0.018169716
115	0xbcfb412c	-0.030670725
116	0x3c5ffd8b	0.013671289
117	0x3ce7e96d	0.028309548
118	0x3ba5335f	0.0050415243
119	0xbaeb94e0	-0.0017973445
120	0xbc2cb62c	-0.01054148
121	0xbc8020a5	-0.015640566
122	0xbcddcb00	-0.027074337
123	0xbc78bff6	-0.015182486
124	0x3cafde0b	0.021468183
125	0xbc12e30a	-0.008965263
126	0x3bec5d6e	0.007213286
127	0xba70c899	-0.0009185165
128	0xbc21ecc7	-0.009883112
129	0x3c6cdbb5	0.014456679
130	0xbbc0d072	-0.0058842236
131	0x3ba7da00	0.005122423
132	0xbd0a5e5b	-0.03378139
133	0xba8206f4	-0.0009920285
134	0xbc1dd11f	-0.009632378
135	0x3c04386c	0.008070093
136	0xbce18add	-0.027532035
137	0xbc5fd7b0	-0.013662264
138	0x3c9cd108	0.019142643
139	0xbcb19070	-0.021675318
140	0x3d047a32	0.032343097
141	0x3cbf66cc	0.023364447
142	0xbcdedd33	-0.027205085
143	0x3d027492	0.03184945
144	0x39153ddd	0.00014232793
145	0x3c7751df	0.015095203
146	0xbd00402f	-0.03131121
147	0x3cdb6cfe	0.02678537
148	0xbca3dee9	-0.020003753
149	0xbc892933	-0.016743278
150	0x3ce8e399	0.02842884
151	0xbb9e150f	-0.0048242877
152	0x3abaab09	0.0014241646
153	0xbd0e25d7	-0.034704056
154	0x3cc17429	0.02361496
155	0xbcc10b00	-0.023564816
156	0xbc5b93ec	-0.013401967
157	0x3cd8c880	0.026462793
158	0x3c6e444c	0.01454265
159	0xbcefcbc4	-0.029271968
160	0x3bc43e6d	0.005988887
161	0xbbe8312a	-0.007085939
162	0x3c83656b	0.01603957
163	0x3b4784f5	0.0030444239
164	0x3cdab12d	0.026695812
165	0xbc754957	-0.014971099
166	0x3c1ce7d7	0.009576759
167	0x3af6429c	0.0018788162
168	0xbc47d845	-0.012197559
169	0x3c4e89cd	0.012606096
170	0xbcf9871d	-0.030459935
171	0x3d0ac77a	0.033881642
172	0xbc13b60b	-0.00901557
173	0x3cc62247	0.024186267
174	0xbc2801d5	-0.010254343
175	0xbcd37212	-0.025811229
176	0xbce9cfdc	-0.028541498
177	0x3c2832ad	0.010265988
178	0xbc8ff05a	-0.017570663
179	0x3cd391a5	0.025826285
180	0x3c5aa694	0.013345379
181	0xbcab6cda	-0.020925928
182	0xbb7e17d3	-0.0038771525
183	0x3d0665a2	0.03281177
184	0x3a441246	0.00074795296
185	0xbb04b814	-0.002025132
186	0x3cd360af	0.025802938
187	0x3c9480a8	0.018127754
188	0xbd077947	-0.033074643
189	0xbcc93d0e	-0.024565246
190	0x3cb6f7af	0.022334902
191	0x3c3f2add	0.011667934
192	0x3cbf8b73	0.023381924
193	0x3c9ae0f1	0.018906089
194	0xbcdecb48	-0.027196541
195	0xbace8d7b	-0.0015758717
196	0xbca45ecd	-0.020064736
197	0x3c16beda	0.009200776
198	0xbab8c14e	-0.0014095695
199	0xbc958960	-0.018253982
200	0x3c81fc1d	0.015867287
201	0x3cce31ed	0.02517029
202	0x3d074eec	0.03303425
203	0xbc51f4f6	-0.012814751
204	0xbabe51b4	-0.0014520199
205	0x3ce75e14	0.028243102
206	0x3cfc82ff	0.030824183
207	0xbbf344ff	-0.0074239965
208	0xbc00540f	-0.007832541
209	0xbbda3684	-0.006659331
210	0x3ce40964	0.027836509
211	0x3c0b75a6	0.008511936
212	0xbcd43301	-0.025903227
213	0xbcf15cb5	-0.029463151
214	0x3cec39ce	0.028836157
215	0x3cde225b	0.027115991
216	0x3cc5b908	0.024136081
217	0x3cbc92ef	0.023019282
218	0x3c211f5e	0.009834139
219	0x3c489240	0.0122419
220	0xbccd8c5a	-0.025091339
221	0x3cc0a0ff	0.023514269
222	0xbb957bbc	-0.0045618694
223	0x3ca76b99	0.020437049
224	0xba1643fb	-0.0005732176
225	0x3befa32f	0.007313154
226	0x3b9be765	0.004757809
227	0x3d0d123a	0.03444121
228	0xbccda09d	-0.025101
229	0xbc8bd5f2	-0.01706979
230	0xbc8f50ea	-0.017494638
231	0x3cd668fb	0.026173105
232	0xbbde8cf5	-0.0067917057
233	0x3cd3e54e	0.025866177
234	0x3cec0844	0.028812535
235	0x3cf4de99	0.0298913
236	0x3b565eff	0.003271043
237	0x3bb560ce	0.0055352217
238	0xbcf74bb3	-0.030187463
239	0xbcd907fe	-0.026493069
240	0x3c59e3bd	0.013298926
241	0x3d0e28f5	0.03470703
242	0xbb92a20a	-0.004474883
243	0xbccfebc7	-0.025380982
244	0xba925c02	-0.0011166336
245	0x3c345cea	0.011008481
246	0x3c85e665	0.016345212
247	0xbcf97f65	-0.030456254
248	0xbd06187f	-0.032738205
249	0xbcedcba2	-0.029027764
250	0xbcdcd5f3	-0.026957488
251	0x3cc43963	0.023953145
252	0xbb9e305c	-0.004827542
253	0xbc4025d8	-0.011727773
254	0x3cb10f80	0.021613836
255	0x3c823ecc	0.015899085

0.bn_red.weight f4 [256]
0	0x3f82662e	1.0187433
1	0x3f7ff0d6	0.9997686
2	0x3f8164c2	1.0108874
3	0x3f819b8d	1.0125595
4	0x3f845ffd	1.0341793
5	0x3f835105	1.02591
6	0x3f816c46	1.0111167
7	0x3f84031f	1.0313452
8	0x3f8147ac	1.0099998
9	0x3f828813	1.0197777
10	0x3f8449e6	1.0335052
11	0x3f824313	1.017672
12	0x3f818cb5	1.0121065
13	0x3f837c6b	1.0272344
14	0x3f850a40	1.0393753
15	0x3f843426	1.0328414
16	0x3f80b57e	1.0055387
17	0x3f826dea	1.0189793
18	0x3f8162a5	1.0108229
19	0x3f858ea4	1.0434155
20	0x3f82dd60	1.0223808
21	0x3f83ab4e	1.0286653
22	0x3f7ff7e5	0.9998763
23	0x3f82b85d	1.0212513
24	0x3f848c72	1.035536
25	0x3f830ae9	1.0237705
26	0x3f80b14f	1.005411
27	0x3f833a00	1.0252075
28	0x3f840b20	1.0315895
29	0x3f847448	1.0347986
30	0x3f83bd6f	1.0292186
31	0x3f832f7a	1.0248864
32	0x3f7fccd5	0.99921924
33	0x3f83fca9	1.0311481
34	0x3f803d8f	1.0018786
35	0x3f835425	1.0260054
36	0x3f811c44	1.0086751
37	0x3f822e27	1.0170335
38	0x3f80f651	1.007517
39	0x3f804278	1.0020285
40	0x3f851e62	1.0399897
41	0x3f811e84	1.0087438
42	0x3f83af13	1.0287803
43	0x3f806f85	1.0034033
44	0x3f82869c	1.019733
45	0x3f82764c	1.0192351
46	0x3f839f58	1.0283003
47	0x3f80c2ad	1.005941
48	0x3f819645	1.0123984
49	0x3f83badd	1.0291401
50	0x3f7fd565	0.9993499
51	0x3f818619	1.0119048
52	0x3f831bbb	1.0242838
53	0x3f82176c	1.0163398
54	0x3f84687c	1.0344386
55	0x3f82b627	1.0211838
56	0x3f837c85	1.0272375
57	0x3f84b8b9	1.0368873
58	0x3f8472b0	1.03475
59	0x3f801b0a	1.0008252
60	0x3f802c15	1.0013453
61	0x3f83bab0	1.0291348
62	0x3f83e887	1.0305337
63	0x3f842bee	1.0325906
64	0x3f816df3	1.0111679
65	0x3f8110bc	1.0083232
66	0x3f837538	1.0270147
67	0x3f835ce4	1.0262723
68	0x3f84cfcc	1.0375915
69	0x3f807cc0	1.0038071
70	0x3f80ac0d	1.0052506
71	0x3f826b8b	1.018907
72	0x3f8258f1	1.0183393
73	0x3f81c78a	1.013902
74	0x3f83844d	1.027475
75	0x3f82b361	1.0210992
76	0x3f814b46	1.0101097
77	0x3f838966	1.0276306
78	0x3f842bac	1.0325828
79	0x3f86da46	1.0535362
80	0x3f80f1a4	1.0073743
81	0x3f84a2c4	1.0362172
82	0x3f84228f	1.0323046
83	0x3f83bf3a	1.0292733
84	0x3f838709	1.0275584
85	0x3f85eb09	1.0462352
86	0x3f83867f	1.027542
87	0x3f84dfd5	1.0380808
88	0x3f803824	1.0017133
89	0x3f8048d1	1.0022222
90	0x3f814372	1.0098708
91	0x3f827661	1.0192376
92	0x3f823a33	1.0174011
93	0x3f853971	1.0408155
94	0x3f8474f8	1.0348196
95	0x3f807a22	1.0037272
96	0x3f805cc2	1.0028307
97	0x3f81b1dc	1.0132403
98	0x3f84544d	1.0338227
99	0x3f840945	1.0315329
100	0x3f80aa15	1.0051905
101	0x3f7fe955	0.9996541
102	0x3f84b681	1.0368196
103	0x3f810987	1.0081033
104	0x3f833a7b	1.0252222
105	0x3f801d34	1.0008912
106	0x3f8424a4	1.0323682
107	0x3f8177d7	1.0114697
108	0x3f8469ec	1.0344825
109	0x3f83769f	1.0270575
110	0x3f82dd44	1.0223775
111	0x3f84d2be	1.0376813
112	0x3f81b65c	1.0133777
113	0x3f81bd94	1.013598
114	0x3f81a5cb	1.0128721
115	0x3f843ab3	1.0330414
116	0x3f80f412	1.0074484
117	0x3f85fd26	1.046788
118	0x3f82b7cf	1.0212344
119	0x3f825514	1.0182214
120	0x3f823361	1.017193
121	0x3f8584dc	1.043117
122	0x3f84d0e9	1.0376254
123	0x3f8446de	1.0334127
124	0x3f82c7b6	1.0217197
125	0x3f820d87	1.0160378
126	0x3f81e931	1.0149289
127	0x3f8514a3	1.0396923
128	0x3f847ceb	1.0350622
129	0x3f84044b	1.031381
130	0x3f821400	1.0162354
131	0x3f83ac93	1.028704
132	0x3f81471c	1.0099826
133	0x3f8250b8	1.0180883
134	0x3f8395e8	1.0280123
135	0x3f804876	1.0022113
136	0x3f82d91a	1.0222504
137	0x3f837a0e	1.0271623
138	0x3f829b50	1.0203648
139	0x3f802415	1.0011011
140	0x3f8280ab	1.0195516
141	0x3f8436a6	1.0329177
142	0x3f84a25c	1.0362048
143	0x3f8126ef	1.0090007
144	0x3f848546	1.0353172
145	0x3f81ec95	1.0150324
146	0x3f80024b	1.00007
147	0x3f8491b0	1.035696
148	0x3f85b2de	1.0445211
149	0x3f859309	1.0435497
150	0x3f838fec	1.0278296
151	0x3f84531f	1.0337867
152	0x3f82f8b6	1.023215
153	0x3f83b264	1.0288815
154	0x3f851a3b	1.039863
155	0x3f854d5b	1.0414232
156	0x3f8133c8	1.0093927
157	0x3f843f7a	1.0331872
158	0x3f8004aa	1.0001423
159	0x3f8500b9	1.0390846
160	0x3f829f06	1.020478
161	0x3f81d4d0	1.014307
162	0x3f83bcd7	1.0292004
163	0x3f822189	1.0166484
164	0x3f84e14a	1.0381253
165	0x3f823616	1.0172756
166	0x3f82fe98	1.0233946
167	0x3f8446bc	1.0334086
168	0x3f8182d0	1.0118046
169	0x3f84b19e	1.0366704
170	0x3f811e09	1.0087291
171	0x3f833e8d	1.0253464
172	0x3f81f62f	1.0153254
173	0x3f849377	1.0357503
174	0x3f81c9d3	1.0139717
175	0x3f84eea5	1.0385329
176	0x3f817fb5	1.0117098
177	0x3f84ea81	1.0384065
178	0x3f84b905	1.0368963
179	0x3f821840	1.016365
180	0x3f836c05	1.026734
181	0x3f81bfbf	1.0136641
182	0x3f864a62	1.049145
183	0x3f84c699	1.0373107
184	0x3f878be0	1.0589561
185	0x3f812244	1.0088582
186	0x3f818af8	1.0120535
187	0x3f827349	1.0191432
188	0x3f83a279	1.0283958
189	0x3f822dd4	1.0170236
190	0x3f83dbcd	1.0301453
191	0x3f8480d7	1.0351819
192	0x3f83726c	1.0269294
193	0x3f83ce61	1.0297357
194	0x3f8413ea	1.0318577
195	0x3f84cb8c	1.0374618
196	0x3f80ff04	1.0077825
197	0x3f8301ff	1.0234984
198	0x3f80cecc	1.0063109
199	0x3f84a2a1	1.036213
200	0x3f841c6e	1.0321176
201	0x3f82339d	1.0172001
202	0x3f85a03f	1.0439528
203	0x3f82fa5e	1.0232656
204	0x3f83b60b	1.028993
205	0x3f851ced	1.0399452
206	0x3f85a9a8	1.04424
207	0x3f833b52	1.0252478
208	0x3f8176b5	1.0114352
209	0x3f836b7d	1.0267178
210	0x3f8116c3	1.0085071
211	0x3f826d7d	1.0189663
212	0x3f833576	1.025069
213	0x3f84b796	1.0368526
214	0x3f81f693	1.0153373
215	0x3f83609c	1.0263858
216	0x3f839ca8	1.0282183
217	0x3f833b42	1.0252459
218	0x3f83aa80	1.0286407
219	0x3f820f4a	1.0160916
220	0x3f82858f	1.0197009
221	0x3f82eaa3	1.0227855
222	0x3f840ffb	1.0317377
223	0x3f845438	1.0338202
224	0x3f7fe574	0.9995949
225	0x3f80eb32	1.0071776
226	0x3f83a156	1.0283611
227	0x3f80ce57	1.006297
228	0x3f85bb77	1.0447835
229	0x3f83927d	1.027908
230	0x3f82b97e	1.0212858
231	0x3f83f403	1.0308841
232	0x3f82a5a0	1.0206795
233	0x3f84fe65	1.0390135
234	0x3f82db53	1.0223182
235	0x3f80f3b0	1.0074368
236	0x3f833046	1.0249107
237	0x3f82cd53	1.021891
238	0x3f7fdd6b	0.9994723
239	0x3f83b0f0	1.0288372
240	0x3f844953	1.0334877
241	0x3f82ef09	1.0229198
242	0x3f83995c	1.0281177
243	0x3f86100c	1.0473647
244	0x3f8458ff	1.033966
245	0x3f853f9e	1.041004
246	0x3f8439a7	1.0330094
247	0x3f8319a3	1.0242199
248	0x3f859349	1.0435573
249	0x3f81f02e	1.0151422
250	0x3f819580	1.0123749
251	0x3f836c2d	1.0267388
252	0x3f841203	1.0317997
253	0x3f80ba87	1.0056924
254	0x3f8308bc	1.023704
255	0x3f828004	1.0195317

0.bn_red.bias f4 [256]
0	0xbd4ffcb1	-0.050778095
1	0x3977e6b4	0.00023641699
2	0xbd063e2a	-0.032774128
3	0xbd0bdd41	-0.03414655
4	0xbe34bb00	-0.1764946
5	0xbe04a882	-0.12954906
6	0xbd1bdec3	-0.03805424
7	0xbde2d953	-0.110766076
8	0xbcf57bcf	-0.029966263
9	0xbda85a25	-0.08220319
10	0xbddbdcfe	-0.1073551
11	0xbd5f8750	-0.054572403
12	0xbd0afdf8	-0.03393361
13	0xbdff3690	-0.12461579
14	0xbe4cf932	-0.20016935
15	0xbdd4dabc	-0.10393283
16	0xbc243f63	-0.010024878
17	0xbd7d66d5	-0.061865646
18	0xbd04f844	-0.032463327
19	0xbe424cd6	-0.18974623
20	0xbd89c8b7	-0.067277364
21	0xbdd25c21	-0.102714784
22	0xba2f7f9e	-0.00066947367
23	0xbd764d73	-0.060132455
24	0xbe1c60e7	-0.1527134
25	0xbdaea1fa	-0.08526988
26	0xbc7499fa	-0.014929289
27	0xbdfba255	-0.12286822
28	0xbdf675b6	-0.1203417
29	0xbe12a949	-0.1432239
30	0xbdf18569	-0.11793024
31	0xbda3b3f8	-0.07993311
32	0xb9e00a6e	-0.0004273238
33	0xbdbdafdf	-0.092620604
34	0xbc116ad3	-0.008875567
35	0xbdf5670c	-0.11982545
36	0xbc9e0219	-0.01928811
37	0xbd3bc0a3	-0.04583801
38	0xbc6c1e2e	-0.014411492
39	0xbab7449b	-0.0013982238
40	0xbe0f0cae	-0.1396968
41	0xbca747c0	-0.020419955
42	0xbddec6b4	-0.10877743
43	0xbbc9b42e	-0.0061555123
44	0xbd881c41	-0.06646014
45	0xbd3516cf	-0.044211205
46	0xbda4cd52	-0.08046974
47	0xbbfe5fc0	-0.007762879
48	0xbcba87fc	-0.02276992
49	0xbdc307ea	-0.09522994
50	0xba984cd9	-0.0011619582
51	0xbce18980	-0.027531385
52	0xbdd8aa3f	-0.10579347
53	0xbd55a256	-0.05215677
54	0xbda96f83	-0.08273222
55	0xbdbd781c	-0.09251425
56	0xbdc70b1c	-0.09718916
57	0xbe37a412	-0.17933682
58	0xbe0a35fc	-0.13497156
59	0xbb07911d	-0.002068586
60	0xbb1f14b6	-0.002427382
61	0xbddb5b35	-0.10710756
62	0xbdf12737	-0.11775058
63	0xbdca3b70	-0.09874618
64	0xbd104508	-0.035222083
65	0xbccbb64b	-0.024867197
66	0xbda6676a	-0.081251934
67	0xbda2393c	-0.07921073
68	0xbe0ca706	-0.1373559
69	0xbb9e6a7d	-0.0048344717
70	0xbc98f4ae	-0.01867136
71	0xbd899ee8	-0.06719762
72	0xbd5c8f90	-0.05384785
73	0xbd679b7a	-0.05654476
74	0xbde86987	-0.11348253
75	0xbd1fb067	-0.03898659
76	0xbd2a0f4f	-0.041518506
77	0xbe09c4de	-0.13454005
78	0xbdf91f01	-0.12164117
79	0xbe500c0e	-0.20317098
80	0xbc8252df	-0.015908657
81	0xbe2f4f85	-0.17120178
82	0xbdd01b8a	-0.10161503
83	0xbdcbbcb4	-0.09948102
84	0xbe057a79	-0.13035001
85	0xbe4fee19	-0.20305671
86	0xbdd28d4c	-0.102808565
87	0xbe170815	-0.14749177
88	0xbbfb89d4	-0.0076763425
89	0xbc7a2bda	-0.015269244
90	0xbd06e6b3	-0.032934856
91	0xbd497f85	-0.049193878
92	0xbd46243c	-0.0483744
93	0xbe293953	-0.16525774
94	0xbe093c8e	-0.13402006
95	0xbc11f008	-0.008907326
96	0xbc45fe60	-0.0120845735
97	0xbd2afe5c	-0.041746482
98	0xbde6c24b	-0.11267527
99	0xbdfaae0b	-0.12240227
100	0xbc2bb008	-0.010478981
101	0xb988908d	-0.0002604764
102	0xbe194e24	-0.14971215
103	0xbca03cd1	-0.01956025
104	0xbdbd8a38	-0.09254879
105	0xbabc1955	-0.0014350811
106	0xbe28a24b	-0.1646816
107	0xbcb1b60b	-0.02169325
108	0xbe27a0b6	-0.163699
109	0xbda3b91f	-0.079942934
110	0xbd9e5be6	-0.07732372
111	0xbe102d16	-0.14079699
112	0xbd23633f	-0.03988957
113	0xbd2f0577	-0.04272982
114	0xbd2a8ba1	-0.041637067
115	0xbdb74ea6	-0.08950548
116	0xbc101147	-0.008793182
117	0xbe430113	-0.19043379
118	0xbd7c5e3c	-0.061613306
119	0xbd54f950	-0.051995575
120	0xbd987b51	-0.07445396
121	0xbe344695	-0.1760505
122	0xbdfdca52	-0.12392105
123	0xbded55c5	-0.11588625
124	0xbd86c6cf	-0.065808885
125	0xbd348fbe	-0.044082396
126	0xbd3ac81b	-0.04560099
127	0xbe3a157f	-0.18172263
128	0xbdf87495	-0.12131611
129	0xbdf9f416	-0.12204759
130	0xbd532b51	-0.05155498
131	0xbdaee7fe	-0.08540343
132	0xbc9e964f	-0.019358782
133	0xbd48a4c4	-0.048985258
134	0xbdaef9c9	-0.085437365
135	0xbb823ce0	-0.003974542
136	0xbdd102bf	-0.10205602
137	0xbdb1c591	-0.08680261
138	0xbd8f4432	-0.06995429
139	0xbb44b065	-0.0030012366
140	0xbd26264d	-0.04056387
141	0xbe05a6c5	-0.13051899
142	0xbdf998e7	-0.12187367
143	0xbc8d1fa4	-0.017227001
144	0xbdd79026	-0.10525541
145	0xbcf62e22	-0.030051295
146	0xbabe1719	-0.0014502733
147	0xbe024b40	-0.12724018
148	0xbe3c0998	-0.18363035
149	0xbe3de58c	-0.18544596
150	0xbdef573a	-0.11686559
151	0xbda7301a	-0.081634715
152	0xbd7c01c1	-0.06152511
153	0xbddc8411	-0.10767377
154	0xbe233e11	-0.15941645
155	0xbe0b6469	-0.13612522
156	0xbc8ba279	-0.017045246
157	0xbe1b8694	-0.15188056
158	0xba3672d7	-0.00069598615
159	0xbe0c1bc5	-0.13682468
160	0xbd5cec1c	-0.05393611
161	0xbd558b55	-0.05213483
162	0xbde7be5b	-0.11315604
163	0xbd2769bf	-0.04087233
164	0xbde8c1fa	-0.11365123
165	0xbd524932	-0.051339336
166	0xbda05c2a	-0.07830079
167	0xbdcf8569	-0.10132868
168	0xbd1f6a08	-0.03891948
169	0xbdfb33df	-0.12265753
170	0xbc940450	-0.018068463
171	0xbdaa8c91	-0.08327592
172	0xbd3531aa	-0.044236816
173	0xbe232dd7	-0.15935455
174	0xbd7b16ca	-0.06130103
175	0xbe12a27f	-0.143198
176	0xbd34db80	-0.044154644
177	0xbe044948	-0.1291858
178	0xbe01cae0	-0.12675047
179	0xbd90d79c	-0.07072374
180	0xbdfb059f	-0.122569315
181	0xbd1977f6	-0.03746792
182	0xbe319477	-0.17341791
183	0xbe0b6567	-0.136129
184	0xbe8707fb	-0.26373276
185	0xbcbb6d46	-0.022879254
186	0xbd1e56a4	-0.038656846
187	0xbd5acdfd	-0.053419102
188	0xbdf2e7a1	-0.11860586
189	0xbd969bd5	-0.07353941
190	0xbdb0a8b0	-0.086259246
191	0xbdfda360	-0.12384677
192	0xbda80cc4	-0.0820556
193	0xbdc2b51f	-0.09507202
194	0xbe1c5322	-0.15266088
195	0xbe0db2fc	-0.13837808
196	0xbcbc41c5	-0.02298058
197	0xbda711db	-0.081577025
198	0xbc5b34dc	-0.013379302
199	0xbe0dde5f	-0.13854359
200	0xbe012cef	-0.12614797
201	0xbd7c5e6b	-0.06161348
202	0xbe5a8fdb	-0.21343939
203	0xbd90d9f9	-0.07072825
204	0xbdd05579	-0.101725526
205	0xbe110680	-0.14162636
206	0xbe48a3fe	-0.19593808
207	0xbdc078fd	-0.09398077
208	0xbd0cf02b	-0.03440873
209	0xbdbc312c	-0.09189066
210	0xbcab6601	-0.020922663
211	0xbd71caad	-0.059031177
212	0xbda30c61	-0.079613455
213	0xbe4aea7e	-0.19816014
214	0xbce1ea33	-0.027577495
215	0xbdb9e37d	-0.09076593
216	0xbdf88a44	-0.12135747
217	0xbd92605d	-0.07147286
218	0xbd9ead76	-0.07747929
219	0xbd16f0bc	-0.036850676
220	0xbd6da3c1	-0.058017496
221	0xbd8e10d6	-0.06936805
222	0xbdfa9218	-0.122348964
223	0xbe1159c0	-0.14194393
224	0xb9c3f2dd	-0.00037374246
225	0xbc8571a4	-0.01628954
226	0xbdc1f94b	-0.09471377
227	0xbc576ce1	-0.013148517
228	0xbe3fc901	-0.1872902
229	0xbdec27db	-0.11531039
230	0xbd90f506	-0.070779845
231	0xbdd23606	-0.102642104
232	0xbd66a70a	-0.056311645
233	0xbe10e41e	-0.1414952
234	0xbda27903	-0.079332374
235	0xbc6d5cb4	-0.014487434
236	0xbdb2bee4	-0.08727816
237	0xbda11d9b	-0.07866975
238	0xba0234e5	-0.00049669883
239	0xbe012d75	-0.12614997
240	0xbdf57d48	-0.11986786
241	0xbde3f263	-0.11130216
242	0xbe2c7945	-0.16843136
243	0xbe65ec18	-0.22453344
244	0xbdf6ec65	-0.120568074
245	0xbe13955f	-0.1441245
246	0xbe031846	-0.12802228
247	0xbdaf8e86	-0.08572106
248	0xbe4c3b8d	-0.19944592
249	0xbd213c2f	-0.039364036
250	0xbc8855dd	-0.016642505
251	0xbda296db	-0.0793893
252	0xbdfe65b3	-0.12421741
253	0xbca114fc	-0.019663326
254	0xbd99f6ce	-0.075177774
255	0xbd622fee	-0.05522149

0.bn_red.running_mean f4 [256]
0	0x3d0c34dc	0.034230098
1	0x3c0828c4	0.0083105005
2	0x3cd3728f	0.025811462
3	0xbd1dcb3e	-0.038523905
4	0xbcef115d	-0.029183084
5	0x3c83c831	0.01608667
6	0x3c8ac54c	0.016939782
7	0x3d113abf	0.035456415
8	0xbbd32a03	-0.006444217
9	0x3d0b22e8	0.033968836
10	0x3d0dd20d	0.03462415
11	0x3d16be44	0.036802545
12	0xbcfb771a	-0.03069644
13	0xbc06a31c	-0.008217599
14	0x3a8af3fb	0.0010601276
15	0x3c5e6231	0.013573215
16	0xbc13840a	-0.009003649
17	0x3d02586d	0.03182261
18	0xbd12258a	-0.03568033
19	0x3c4ab312	0.012371795
20	0x3c284e18	0.010272525
21	0x3cf507f1	0.029911013
22	0xbd3b523d	-0.045732725
23	0x3c58b716	0.013227245
24	0xbd098ef0	-0.03358358
25	0x3d0ca8ef	0.034340795
26	0xbd33816e	-0.043824606
27	0xbcfd1f1e	-0.030898627
28	0xbbf4f13a	-0.0074750455
29	0x3c5b77d1	0.013395266
30	0x3cc16acb	0.023610493
31	0xbc9a50f6	-0.018837433
32	0xbbe88396	-0.0070957644
33	0xbd2738ce	-0.040825658
34	0xbc9c7fab	-0.019103846
35	0xbca9ab63	-0.020711606
36	0x3c39df66	0.011344766
37	0xbd1eba3c	-0.038751826
38	0xbc9d4a7c	-0.019200556
39	0x3c5b5e10	0.0133891255
40	0x3c2861d0	0.010277227
41	0x3ccf5525	0.025309155
42	0xbbf4cf5f	-0.0074710096
43	0xbcb86d45	-0.022513041
44	0x3ccabcc1	0.024748208
45	0x3bced01f	0.006311431
46	0x3c8884fa	0.01666497
47	0xbd4c1637	-0.049825873
48	0x3cb97217	0.02263741
49	0x3c63e032	0.013908433
50	0x3c1b2b81	0.009470821
51	0xbc3cd9fe	-0.011526583
52	0x3bd659e9	0.00654148
53	0x3c97d966	0.01853628
54	0xbc2ca20e	-0.010536684
55	0x3cfcbf87	0.030853046
56	0x3d5419a0	0.05178225
57	0x3c8435d2	0.016138945
58	0x3c9c1e35	0.019057373
59	0xbcbd6421	-0.023119034
60	0x3cba4172	0.022736285
61	0xbc8c0c43	-0.01709569
62	0xbcc208ef	-0.0236859
63	0x3c025837	0.007955602
64	0x3ccd6012	0.025070224
65	0xbccb51e7	-0.024819328
66	0xbca8435e	-0.020539936
67	0xbc85c41e	-0.016328868
68	0xbcac468a	-0.02102973
69	0x3cea6a3a	0.028615106
70	0xbd0e0778	-0.03467509
71	0xbcc1264d	-0.023577834
72	0xbd2ed78c	-0.04268603
73	0xbd2bcdcb	-0.041944306
74	0x3c741814	0.014898319
75	0x3cda4d18	0.02664809
76	0x3bae4a49	0.005318914
77	0xbd1befa8	-0.03807035
78	0x3aaf661a	0.0013381869
79	0x3d66c7d6	0.056342922
80	0xbcd5616d	-0.026047433
81	0xbbcaea3f	-0.006192475
82	0xbcacfb10	-0.02111581
83	0x3c852290	0.016251832
84	0xbcba7f72	-0.022765849
85	0x3c575c8f	0.013144626
86	0x3d395750	0.045249283
87	0x3c71e0cb	0.0147630675
88	0xbcf4d9eb	-0.029889068
89	0xbcae67ae	-0.021289673
90	0x3c10768a	0.008817324
91	0x3bce25e5	0.0062911385
92	0x3be90a82	0.0071118483
93	0x3d3835cf	0.04497319
94	0x3c97fa97	0.018552108
95	0xbc946a11	-0.018116983
96	0xbd27f914	-0.041009024
97	0xbc772147	-0.0150836175
98	0xbbaa5ffa	-0.0051994296
99	0x3cac8338	0.021058664
100	0xbc59994e	-0.01328118
101	0x3d05ae8b	0.03263716
102	0x3b41d139	0.002957417
103	0x3b1572d6	0.0022804043
104	0xbd596183	-0.05307151
105	0xbd1e79ef	-0.038690504
106	0x3d0e72e9	0.034777556
107	0xba4727d3	-0.0007597182
108	0x3b4e1c16	0.0031449846
109	0x3d10c9e4	0.035348788
110	0x3d1d9be8	0.038478762
111	0xbc91fbb7	-0.017820222
112	0x3c69b8b9	0.014265233
113	0xbd260efe	-0.04054164
114	0x3c83ddec	0.016097032
115	0xbca4ed3e	-0.020132657
116	0x3d1dd123	0.038529526
117	0x3d2db43e	0.04240822
118	0x3b50d4a6	0.003186503
119	0x3b746c72	0.0037296084
120	0xbcea1874	-0.028576113
121	0x3c4b04de	0.012391297
122	0xbc56055f	-0.013062804
123	0xbc0b90fb	-0.008518453
124	0x3cf5b64c	0.029994152
125	0x3c0a7157	0.008449874
126	0x3cd7ee43	0.02635873
127	0x3c205907	0.009786851
128	0xbbaa7668	-0.0052021034
129	0x3ca5e719	0.020251798
130	0xbce7b625	-0.028285095
131	0xbc213d94	-0.0098413415
132	0xbc9081b0	-0.017639965
133	0x3b7aa8de	0.0038247625
134	0xbc3746c3	-0.0111863045
135	0x3c78491a	0.0151541475
136	0xbc9e05af	-0.01928982
137	0xbc7fc2a4	-0.015610371
138	0x3a89c8f6	0.0010512162
139	0xbcd719d9	-0.026257442
140	0x3d51eabc	0.05124925
141	0x3babf398	0.0052475445
142	0xbccad57c	-0.02476
143	0x3ce526f8	0.027972683
144	0x3ca8b0b6	0.020592075
145	0x3c9275f1	0.017878504
146	0xbd4530df	-0.04814231
147	0x3d076e86	0.033064388
148	0xbccc9ef6	-0.024978142
149	0xbbc901df	-0.0061342563
150	0x3d3951ca	0.045244016
151	0xbc6f2369	-0.014595845
152	0x3c9386fc	0.018008702
153	0xbd15d52b	-0.036580246
154	0x3c96a71e	0.018390235
155	0xbc5c9b7a	-0.013464803
156	0x3a8a24db	0.0010539548
157	0x3cc8b996	0.024502557
158	0x3b79c3b8	0.0038111042
159	0xbce974db	-0.028498104
160	0xb8278390	-3.993843e-05
161	0xbb420e88	-0.0029610712
162	0x3c6211c0	0.013798177
163	0xba809324	-0.0009809476
164	0x3ca4b777	0.020107014
165	0xbcad38e6	-0.021145295
166	0x3ba25945	0.0049544894
167	0xbbbd2d51	-0.0057732244
168	0x3c3f796b	0.011686663
169	0x3ca21460	0.019785106
170	0xbc91029e	-0.017701443
171	0x3d0c6eb7	0.034285273
172	0xbc3b60bf	-0.01143664
173	0x3d214582	0.03937293
174	0xbca5acf9	-0.020224081
175	0xbcbd4d43	-0.02310813
176	0xbd0ca408	-0.03433612
177	0x3c5052b1	0.012715028
178	0x3ce30452	0.027712021
179	0x3c894ae9	0.016759353
180	0x3c0e7659	0.0086952085
181	0xbcfdad55	-0.03096644
182	0x3c7e0191	0.015503303
183	0x3d0b7e3f	0.034055945
184	0xbbfeaa4f	-0.007771767
185	0xbca95373	-0.020669675
186	0x3ce89869	0.028392987
187	0x3c18f764	0.009336326
188	0xbc43a6f3	-0.011941659
189	0xbc9e6c66	-0.019338798
190	0x3d3ef72d	0.046622444
191	0xbb8b3d8a	-0.0042492794
192	0x3d042f02	0.032271393
193	0x3cd9562f	0.026530353
194	0xbcf90bb5	-0.03040109
195	0x3cdb001a	0.026733447
196	0xbcce8cb3	-0.025213575
197	0xbb64478b	-0.0034832682
198	0x3c051fcc	0.008125257
199	0xbc10c4ce	-0.008835984
200	0x3c1ad5d3	0.009450394
201	0x3cab5f32	0.020919416
202	0x3d1e7035	0.038681228
203	0xbb2df570	-0.0026543997
204	0xbb3dce41	-0.0028962048
205	0x3c99bcda	0.01876681
206	0x3d367600	0.044546127
207	0xbc8fa108	-0.01753284
208	0xbcc4e84c	-0.024036549
209	0xbc14d907	-0.0090849465
210	0x3d62dcad	0.055386234
211	0x3cc1cec5	0.023658166
212	0xbc2fdb85	-0.01073349
213	0xbd0c4589	-0.034246
214	0x3cf3b4e1	0.029749336
215	0x3cde004b	0.02709975
216	0x3cf3a0b6	0.029739719
217	0x3ce315a4	0.02772028
218	0x3be3821f	0.006943002
219	0x3cb3549f	0.021890936
220	0xbcdf4f1f	-0.027259408
221	0x3d199f93	0.037505697
222	0xbbdee9c2	-0.0068027684
223	0xba4e8d25	-0.00078793085
224	0x39fc059e	0.0004806937
225	0x3a795de6	0.0009512588
226	0x3bd8ec5a	0.006619972
227	0x3d3d5160	0.046220183
228	0xbbcbb937	-0.0062171477
229	0xbbdb84ae	-0.0066991663
230	0xbd198cce	-0.037487797
231	0x3d2ac62c	0.041692898
232	0xbc3031f7	-0.0107541
233	0x3d0febf2	0.035137124
234	0x3cb01d21	0.021498265
235	0x3d2f7849	0.042839322
236	0x3c5564fb	0.013024564
237	0x3c5cc185	0.013473873
238	0x39dabf27	0.0004172262
239	0xbc6f7048	-0.014614172
240	0x3c0650e4	0.008197997
241	0x3cab8399	0.020936774
242	0xbcacb654	-0.021083035
243	0xbc6f53c0	-0.01460737
244	0xbbd93a58	-0.0066292696
245	0x3ce79157	0.028267546
246	0x3c56b79c	0.013105299
247	0xbd098f16	-0.033583723
248	0xbd155323	-0.03645624
249	0xbd09a7fa	-0.03360746
250	0xbce73a3c	-0.02822601
251	0x3d4307f5	0.04761501
252	0x3baa85a9	0.005203922
253	0xbc3b113e	-0.011417685
254	0x3b3a491c	0.0028424924
255	0x3cb7bc6b	0.022428712

0.bn_red.running_var f4 [256]
0	0x39a7c868	0.00032002036
1	0x398ee197	0.00027252428
2	0x3939a662	0.00017704957
3	0x393123e4	0.00016893406
4	0x3903ca07	0.00012568395
5	0x39cfa7e1	0.00039607196
6	0x3964c732	0.0002181798
7	0x3ab586f2	0.0013849421
8	0x38bd0f1e	9.015038e-05
9	0x3963b69f	0.00021716439
10	0x39b7da0e	0.00035066943
11	0x3988e586	0.0002611095
12	0x399d83e2	0.00030043634
13	0x39406c76	0.00018350952
14	0x390ffdda	0.0001373211
15	0x38cf6fa8	9.891327e-05
16	0x3a109cf0	0.00055165496
17	0x39c88941	0.00038249235
18	0x39511c40	0.00019942317
19	0x3953b990	0.00020191655
20	0x394bede1	0.00019448205
21	0x3976345c	0.00023479894
22	0x399c0c6b	0.0002976389
23	0x391d9240	0.00015027169
24	0x38af1bcf	8.34983e-05
25	0x3910f986	0.00013825865
26	0x396ba67c	0.00022473367
27	0x391d7d57	0.0001501938
28	0x397f88dd	0.0002436968
29	0x39daa66e	0.000417042
30	0x392781b6	0.00015974682
31	0x3925e5d3	0.00015821242
32	0x391ca9bc	0.0001494055
33	0x398f9531	0.00027386242
34	0x3980c257	0.00024558857
35	0x394acd20	0.00019340636
36	0x39571bda	0.00020514373
37	0x397796d0	0.00023611938
38	0x392f101f	0.00016695306
39	0x397a43b6	0.00023867082
40	0x389a7565	7.365159e-05
41	0x397d5a26	0.00024161543
42	0x39ccbbc1	0.000390498
43	0x396a87b9	0.0002236654
44	0x39138c06	0.00014071175
45	0x391fd94b	0.0001524437
46	0x39769b16	0.00023518162
47	0x3a16d521	0.00057538046
48	0x38eadeb8	0.00011199474
49	0x392583ce	0.00015784727
50	0x39aaa296	0.00032546063
51	0x39765880	0.00023493357
52	0x39f99e66	0.00047610997
53	0x39a909cc	0.0003224149
54	0x3938914e	0.00017601738
55	0x3980cc4b	0.00024566273
56	0x392efc6c	0.00016687968
57	0x39368f75	0.00017410314
58	0x391e6745	0.00015106525
59	0x396eceff	0.00022774561
60	0x39502289	0.00019849291
61	0x39ed2efc	0.0004523917
62	0x395b7003	0.00020927195
63	0x394bbcd8	0.00019429938
64	0x3a15b0d8	0.00057102507
65	0x395f550d	0.00021298621
66	0x399636bc	0.0002865101
67	0x39d932b0	0.0004142723
68	0x3a02f8d5	0.00049961853
69	0x3939feff	0.00017737968
70	0x3a3f82e7	0.0007305578
71	0x398987fa	0.00026231987
72	0x39d0df06	0.00039839017
73	0x39fa97b4	0.00047796743
74	0x39c06bb8	0.0003670135
75	0x3994ff9c	0.00028419204
76	0x39fa1302	0.00047697878
77	0x39940ab8	0.00028236746
78	0x3913e523	0.00014104373
79	0x3905477b	0.00012710497
80	0x39b40958	0.00034339237
81	0x3990ff55	0.00027656058
82	0x394ee7e1	0.00019732073
83	0x3948aa22	0.00019136866
84	0x38bb00a8	8.916977e-05
85	0x39913083	0.000276927
86	0x39e8daa8	0.000444134
87	0x39efdf21	0.00045751876
88	0x394ef00a	0.00019735112
89	0x38d59c43	0.000101857375
90	0x393b3ce5	0.00017856395
91	0x38e70c81	0.000110172674
92	0x39392f75	0.00017660654
93	0x394876b3	0.00019117705
94	0x396ca051	0.00022566436
95	0x3954945e	0.00020273167
96	0x39a55919	0.00031537635
97	0x39220eec	0.00015455083
98	0x3a417620	0.0007379968
99	0x398f3c4d	0.00027320013
100	0x3a2bcc20	0.00065535493
101	0x39dcd0d2	0.00042117253
102	0x3944db7c	0.00018773781
103	0x39b90a1c	0.00035293482
104	0x38d3e1ad	0.000101032994
105	0x3931f1d8	0.00016970129
106	0x395a3ce6	0.00020812787
107	0x3926f399	0.00015921741
108	0x395bc6a8	0.00020959473
109	0x3989d3e3	0.00026288544
110	0x395e274a	0.00021186206
111	0x39420456	0.00018502897
112	0x39494505	0.00019194566
113	0x39727965	0.00023124141
114	0x39851a61	0.0002538739
115	0x39eb93ae	0.00044932723
116	0x393d2840	0.00018039439
117	0x398f16ca	0.00027292065
118	0x3903efa4	0.00012582407
119	0x39cc8422	0.0003900836
120	0x39a6c9dd	0.00031812387
121	0x39872f50	0.00025784457
122	0x39a346bc	0.00031142484
123	0x3956f4af	0.00020499782
124	0x3991d42a	0.0002781463
125	0x3979d791	0.00023826795
126	0x395eef75	0.00021260775
127	0x391c17bb	0.0001488616
128	0x39bcf515	0.00036040755
129	0x39baf3ff	0.00035658476
130	0x395c0911	0.00020984212
131	0x39508f0b	0.00019889713
132	0x39a4a3b2	0.0003140248
133	0x390c1591	0.00013359475
134	0x39bd5323	0.0003611083
135	0x398018ed	0.00024432634
136	0x39c9c3ef	0.0003848369
137	0x3991fa12	0.00027842872
138	0x39b2cada	0.00034101942
139	0x39c63bf6	0.00037810177
140	0x395ddf75	0.00021159447
141	0x396607b6	0.00021937382
142	0x39c2191d	0.00037021274
143	0x396a313d	0.00022334322
144	0x39647034	0.00021785573
145	0x3a4345cf	0.0007449062
146	0x396b5a48	0.00022444979
147	0x399306e4	0.0002804316
148	0x38ea8986	0.00011183605
149	0x3a36c96c	0.0006972763
150	0x39837752	0.00025075168
151	0x39601251	0.00021369128
152	0x39849e16	0.00025294785
153	0x3915be66	0.00014280676
154	0x38af88ed	8.370155e-05
155	0x389f2a14	7.5895485e-05
156	0x3958075c	0.00020602107
157	0x39c92dd2	0.00038371846
158	0x39a58ae6	0.0003157474
159	0x39398787	0.00017693463
160	0x398bca0f	0.0002666269
161	0x3a188eae	0.0005819601
162	0x3957264e	0.00020518267
163	0x39803e2f	0.00024460393
164	0x3956995c	0.00020465761
165	0x38e99b1a	0.00011139196
166	0x3992cd23	0.0002800013
167	0x3944ed17	0.0001878034
168	0x394de363	0.00019635032
169	0x3969b5fa	0.00022288403
170	0x39001b94	0.00012217305
171	0x399e4d66	0.00030193775
172	0x3a0fd577	0.0005486826
173	0x398205f9	0.00024799982
174	0x39f28166	0.00046254246
175	0x3a00b3a8	0.00049095834
176	0x39d80545	0.00041202657
177	0x391ce2df	0.00014961835
178	0x395f434b	0.00021292006
179	0x39120206	0.00013924399
180	0x3a071ff6	0.0005154604
181	0x395f4312	0.00021291923
182	0x38dcdeac	0.00010531893
183	0x39684dff	0.000221543
184	0x393f4483	0.00018240702
185	0x3939f6c9	0.0001773491
186	0x3951057f	0.0001993384
187	0x398ae39c	0.00026490993
188	0x39de3ad0	0.00042386958
189	0x39c7033a	0.00037958642
190	0x3936d6d9	0.0001743691
191	0x39a65487	0.00031724965
192	0x39ed1404	0.00045219075
193	0x39f24ea9	0.00046216443
194	0x39691e2c	0.00022231851
195	0x39476e78	0.00019019272
196	0x39372c23	0.00017468682
197	0x395faa4a	0.00021330375
198	0x38f97c12	0.00011896355
199	0x39dd8022	0.0004224787
200	0x398e98b4	0.00027198123
201	0x39a4956b	0.00031391843
202	0x392fde98	0.00016772223
203	0x38d8cec4	0.00010338196
204	0x39134662	0.00014045232
205	0x391374b5	0.00014062489
206	0x39798740	0.00023796875
207	0x38d7f7e5	0.00010298173
208	0x39ba35a7	0.0003551666
209	0x39329603	0.00017031287
210	0x39eb5610	0.00044886814
211	0x39560aa0	0.00020412588
212	0x39698800	0.00022271276
213	0x3995ce74	0.00028573314
214	0x3933b8cd	0.00017139614
215	0x39428b7c	0.00018553244
216	0x38fa6ed3	0.000119415716
217	0x398205f6	0.00024799973
218	0x393a2ca5	0.00017754974
219	0x39b89e15	0.00035212995
220	0x391710c0	0.00014406722
221	0x394d0972	0.00019553842
222	0x39758f28	0.0002341835
223	0x3a3e4611	0.00072583655
224	0x39d6beaa	0.00040959317
225	0x390c96e3	0.0001340765
226	0x39615c31	0.00021492016
227	0x3a0a8742	0.0005284437
228	0x395b744e	0.00020928794
229	0x39c10f23	0.00036823106
230	0x39b906b1	0.00035290935
231	0x397e3ebe	0.00024246701
232	0x3900ba53	0.00012276442
233	0x39da4d3d	0.00041637747
234	0x38de46b5	0.00010598955
235	0x390bacda	0.00013320465
236	0x39bf138c	0.00036444922
237	0x39e734f8	0.00044099218
238	0x3985e393	0.00025537293
239	0x39a14e96	0.00030766864
240	0x395efa32	0.00021264775
241	0x39c3791d	0.00037283535
242	0x38dd5738	0.00010554347
243	0x393cf692	0.00018020932
244	0x389d40eb	7.498435e-05
245	0x39943531	0.0002826839
246	0x399e7df7	0.0003022996
247	0x3985d13c	0.0002552363
248	0x398fca9e	0.00027426047
249	0x399529ee	0.00028450735
250	0x3a790c11	0.0009500394
251	0x390324fe	0.00012506914
252	0x3924f614	0.0001573193
253	0x38dc6d42	0.00010510768
254	0x39f4ae6d	0.00046669264
255	0x393c76e9	0.00017973375

1.weight f4 [1, 256]
0	0x3e55a1d4	0.20862514
1	0xbca8404f	-0.020538477
2	0xbe1e78c5	-0.15475757
3	0xbe29950b	-0.16560762
4	0xbea46e6d	-0.32115498
5	0xbe8ad677	-0.2711675
6	0xbe22c512	-0.15895489
7	0x3e8dd91b	0.277047
8	0x3e17d062	0.14825585
9	0x3e60fcee	0.21971485
10	0x3e9199fb	0.2843779
11	0xbe4b899d	-0.19876714
12	0x3e288c20	0.16459703
13	0xbe8b9e4e	-0.27269214
14	0x3eb42305	0.35182968
15	0x3e9032ef	0.2816386
16	0x3de1cfd8	0.11025971
17	0x3e573bc4	0.21018893
18	0xbe1d8cf6	-0.15385804
19	0x3eb72bff	0.35775754
20	0xbe6c98c2	-0.23105147
21	0xbe8a702a	-0.270387
22	0xbd27ae0a	-0.04093746
23	0xbe5edf7c	-0.2176494
24	0x3e9f3080	0.3109169
25	0x3e749cf1	0.23887993
26	0x3ddfe477	0.10932248
27	0xbe852f08	-0.26012444
28	0xbe936ccf	-0.28793952
29	0xbe9dedcc	-0.30845487
30	0x3e8ce2c0	0.27516747
31	0xbe77606d	-0.24157877
32	0x3bda1a55	0.006655971
33	0xbe8a3114	-0.2699057
34	0xbd970310	-0.07373631
35	0xbe885aa7	-0.26631662
36	0xbe0c874c	-0.13723487
37	0x3e45bb24	0.1930967
38	0xbe0a4f4d	-0.13506813
39	0xbd9dbc8c	-0.07701978
40	0x3ea3a163	0.31959066
41	0xbe135911	-0.14389445
42	0xbe88aff0	-0.2669673
43	0xbdb8b6e1	-0.090192564
44	0x3e5985d7	0.21242462
45	0xbe5132cb	-0.20429532
46	0x3e827606	0.2548067
47	0x3de93b8a	0.11388309
48	0x3e25fd9e	0.16210029
49	0xbe867b3e	-0.262659
50	0xbc4f2846	-0.012643879
51	0xbe2479d7	-0.16062103
52	0xbe7e143f	-0.24812411
53	0xbe4953e5	-0.1966091
54	0xbe8fb918	-0.28070903
55	0xbe6ce40f	-0.23133872
56	0xbe853452	-0.2601648
57	0xbeaaa0b7	-0.3332574
58	0x3e998585	0.2998468
59	0xbd5156b1	-0.051108066
60	0x3d73a18f	0.059480246
61	0xbe8a44b1	-0.27005532
62	0xbe8f7843	-0.2802144
63	0x3e8dd192	0.27698952
64	0x3e20ca35	0.15702136
65	0x3e0bb795	0.1364425
66	0xbe81650c	-0.25272405
67	0x3e7bf9af	0.24606965
68	0x3ea1db4f	0.31612632
69	0x3dbeb51c	0.093118876
70	0xbdee0e1f	-0.11623787
71	0xbe56cd49	-0.20976748
72	0x3e4f9b53	0.20274095
73	0x3e40bedf	0.18822812
74	0xbe887586	-0.26652163
75	0x3e598e83	0.2124577
76	0xbe1e5e58	-0.15465677
77	0xbe8f3c49	-0.2797568
78	0xbe9275e7	-0.28605577
79	0x3ec8e07f	0.39233777
80	0x3e010191	0.12598254
81	0x3ea54769	0.32281044
82	0x3e8e62ad	0.2780966
83	0x3e87b111	0.26502278
84	0xbe8de988	-0.27717233
85	0x3ebe3beb	0.3715509
86	0xbe8614e7	-0.26187822
87	0xbea25974	-0.31708872
88	0xbd8b22ef	-0.067937724
89	0xbdb71464	-0.08939436
90	0xbe1fe29e	-0.15613791
91	0xbe52240c	-0.20521563
92	0x3e51625c	0.20447677
93	0x3eac0214	0.33595335
94	0xbe994b5a	-0.299403
95	0x3dc20bda	0.09474917
96	0x3db2e950	0.08735907
97	0x3e2f6d30	0.17131495
98	0x3e92c747	0.28667662
99	0xbe90bc96	-0.2826888
100	0xbdd9d03d	-0.106354214
101	0xbcc5da04	-0.02415181
102	0x3ea2d7bc	0.31805217
103	0xbe08d7c0	-0.13363552
104	0xbe7ba933	-0.24576263
105	0x3d5ea5ac	0.054357216
106	0xbe9fd83a	-0.31219655
107	0xbe201008	-0.15631115
108	0xbea2ddec	-0.31809938
109	0xbe803f35	-0.25048223
110	0x3e6abc53	0.22923402
111	0xbe9fc15c	-0.3120221
112	0xbe2f5417	-0.17121921
113	0xbe353e12	-0.17699459
114	0x3e31f90e	0.17380163
115	0x3e8d19f7	0.27558872
116	0x3e017fcb	0.12646405
117	0x3ebc1ae3	0.36739263
118	0xbe5f8397	-0.21827541
119	0xbe4d870c	-0.20071048
120	0x3e50ecc9	0.20402826
121	0x3eb2741b	0.34854206
122	0x3e9efafe	0.31050867
123	0x3e945867	0.28973696
124	0x3e6649ef	0.22489141
125	0x3e406d93	0.18791799
126	0xbe3b65b2	-0.18300512
127	0x3eb01def	0.34397838
128	0xbe96d665	-0.29460445
129	0x3e930a1f	0.2871866
130	0xbe467f77	-0.19384561
131	0xbe850767	-0.2598221
132	0xbe1791b9	-0.14801683
133	0x3e4c17bf	0.19930933
134	0x3e8564cc	0.26053464
135	0xbda2217c	-0.07916543
136	0x3e7409f8	0.23831928
137	0x3e80d8b2	0.25165325
138	0x3e5f58c9	0.21811213
139	0x3d9870be	0.07443379
140	0xbe547d31	-0.20750882
141	0xbe9779e5	-0.29585186
142	0x3e9a44c4	0.3013059
143	0xbe112f7a	-0.14178267
144	0x3e954927	0.29157373
145	0x3e38c8b3	0.1804531
146	0xbd0363a2	-0.03207744
147	0x3e9a9dec	0.3019861
148	0xbeb77d32	-0.35837704
149	0xbeb7103c	-0.35754573
150	0xbe8a962b	-0.27067694
151	0xbe8d8f54	-0.27648413
152	0x3e6bb7df	0.2301936
153	0x3e88bd52	0.2670694
154	0x3ea9f611	0.33195546
155	0x3ea6d983	0.32587823
156	0x3e135552	0.14388016
157	0xbe9d088d	-0.30670586
158	0x3d07a681	0.033117775
159	0xbea255a9	-0.3170598
160	0xbe59ab00	-0.21256638
161	0xbe4220e3	-0.18957858
162	0xbe8a3c8a	-0.26999313
163	0xbe42d940	-0.19028187
164	0xbe9c1d81	-0.3049126
165	0x3e48a4a2	0.19594052
166	0xbe738e95	-0.2378486
167	0xbe924318	-0.28566813
168	0xbe2acd73	-0.16679935
169	0xbe9a7ad8	-0.30171847
170	0x3e0c1095	0.136782
171	0x3e79f47d	0.24409671
172	0xbe3beae8	-0.18351328
173	0xbea386f8	-0.3193891
174	0xbe3e3cf3	-0.18577938
175	0x3ea2bdf3	0.31785545
176	0xbe29c463	-0.16578822
177	0x3e9e479b	0.30914006
178	0x3e9db279	0.30800226
179	0x3e4e2a28	0.20133269
180	0xbe8a6a3e	-0.2703418
181	0xbe310521	-0.17287113
182	0x3eba8faf	0.36437747
183	0x3e9dff21	0.3085871
184	0x3ee16522	0.4402247
185	0x3e111e29	0.14171661
186	0xbe2a4ca3	-0.16630797
187	0x3e538d57	0.20659386
188	0x3e8b2d9c	0.27183235
189	0xbe504fd6	-0.20342955
190	0x3e87304e	0.2640404
191	0xbe97adc7	-0.2962477
192	0x3e8083e6	0.2510063
193	0xbe87adbc	-0.26499736
194	0xbe99eec5	-0.3006498
195	0x3ea0a465	0.31375423
196	0xbe06f5a1	-0.13179637
197	0xbe75ffd7	-0.24023376
198	0x3df6b95b	0.120470725
199	0xbe9ee611	-0.31034902
200	0x3e9514d3	0.2911745
201	0x3e4d4a98	0.20047987
202	0xbebf2928	-0.37336087
203	0xbe6b3dc3	-0.22972779
204	0xbe87871b	-0.26470265
205	0xbea3daae	-0.32002777
206	0xbeba7d7e	-0.36423868
207	0xbe810c29	-0.2520459
208	0xbe281c51	-0.16417052
209	0xbe81d6b5	-0.2535912
210	0x3e0fe93c	0.14053816
211	0x3e5524f4	0.20814878
212	0x3e768483	0.24073987
213	0xbeaf9eb2	-0.34300762
214	0xbe397583	-0.18111233
215	0xbe81403d	-0.25244322
216	0x3e8bf8bb	0.27338204
217	0x3e7a0e9d	0.24419637
218	0x3e828915	0.2549521
219	0x3e3ebf84	0.18627745
220	0x3e584d62	0.21123269
221	0xbe69194e	-0.22763559
222	0x3e9444ca	0.28958732
223	0x3e9c5ea1	0.30540946
224	0xbc2ee7f5	-0.01067542
225	0xbe00806f	-0.12548994
226	0xbe86c04a	-0.2631858
227	0xbdef5c74	-0.11687556
228	0x3eb8cd2b	0.3609403
229	0x3e889926	0.26679343
230	0x3e6328ab	0.22183482
231	0x3e8e1c2e	0.27755874
232	0x3e5ad448	0.21370041
233	0x3ea28ba0	0.3174715
234	0xbe6e2be6	-0.23258933
235	0xbe0192c1	-0.12653638
236	0xbe7dc05a	-0.24780408
237	0xbe68ee9c	-0.22747272
238	0xbc0ebcf1	-0.008712039
239	0xbe8daba9	-0.2767003
240	0x3e939ce1	0.28830627
241	0xbe7eb5c4	-0.24874026
242	0xbe98568c	-0.2975353
243	0xbec72cfa	-0.38901502
244	0x3e972e97	0.29527733
245	0x3ea893bb	0.3292521
246	0x3e959993	0.2921873
247	0xbe780ad1	-0.24222876
248	0x3ebac7d8	0.36480594
249	0x3e3a1830	0.1817329
250	0x3e2510a6	0.16119632
251	0x3e7e05fc	0.2480697
252	0x3e91c425	0.2846996
253	0x3de77c21	0.113029726
254	0xbe6ec1e0	-0.23316145
255	0x3e5597ca	0.20858684
