weights/ethics.pt (torch, 4893 bytes, 1 tensors)

weight f4 [1, 768]
000000 00 2a 3a bc 67 f8 2b bd 47 31 26 bd 42 5d 13 3d
       -0.011362553 -0.04198494 -0.04057434 0.03597761
000010 58 37 de bc 37 6c 5d bd cc 7f 42 3d 30 ee 5d bc
       -0.027126 -0.05405828 0.047485158 -0.013545558
000020 cf 28 a0 bc 28 c3 fa bc 0d 5f 5e bd 8f 0e 84 3d
       -0.019550709 -0.030610636 -0.054289866 0.06448089
000030 15 af 2c 3d fb 0e 10 bd d5 4f dc bc 86 36 6c 3c
       0.04215916 -0.035170536 -0.026893536 0.014417296
000040 bb d2 a3 bd c2 f7 11 3b ae 01 0e bb b5 5f a1 3b
       -0.07999178 0.002227292 -0.0021668482 0.0049247392
000050 7b 4d 03 bc 2f 64 04 bc a7 56 92 bc b4 20 89 3d
       -0.008014078 -0.008080526 -0.017863585 0.06695691
000060 0d 4e b4 bb 86 97 61 3d 96 34 60 bd 12 65 ba 3c
       -0.0055024684 0.055076145 -0.05473765 0.022753272
000070 a8 fd 74 3d e2 cb 3f 3d ac 64 74 3d ea 52 8c bd
       0.059812218 0.046825297 0.05966632 -0.06851752
000080 73 cc 03 3d 09 d2 72 3d ae 71 0e bc fe ec 9a 3c
       0.0321774 0.059282336 -0.008694096 0.018911835
000090 07 aa 85 bd d4 b7 eb 3b 66 26 4c bc 21 f9 d5 3c
       -0.06526571 0.007193545 -0.012460327 0.02611977
0000a0 ba 35 04 be 1a 0a 8f bd 45 0c 19 bd 60 84 07 bd
       -0.1291112 -0.069843486 -0.037365217 -0.033085227
0000b0 0a 24 b8 bc a9 c9 99 3d 62 03 17 bd 56 78 8b bc
       -0.022478122 0.07509167 -0.03686846 -0.017025154
0000c0 f9 0c 04 3d 50 cb 5e 3a 64 83 6a bc ca 14 dd 3d
       0.032238934 0.0008498924 -0.0143135525 0.10794981
0000d0 dd 32 c9 3d 90 0d 21 3d 15 72 8d bd 0b a3 c1 3b
       0.098241545 0.039319575 -0.06906525 0.005909329
0000e0 93 db 5d bc 28 8a b7 3c ac ce a9 bc 76 6d b9 bc
       -0.01354112 0.022404745 -0.020728432 -0.022635203
0000f0 3e 0c 04 bc 38 31 aa bd a5 88 a8 3d 91 0d 01 be
       -0.008059559 -0.08310169 0.08229188 -0.12602831
000100 17 08 9e bd f3 71 e6 bc 6b d6 c3 3d 3a 99 13 bd
       -0.07716387 -0.028130507 0.09562381 -0.0360348
000110 d9 13 28 3d 05 4b 87 bc 42 7a 7b 3d 2c a3 01 bc
       0.041034553 -0.016515264 0.06139589 -0.007912438
000120 14 5e b3 3c ea 4d f5 bd 42 20 94 3b 5d ed e7 3d
       0.021895446 -0.119777516 0.004520447 0.1132457
000130 30 98 3b 3b 4f 21 35 bc d6 bc f5 bc 2f 94 29 3d
       0.0028624646 -0.011055305 -0.02999727 0.041401085
000140 87 be 95 3d 09 b7 22 bd 57 e3 24 3d 30 7a 72 3c
       0.07311731 -0.039725337 0.04025587 0.01479964
000150 54 50 20 3d a8 af 99 bd fa d3 0d bd 32 83 e8 bb
       0.039139107 -0.07504207 -0.034625985 -0.007095718
000160 a8 da ad bd 6c b3 8e bc c2 19 ee bd f3 c8 b3 3d
       -0.08488971 -0.01741954 -0.11626007 0.087785624
000170 4f 05 e9 ba 97 d4 1e bd 17 b9 12 3d d2 9f fb 3c
       -0.0017778071 -0.03877696 0.035821047 0.030715857
000180 06 d0 59 bc 2f 11 66 bd f4 31 b1 bd 53 67 9f 3d
       -0.013294226 -0.05616873 -0.08652106 0.077833794
000190 06 d3 09 bd 6e e4 6e bb e3 97 69 3d 41 30 b8 bc
       -0.033648513 -0.0036452073 0.057029616 -0.022483947
0001a0 4d 55 9b 3d 67 15 f7 3c 0d 58 4b 3e e0 42 e3 3d
       0.07584629 0.030161573 0.19857807 0.1109674
0001b0 06 e5 a2 3d 30 29 ef bc cb 0f 92 3d 76 f9 a2 bd
       0.07953839 -0.029194444 0.071319185 -0.07957737
0001c0 a0 60 26 3c 17 2b ac 3b 00 46 ce 3b 7f ff 9d 3d
       0.010154873 0.00525416 0.0062949657 0.07714748
0001d0 4a c8 4e 3b 0e 95 ca bc bc 3b 84 bd 3a 17 ca bc
       0.0031552487 -0.024729278 -0.06456706 -0.024669278
0001e0 cc d5 8e 3d f3 eb 0a bd 66 5f 97 bd c1 4c 2b bd
       0.06974372 -0.033916425 -0.07391243 -0.041821245
0001f0 1b ef bb bc 29 41 a4 3d b0 99 d3 bc 45 1f a6 bc
       -0.022941163 0.08020241 -0.02583012 -0.020278582
000200 a2 a1 20 3d 3e ce 7a bd 79 45 e0 3b 24 df f5 bc
       0.039216645 -0.061231844 0.0068442193 -0.030013628
000210 4a 41 3f bd ba e4 24 3d a2 4b 9c 3d 08 38 54 bd
       -0.046693124 0.040257193 0.07631613 -0.051811248
000220 5e ed 14 3d 08 33 4e bb f5 76 b1 bc f4 06 1f 3d
       0.036359183 -0.0031463522 -0.021663168 0.03882499
000230 a0 68 4b bd 62 5e ba bd a7 3c 3a bd d1 6a 83 bc
       -0.049660325 -0.09100033 -0.045468 -0.016042145
000240 28 6c cf 3d 4b 5d 63 bd 90 70 0b bd 20 6f 04 bd
       0.10128051 -0.055508893 -0.034042895 -0.03233254
000250 e5 94 1e 3c 0e 8d b8 3c ac 0a 5a 3d 50 d7 80 bd
       0.009679054 0.022528198 0.053232834 -0.062910676
000260 e3 ee 26 bd f2 5f 3d ba 2c 76 fd b9 e7 35 53 bc
       -0.040755164 -0.0007224075 -0.00048343965 -0.012891269
000270 b2 16 93 3d be 09 28 bd 60 bb a7 3b d5 5f 8e 3c
       0.07182063 -0.041024916 0.0051187724 0.01737968
000280 15 fe e4 bb ce e0 5f bc 6a 21 7f bd 30 1f ea bc
       -0.0069882968 -0.013664437 -0.062287726 -0.028579324
000290 ff 77 a5 3c 31 5e 00 bd 6f 82 5d bd 37 89 f4 bc
       0.02019882 -0.031339828 -0.05407947 -0.029850585
0002a0 3f 97 17 3c d9 bc 30 3d 81 90 3c bc 4c a9 59 3d
       0.0092523685 0.04314885 -0.011509062 0.05313997
0002b0 3a 93 43 bc dd 81 09 be ca ba c8 bd 1b e6 a8 bc
       -0.011936957 -0.13428445 -0.09801252 -0.020617535
0002c0 45 a6 83 3d 1f f6 14 bd 8f 79 9c 3d cd cf b4 3c
       0.06428198 -0.036367532 0.07640373 0.022071743
0002d0 10 0f d8 3d 1e 58 94 3c f6 31 3b bd aa 68 14 bb
       0.10549748 0.018108424 -0.045701943 -0.0022645392
0002e0 5b fb 50 3d fc fd d5 3c af 1b 6a bc d2 f1 2c 3d
       0.05102096 0.026122086 -0.014288827 0.042222805
0002f0 b8 03 d9 bc df b9 37 bb c0 5d eb bc 00 76 da 3d
       -0.026491031 -0.0028034372 -0.028731227 0.10667038
000300 94 d0 35 3d f2 65 ea 3b 2a d3 26 3d 42 12 43 bc
       0.04438837 0.007153266 0.040728725 -0.0119062085
000310 1e e0 8d bb cb 86 8f bc 74 b9 05 3d 81 d3 dc bb
       -0.0043296954 -0.017520329 0.032647565 -0.0067390804
000320 e0 ba 3a 3d 87 8c ad 3a aa 93 be 3b fc 35 b6 bc
       0.045588374 0.0013240733 0.005815943 -0.022242539
000330 34 85 5f 3d df c1 83 3d 23 21 7a bd b5 0b 99 3d
       0.05457039 0.06433462 -0.061066758 0.07472936
000340 5b 96 e6 bb bd f8 78 bd de ca c0 3c 30 96 30 3c
       -0.0070369667 -0.06078409 0.023534235 0.010777995
000350 b6 a0 1d bd 56 76 07 bb 6a 33 c8 bb 08 53 58 3c
       -0.038483344 -0.00206699 -0.0061096447 0.01320339
000360 1c 70 91 bd 22 21 13 b9 05 7a 2b 3d 28 1d 87 3d
       -0.07101461 -0.00014031355 0.041864414 0.06597358
000370 96 00 d4 bc 12 2f a9 bd ce 95 16 bd 02 5d 15 3a
       -0.025879186 -0.08260931 -0.03676396 0.0005697758
000380 dc 55 b6 bc 2c 88 cc bc 45 e4 43 bc 56 e0 8b 3c
       -0.022257738 -0.024967276 -0.011956279 0.017074745
000390 54 fe 49 bd 27 d2 14 3d 65 0a 02 3d 73 2c 13 bd
       -0.04931481 0.03633323 0.031748194 -0.035931062
0003a0 28 f1 07 3d e2 2f 07 3c 39 37 c0 ba a2 c7 e5 bc
       0.03318897 0.008251162 -0.0014664895 -0.028049294
0003b0 a1 24 da 3d 72 01 84 bd 03 67 53 3d 51 46 a6 bd
       0.10651518 -0.06445588 0.05161191 -0.081188805
0003c0 60 54 2d 3d 39 e1 db 3c 68 60 9a bd 67 b4 51 3c
       0.042316794 0.026840793 -0.07537919 0.012799359
0003d0 c7 da d4 bc 1c 17 62 3d 00 75 20 bc a1 2c 82 bd
       -0.025983227 0.05519782 -0.00979352 -0.063561685
0003e0 80 b8 6a 3c 9a be 84 bc c2 72 a9 bc 2b d8 39 3d
       0.014326215 -0.016204167 -0.020684604 0.04537217
0003f0 2d 7c d0 bd a7 9e 35 bd 75 a1 3e 3d c8 7b 3e bc
       -0.10179935 -0.044340756 0.046540696 -0.011626191
