weights/just.pt (torch, 795996 bytes, 7 tensors)

0.fc_red.weight f4 [256, 768]
0	0x3ccdf901	0.025143148
1	0x3b8fb33a	0.004385379
2	0xbccd62ea	-0.02507158
3	0x3ba273b1	0.004957639
4	0xbd56a2c8	-0.052401334
5	0x3cdfd08e	0.027321126
6	0x3b55f2b3	0.003264588
7	0xbc9cc826	-0.019138407
8	0xbcfe3902	-0.031033043
9	0xbcc2d059	-0.023780989
10	0x3d68f61a	0.056875326
11	0xbc4c8d11	-0.012484805
12	0x3ce4fccd	0.027952576
13	0x3c2472fc	0.01003718
14	0x3b2a968b	0.0026029672
15	0xbcb0e0e2	-0.021591607
16	0x3cd9e046	0.0265962
17	0x3c9e0972	0.019291613
18	0x3c5a0c72	0.013308631
19	0xbc1a078c	-0.009401213
20	0xbc0cf217	-0.008602641
21	0xbd137249	-0.035997663
22	0x3c02cdc4	0.007983629
23	0xbbe21c55	-0.00690035
24	0x3b255cb7	0.0025232264
25	0x3c20cc43	0.009814325
26	0x3bcffc92	0.0063472474
27	0xbc2c5694	-0.010518689
28	0x3bc997c1	0.0061521237
29	0xbc5a0509	-0.013306865
30	0x3b8c1bac	0.0042757597
31	0x38e2a7c5	0.00010807769
32	0xbbb64f6c	-0.005563667
33	0x3c32aa7c	0.010904904
34	0x39d7c385	0.0004115367
35	0x3c9fa27e	0.019486662
36	0xbc267f5d	-0.010162202
37	0x3c33e1b1	0.010979102
38	0xbc8171ba	-0.0158013
39	0x3c033901	0.008009196
40	0xbc20836e	-0.00979696
41	0x3cfa281c	0.030536704
42	0x3ca89ec1	0.020583512
43	0xbc57ff38	-0.0131834075
44	0x3ca8dd60	0.020613372
45	0xbc965cff	-0.01835489
46	0xbc9ffe3e	-0.019530412
47	0x3c38f3ef	0.011288627
48	0x3cb67cf7	0.022276385
49	0xbc891c79	-0.01673721
50	0x3c249614	0.010045547
51	0xbcbfecb6	-0.023428302
52	0xbc5693ce	-0.013096763
53	0x3cdea276	0.027177077
54	0xbc6e8b2b	-0.014559547
55	0x3cf1ca99	0.029515551
56	0xbc0a3cd2	-0.008437352
57	0x3b61f31e	0.0034477185
58	0x3c9558f6	0.018230896
59	0x3ad5c39e	0.0016308909
60	0x3d204862	0.03913153
61	0xbbf2f089	-0.007413928
62	0xbc6ee17b	-0.014580126
63	0xbb952cf5	-0.0045524784
64	0x3a99f945	0.0011747262
65	0x3c0212bb	0.007939036
66	0x3bade9a2	0.005307392
67	0xbb257a0a	-0.0025249743
68	0x3bd76077	0.006572779
69	0x3ca5796f	0.020199506
70	0xbcbded59	-0.023184465
71	0xbcaaa52a	-0.02083071
72	0x3ce5613f	0.028000472
73	0x3d327d25	0.04357638
74	0x3c847747	0.016170157
75	0x3cb72fc6	0.022361647
76	0x3cc5ae22	0.024130885
77	0xbbf70001	-0.0075378423
78	0xbd231471	-0.039814416
79	0x3d249b4d	0.04018717
80	0xbc5bb4a5	-0.013409768
81	0x3cbbe5c6	0.022936713
82	0x3c333aa0	0.01093927
83	0xbb9f5145	-0.004861983
84	0xbcbbfbd5	-0.022947231
85	0x3aaaa367	0.0013018668
86	0x3c64d366	0.013966417
87	0x3c52d195	0.012867351
88	0xbd2ba2b5	-0.041903216
89	0xbc700678	-0.01464998
90	0x3cf3e943	0.029774314
91	0x3bacb08a	0.0052700685
92	0x3cf7ab3c	0.030233018
93	0x3c8fcb79	0.017553078
94	0xbbc90f35	-0.006135846
95	0x3b6e5670	0.0036367439
96	0x3cb8c02d	0.022552574
97	0xbd136c54	-0.03599198
98	0x3ae01b42	0.0017097967
99	0x3d79adfd	0.060956944
100	0xbc9de457	-0.01927392
101	0x3c95b154	0.018273033
102	0x3cdc9091	0.026924403
103	0xbca57c41	-0.02020085
104	0xbc601cd7	-0.013678751
105	0xbd2ffa53	-0.042963337
106	0xbd09aa46	-0.03360965
107	0x3d3b5f48	0.045745164
108	0xbcecdea4	-0.028914757
109	0xbc2c89ef	-0.010530933
110	0x3cf9c6b4	0.030490257
111	0xbb8ca587	-0.0042921933
112	0x3b324873	0.0027203828
113	0xbb9f3428	-0.0048585124
114	0xbcba7383	-0.022760158
115	0x3c1c3014	0.009532947
116	0x3c2ce54b	0.010552715
117	0x3d1a6d63	0.037701976
118	0xbb0804ad	-0.002075474
119	0x3cc82fb7	0.024436815
120	0x3c10be44	0.008834425
121	0xbc573de8	-0.013137318
122	0x3ceb92c3	0.028756505
123	0x3a9bcd41	0.0011886732
124	0x3c9359c1	0.017987134
125	0x3c739b6c	0.014868598
126	0xbbb5402e	-0.0055313325
127	0x3beb9650	0.0071895495
128	0xbaa900d8	-0.0012893928
129	0x3d57c75c	0.05268036
130	0xbaf5f780	-0.0018765777
131	0xbca4dcad	-0.020124758
132	0x3d0330eb	0.032029074
133	0xbbc0edd6	-0.0058877273
134	0x3d55a87c	0.052162632
135	0xbc309daa	-0.010779778
136	0x3cc84526	0.024447035
137	0xbce4adea	-0.02791496
138	0xbd4453c1	-0.047931436
139	0xbd31b597	-0.04338607
140	0xbc739d0d	-0.014868987
141	0xbca65758	-0.02030532
142	0x3c35b90e	0.011091484
143	0x3caa112f	0.020760147
144	0x3be321b7	0.0069315094
145	0xbd10fcac	-0.035397217
146	0x3b08fc7c	0.0020902446
147	0x3d02d299	0.031939123
148	0x3c87d19c	0.016579442
149	0xbb279e67	-0.0025576593
150	0xba3ad116	-0.0007126493
151	0x3cf743cc	0.030183695
152	0x3b4630b4	0.0030241432
153	0xba06e4cd	-0.00051457883
154	0x3ba79725	0.0051144534
155	0xbc51c902	-0.012804272
156	0x3b1707b3	0.002304536
157	0x3c5f9ccb	0.013648222
158	0x3caea245	0.02131761
159	0x3c619c41	0.013770164
160	0x3c96498c	0.018345617
161	0xbd2ce727	-0.04221263
162	0x3c8f4b09	0.017491834
163	0xbc70d7a4	-0.01469985
164	0x3ca57e0c	0.020201705
165	0x3c0e48ec	0.008684378
166	0xbc619ae5	-0.01376984
167	0xbc57ca93	-0.013170856
168	0xbd0913dc	-0.033466205
169	0xbd3f6c81	-0.046734337
170	0x3cffd995	0.03123168
171	0xbccdcf42	-0.025123242
172	0x3b4d8ea4	0.0031365538
173	0xbc3bf251	-0.011471347
174	0xbbb492f4	-0.0055106822
175	0xb92459c7	-0.00015673703
176	0x3c542750	0.012948826
177	0x3c3edd0b	0.01164938
178	0xbc93a324	-0.018022127
179	0x3b76e4b0	0.003767293
180	0x3bf5a47c	0.0074964147
181	0xbd0753e6	-0.033038996
182	0x3d09f659	0.0336822
183	0xbd015e5d	-0.031584132
184	0xbc617a75	-0.013762106
185	0x3b71e916	0.0036912612
186	0xbd0ed9e1	-0.034875754
187	0xbb9b55bc	-0.004740445
188	0x3d178553	0.036992382
189	0x3cbb95e4	0.022898622
190	0xbcf8bdd4	-0.030363955
191	0xbc1688a4	-0.009187851
192	0x3c4b3664	0.012403104
193	0x3cf9b6c0	0.03048265
194	0xbcfac498	-0.030611321
195	0xbce38f15	-0.027778188
196	0xbc8d51d7	-0.017250938
197	0xbccd80b9	-0.025085794
198	0xbc6a49d7	-0.014299831
199	0x3cdc34e1	0.026880683
200	0xbc9d308a	-0.019188184
201	0x3a8c48a3	0.00107028
202	0x3d1c07dc	0.038093433
203	0xbcebb145	-0.028771052
204	0x3b2dae16	0.0026501468
205	0xbc3b1a2f	-0.011419817
206	0x3c3a2265	0.011360739
207	0x3cec9650	0.028880268
208	0xbca9b5af	-0.020716516
209	0x3ced571f	0.028972207
210	0xbb52aadd	-0.00321453
211	0x3cef92a3	0.029244727
212	0xbc499d08	-0.012305506
213	0xbc3f3c3b	-0.011672075
214	0xbb7ff450	-0.0039055534
215	0xbc75fbd2	-0.015013652
216	0xbd121a1f	-0.035669442
217	0xbc962b52	-0.018331204
218	0xbcbba47a	-0.022905577
219	0x3c0358eb	0.008016805
220	0x39b181a4	0.0003385666
221	0xbcb9048c	-0.022585176
222	0x3cca58aa	0.024700481
223	0xbcf30f4f	-0.029670386
224	0x3b82c8f0	0.003991239
225	0x3c744f58	0.014911495
226	0x3d26bd24	0.040707722
227	0xbbb145fa	-0.005409953
228	0xbced64e2	-0.028978769
229	0x3c1951bb	0.009357865
230	0xbc852fc9	-0.016258137
231	0xbc0ff607	-0.008786685
232	0x3bc6322f	0.006048463
233	0xbcf32d22	-0.029684607
234	0x3a623196	0.00086286047
235	0x3cecdcdd	0.02891391
236	0x3bfbd8ba	0.007685748
237	0xbcb7f82b	-0.022457203
238	0xbc1eb7c5	-0.009687369
239	0x399d6b62	0.0003002538
240	0xbc71eaab	-0.014765422
241	0x3ad309d3	0.001610095
242	0x3c709c02	0.014685633
243	0x3c1958bc	0.009359535
244	0x3d412f70	0.04716438
245	0xbc49d692	-0.012319224
246	0xbcad2d34	-0.021139719
247	0xbcb14735	-0.0216404
248	0x3d1fa6df	0.0389775
249	0x3c19cd69	0.0093873525
250	0xbd161ccc	-0.036648557
251	0xbcb44086	-0.022003423
252	0xbd528255	-0.051393826
253	0xbce31137	-0.02771817
254	0x3c8b7cde	0.017027315
255	0xba36700e	-0.00069594465

0.fc_red.bias f4 [256]
0	0xbbc3015a	-0.005951089
1	0x3bbc8fe3	0.0057544573
2	0x3cf2066d	0.02954408
3	0x3af87e21	0.0018958488
4	0xbb490a16	-0.0030676178
5	0xbc7db500	-0.015485048
6	0xbd122879	-0.03568313
7	0xbc49cd24	-0.012316976
8	0xbc4cb60f	-0.012494578
9	0x3cd07c43	0.025449878
10	0x3aa0c368	0.0012265267
11	0x3c6ad332	0.014332579
12	0xbcbfdd86	-0.02342106
13	0x3cc80a31	0.024418922
14	0xba659ba6	-0.000875885
15	0x3d13797a	0.03600452
16	0xbd0e9bf8	-0.034816712
17	0x3a9d1830	0.0011985358
18	0x3c1dfdb7	0.00964301
19	0x3bb93be4	0.0056528915
20	0xbcd3c076	-0.025848608
21	0xbcb2d019	-0.021827744
22	0x3ce149df	0.027501045
23	0xbc75e79a	-0.015008831
24	0xbc05c38c	-0.008164298
25	0x3d007f4a	0.031371392
26	0x3bfc30f4	0.0076962654
27	0xbccce499	-0.025011348
28	0xbcd0cd14	-0.025488414
29	0x3ca4f266	0.020135116
30	0x3ceaabaf	0.028646318
31	0xbc6314fc	-0.0138599835
32	0xbbc777fd	-0.0060873018
33	0x3ce6ef8e	0.0281904
34	0xbc82aed7	-0.01595251
35	0xbcc84703	-0.024447924
36	0xbc916735	-0.017749408
37	0xbbaa92fc	-0.00520551
38	0xbcc08e20	-0.02350527
39	0x3c963c06	0.018339168
40	0xbc4a6885	-0.012354021
41	0x3bbba2ad	0.0057261796
42	0x3d06c5dc	0.032903537
43	0x3aa3bd67	0.0012492359
44	0x3c492a90	0.012278214
45	0xbbd9342c	-0.006628534
46	0xbc9dcc3b	-0.019262424
47	0xbc9effb5	-0.01940904
48	0xbcf5bad2	-0.02999631
49	0xbc637f98	-0.013885401
50	0x3c908a7a	0.017644156
51	0x3ce8ca35	0.028416732
52	0x3c2569db	0.010096039
53	0x3c814cd6	0.015783709
54	0x3b7ecdf7	0.0038880089
55	0x3cc41768	0.023936942
56	0xbc8b8b69	-0.01703425
57	0x3cd304a2	0.025759045
58	0x3c79f064	0.0152550675
59	0xbc167cd5	-0.009185036
60	0xbbbb2685	-0.005711379
61	0xbc4757dd	-0.012166944
62	0x3d0473c0	0.03233695
63	0x3cd14ebe	0.025550243
64	0xbcfe9f2a	-0.031081755
65	0xbd0fe790	-0.035132945
66	0x3c397211	0.011318699
67	0xbcb5b257	-0.022179766
68	0xbb082e65	-0.0020779606
69	0x3c7aeb1f	0.015314846
70	0xbb7a3bd1	-0.0038182626
71	0xbc6a18d9	-0.014288151
72	0x3c9f87cf	0.019473938
73	0xbcf38190	-0.029724866
74	0xbcdb81c5	-0.026795277
75	0xbaa642bd	-0.0012684684
76	0xbb787c12	-0.0037915749
77	0xbbd7f851	-0.006590881
78	0x3c2d2c13	0.01056959
79	0xbd13a747	-0.0360482
80	0xbbc2d560	-0.0059458464
81	0xbb3b4f4e	-0.0028581205
82	0x3cd23dfe	0.025664326
83	0x3c9025bf	0.017596124
84	0x3ce3a098	0.027786538
85	0x3c58a166	0.013222074
86	0x3c72f85c	0.014829721
87	0xbcfd88b2	-0.03094897
88	0x3cda3bc9	0.026639836
89	0x3ca4e24b	0.020127436
90	0x3d05bb40	0.03264928
91	0xbc4e50e1	-0.012592525
92	0x3cd74d50	0.026281983
93	0x3cbb1a2b	0.022839626
94	0xbd05c8a1	-0.032662038
95	0xbc0d06fa	-0.00860762
96	0x3cd4beaf	0.025969831
97	0xbce38138	-0.027771577
98	0x3cc88eb6	0.024482112
99	0xbba263ff	-0.004955768
100	0x3a8ad4d9	0.0010591998
101	0xbc6a527a	-0.0143018905
102	0xbcfeeb3a	-0.031118024
103	0xbcbcc106	-0.02304126
104	0xbd0ccd8b	-0.03437571
105	0xbb94ab1a	-0.0045369985
106	0x3c091228	0.008366145
107	0x3c8bef42	0.01708186
108	0x3d090eac	0.033461258
109	0xbc9bf465	-0.019037435
110	0x3b87b6c2	0.0041416595
111	0x3c06ba47	0.008223123
112	0xbc525025	-0.012836491
113	0xbd1010de	-0.035172336
114	0xbc82b494	-0.015955247
115	0xbcfadcaa	-0.030622799
116	0x3ca5ae5c	0.020224743
117	0xbc05c8e8	-0.008165576
118	0x3d0f5f35	0.035002906
119	0x3c81a6fb	0.015826693
120	0xbc7523aa	-0.014962116
121	0x3cc646d0	0.024203688
122	0xbd128460	-0.035770774
123	0xbb4c14b6	-0.0031140274
124	0x3c4a2ca7	0.0123397475
125	0x3d0d757e	0.034535877
126	0x3baf3ddb	0.00534795
127	0x3ceedb42	0.029157285
128	0x3c5639c6	0.013075298
129	0x3c5bbcf3	0.013411748
130	0xbc85fb45	-0.016355166
131	0xbd0c1f88	-0.034209758
132	0xbc50ea44	-0.012751166
133	0xbc00c6a1	-0.007859857
134	0xbd05a864	-0.032631293
135	0xbcabadf5	-0.020956973
136	0x3cc5982f	0.024120418
137	0x3c7690ec	0.0150492005
138	0xbd112ba9	-0.03544203
139	0xbd0ef91c	-0.034905538
140	0xbbb1fa26	-0.0054314313
141	0xbd129931	-0.035790626
142	0xbc968218	-0.01837258
143	0x3cebdb17	0.028790994
144	0x3cb6d282	0.022317175
145	0x3c7cce3e	0.015430031
146	0xbc10d804	-0.008840565
147	0x3b53744b	0.003226536
148	0xbbd22a67	-0.006413746
149	0xbd0cf079	-0.03440902
150	0x3cd2c50e	0.025728729
151	0xbc258e87	-0.010104782
152	0x3cd9bbca	0.026578803
153	0x3853b94b	5.0478888e-05
154	0x3ce6b097	0.028160376
155	0x3c18a3bc	0.009316381
156	0x3cd0afe3	0.025474494
157	0xbbc3858d	-0.005966848
158	0xbcefc6c0	-0.029269576
159	0x3cf14a53	0.029454386
160	0x3c90439c	0.017610364
161	0x3cd2212b	0.025650581
162	0xbcfa3e5a	-0.03054731
163	0xbca797f6	-0.020458203
164	0xbb803314	-0.003912339
165	0x3b94d5fe	0.0045421114
166	0xbc7d3d32	-0.015456485
167	0xbcda8bb2	-0.02667794
168	0xbbdd3bdb	-0.00675152
169	0x3c7f2a3b	0.015574033
170	0x3ccb1b71	0.024793359
171	0xbc991029	-0.018684464
172	0x3c88ed7d	0.016714806
173	0xbc300d48	-0.010745354
174	0x3cdef6e5	0.027217338
175	0xbd057226	-0.032579564
176	0xbb92e91a	-0.0044833543
177	0x3c8cef98	0.017204091
178	0x3cfa62a8	0.030564621
179	0x3c9f912f	0.019478409
180	0x3d016998	0.031594843
181	0xbcb9c9d8	-0.022679254
182	0x3d0af73f	0.0339272
183	0xbb18cb0d	-0.0023314387
184	0x3cbebc19	0.023283051
185	0xbc8fe35f	-0.017564474
186	0x3bce368e	0.0062931245
187	0xbc7b74a0	-0.01534763
188	0xbc0baa6b	-0.0085245175
189	0xbc5a493e	-0.013323126
190	0xbcff868b	-0.031192085
191	0xbc099fef	-0.008399948
192	0x3c76946e	0.015050037
193	0x3cc1a3af	0.02363762
194	0x3cbf2786	0.023334276
195	0xbbd9ad3b	-0.006642965
196	0xbc9585b1	-0.018252226
197	0x3abbd24c	0.0014329641
198	0xbcde887f	-0.027164696
199	0xbc25d37b	-0.010121222
200	0x3cc0ee2b	0.023551067
201	0x3c3d4a17	0.011553309
202	0xbcbe2a64	-0.023213573
203	0x3ca438ca	0.02004661
204	0x3d0041a2	0.031312592
205	0x3b356701	0.0027679803
206	0xbd06cdd5	-0.03291114
207	0xbbb8b35d	-0.005636616
208	0x3cf2b950	0.02962938
209	0x3ccc3136	0.02492581
210	0xbcd28dda	-0.025702406
211	0x3ca3ecbb	0.020010343
212	0x3d04896c	0.03235762
213	0x3cf1f528	0.029535845
214	0xbc0cd18d	-0.008594883
215	0x3bb76646	0.0055969087
216	0xbc8fe30e	-0.017564323
217	0x3cff9c4e	0.031202462
218	0xbc971be0	-0.018445909
219	0x3c451a93	0.012030262
220	0xbb9ae699	-0.0047271964
221	0xbc845cea	-0.016157586
222	0x3c310c9b	0.010806228
223	0x3cc9b1d0	0.02462092
224	0xbc108fb8	-0.008823328
225	0x3cb6804d	0.022277975
226	0x3ceb67b8	0.02873598
227	0x3cec1d4b	0.028822562
228	0xbbaf0bf9	-0.0053420034
229	0x3c88fa15	0.01672081
230	0x3d131189	0.035905395
231	0xbc870f58	-0.016486809
232	0xbcd0b394	-0.025476255
233	0xbc3ca6aa	-0.011514345
234	0xbabfa20a	-0.0014620435
235	0xbcace600	-0.021105766
236	0xbd13a62f	-0.036047157
237	0xbc210117	-0.00982692
238	0xbc972002	-0.01844788
239	0xbc3c4485	-0.011490946
240	0x3cb4a932	0.022053335
241	0xbb66cb14	-0.003521626
242	0x3c773b27	0.015089787
243	0x3cac5b4d	0.02103963
244	0x3cd7a5bc	0.026324145
245	0x3c871252	0.016488228
246	0xbc941ec2	-0.018081073
247	0xbc504ac1	-0.012713135
248	0x3cf7bcb1	0.030241342
249	0xbc9db1cb	-0.019249817
250	0x3d0e4f9d	0.034743894
251	0xbca5d290	-0.020242006
252	0xb8b3b934	-8.569882e-05
253	0x3c320dce	0.010867549
254	0xbb894c4a	-0.0041900026
255	0xbce6c91e	-0.028172072

0.bn_red.weight f4 [256]
0	0x3f83b3f3	1.0289291
1	0x3f827552	1.0192053
2	0x3f802320	1.0010719
3	0x3f8595d6	1.0436351
4	0x3f800ec6	1.0004508
5	0x3f7fef7c	0.999748
6	0x3f81b67c	1.0133815
7	0x3f814017	1.0097684
8	0x3f880e81	1.0629426
9	0x3f8767d6	1.0578563
10	0x3f85af96	1.044421
11	0x3f86a0ea	1.0517857
12	0x3f84506b	1.0337042
13	0x3f84a0b4	1.0361543
14	0x3f81de67	1.0145997
15	0x3f87defb	1.0614923
16	0x3f884a16	1.0647609
17	0x3f8129ee	1.0090921
18	0x3f816208	1.0108042
19	0x3f855dba	1.0419228
20	0x3f85fd43	1.0467914
21	0x3f83c3c5	1.0294119
22	0x3f87c5e0	1.0607262
23	0x3f81b123	1.0132183
24	0x3f800bf0	1.0003643
25	0x3f80c729	1.0060779
26	0x3f8696e8	1.0514803
27	0x3f83ff81	1.0312349
28	0x3f86d303	1.0533146
29	0x3f8351be	1.0259321
30	0x3f827a75	1.0193621
31	0x3f803f57	1.001933
32	0x3f81b42a	1.0133107
33	0x3f847907	1.0349435
34	0x3f82746f	1.0191783
35	0x3f861e9c	1.0478091
36	0x3f83702f	1.0268611
37	0x3f815d89	1.010667
38	0x3f85f846	1.0466392
39	0x3f81d26c	1.0142341
40	0x3f8216de	1.0163229
41	0x3f83c736	1.0295169
42	0x3f8067d4	1.0031686
43	0x3f806f85	1.0034033
44	0x3f80f777	1.007552
45	0x3f838794	1.027575
46	0x3f8180ab	1.0117391
47	0x3f87bdd7	1.060481
48	0x3f877a4d	1.0584198
49	0x3f81437f	1.0098723
50	0x3f8345f0	1.0255718
51	0x3f830321	1.023533
52	0x3f83c608	1.0294809
53	0x3f84db45	1.0379416
54	0x3f808ade	1.0042379
55	0x3f80bf88	1.0058451
56	0x3f85fbbe	1.0467451
57	0x3f820893	1.0158867
58	0x3f80a9b0	1.0051785
59	0x3f83b4b9	1.0289527
60	0x3f830a46	1.023751
61	0x3f826f55	1.0190226
62	0x3f825810	1.0183125
63	0x3f825df8	1.0184927
64	0x3f851251	1.0396215
65	0x3f81a210	1.0127583
66	0x3f842613	1.0324119
67	0x3f857dae	1.0428979
68	0x3f86d2f7	1.0533131
69	0x3f84d0f5	1.0376269
70	0x3f80deff	1.0068053
71	0x3f809a18	1.0047026
72	0x3f83f171	1.0308057
73	0x3f834dc8	1.0258112
74	0x3f804cad	1.00234
75	0x3f863ec0	1.04879
76	0x3f80f276	1.0073993
77	0x3f828fb1	1.0200101
78	0x3f809abf	1.0047225
79	0x3f89413b	1.0723032
80	0x3f8259ec	1.0183692
81	0x3f8a8592	1.0822012
82	0x3f87a1fd	1.059631
83	0x3f81477c	1.009994
84	0x3f8107ab	1.0080465
85	0x3f822794	1.0168328
86	0x3f814b06	1.010102
87	0x3f842fa1	1.0327035
88	0x3f8479e8	1.0349703
89	0x3f814d9f	1.0101813
90	0x3f86e397	1.0538205
91	0x3f86c99d	1.0530277
92	0x3f7f92a4	0.9983313
93	0x3f80e2f5	1.0069262
94	0x3f84da57	1.0379132
95	0x3f851f1f	1.0400122
96	0x3f853d6b	1.0409368
97	0x3f82f343	1.0230488
98	0x3f837ea0	1.0273018
99	0x3f80edc8	1.0072565
100	0x3f8056df	1.0026511
101	0x3f80e3b6	1.0069492
102	0x3f8394ff	1.0279845
103	0x3f821e0f	1.0165423
104	0x3f81612b	1.0107778
105	0x3f8328c3	1.0246814
106	0x3f805ca8	1.0028276
107	0x3f812738	1.0090094
108	0x3f81d23c	1.0142283
109	0x3f841c05	1.0321051
110	0x3f860840	1.0471268
111	0x3f84a15e	1.0361745
112	0x3f858052	1.0429785
113	0x3f818583	1.011887
114	0x3f85a596	1.0441158
115	0x3f81a246	1.0127647
116	0x3f84a7c9	1.0363704
117	0x3f8676d5	1.0505015
118	0x3f84c8d5	1.0373789
119	0x3f80712e	1.003454
120	0x3f7ff123	0.9997732
121	0x3f82cd46	1.0218894
122	0x3f83a475	1.0284563
123	0x3f830bb6	1.0237949
124	0x3f80208a	1.000993
125	0x3f7fe4fd	0.99958783
126	0x3f85747a	1.0426171
127	0x3f8052e6	1.0025299
128	0x3f852e53	1.0404762
129	0x3f851dc4	1.0399709
130	0x3f812647	1.0089806
131	0x3f833a9f	1.0252265
132	0x3f7ffce3	0.9999525
133	0x3f8080b4	1.0039277
134	0x3f82ae9b	1.0209535
135	0x3f81452d	1.0099236
136	0x3f808360	1.0040092
137	0x3f868caf	1.0511683
138	0x3f800cec	1.0003943
139	0x3f83c663	1.0294918
140	0x3f81b905	1.0134588
141	0x3f81e9bf	1.0149459
142	0x3f824c6b	1.0179571
143	0x3f8445d6	1.0333812
144	0x3f8656ef	1.049528
145	0x3f829af9	1.0203544
146	0x3f83f1fe	1.0308225
147	0x3f84a7aa	1.0363667
148	0x3f80f695	1.0075251
149	0x3f828bd0	1.0198917
150	0x3f81c1a8	1.0137224
151	0x3f85a5b8	1.0441198
152	0x3f860419	1.047
153	0x3f81e616	1.0148342
154	0x3f838305	1.0274359
155	0x3f8323ac	1.0245261
156	0x3f81bab5	1.0135103
157	0x3f833cf7	1.025298
158	0x3f8185c3	1.0118946
159	0x3f83a27e	1.0283964
160	0x3f7fd827	0.999392
161	0x3f831d24	1.0243268
162	0x3f806214	1.0029931
163	0x3f81c24c	1.013742
164	0x3f801362	1.0005915
165	0x3f820d07	1.0160226
166	0x3f85cac7	1.0452508
167	0x3f8294d4	1.0201669
168	0x3f817c33	1.0116028
169	0x3f899910	1.0749836
170	0x3f83760b	1.0270399
171	0x3f871d81	1.0555879
172	0x3f7fe2a3	0.99955195
173	0x3f861c85	1.0477453
174	0x3f8271c6	1.0190971
175	0x3f824c3f	1.0179518
176	0x3f80d4d1	1.0064946
177	0x3f84a934	1.0364137
178	0x3f84d2cf	1.0376834
179	0x3f80621c	1.0029941
180	0x3f82b16a	1.0210392
181	0x3f7feefe	0.9997405
182	0x3f81f5dc	1.0153155
183	0x3f8098ed	1.0046669
184	0x3f8199e7	1.0125092
185	0x3f839b21	1.0281717
186	0x3f890620	1.0704994
187	0x3f822388	1.0167093
188	0x3f7ffbce	0.999936
189	0x3f8618f1	1.0476362
190	0x3f829a1d	1.0203282
191	0x3f817e63	1.0116695
192	0x3f85514f	1.0415438
193	0x3f835432	1.0260069
194	0x3f82fdda	1.0233719
195	0x3f815856	1.0105083
196	0x3f8005ab	1.000173
197	0x3f839caa	1.0282185
198	0x3f80a297	1.0049618
199	0x3f7fee7f	0.9997329
200	0x3f824b8e	1.0179307
201	0x3f83616b	1.0264105
202	0x3f7fd786	0.9993824
203	0x3f80183e	1.0007398
204	0x3f8263b3	1.0186676
205	0x3f813c30	1.0096493
206	0x3f82146e	1.0162485
207	0x3f80fd11	1.007723
208	0x3f85749d	1.0426213
209	0x3f83cc40	1.0296707
210	0x3f830c85	1.0238196
211	0x3f809925	1.0046736
212	0x3f8352c7	1.0259637
213	0x3f80cd29	1.006261
214	0x3f82f374	1.0230546
215	0x3f82cbf6	1.0218494
216	0x3f8190c8	1.0122309
217	0x3f871574	1.0553422
218	0x3f82139b	1.0162233
219	0x3f806794	1.003161
220	0x3f8602e0	1.0469627
221	0x3f85b7ae	1.044668
222	0x3f861e4f	1.0478
223	0x3f833fe8	1.0253878
224	0x3f80d502	1.0065005
225	0x3f80a3aa	1.0049946
226	0x3f85d371	1.0455152
227	0x3f84466c	1.0333991
228	0x3f822e7e	1.0170438
229	0x3f801828	1.0007372
230	0x3f89c0a0	1.076191
231	0x3f846e1e	1.0346105
232	0x3f80cd20	1.0062599
233	0x3f83516c	1.0259223
234	0x3f83dce0	1.0301781
235	0x3f8084c8	1.0040522
236	0x3f865e5f	1.049755
237	0x3f837cb5	1.0272433
238	0x3f8424d2	1.0323737
239	0x3f85e294	1.0459771
240	0x3f8a0ebd	1.0785748
241	0x3f820972	1.0159132
242	0x3f8332dc	1.0249896
243	0x3f86aa97	1.052081
244	0x3f837f1f	1.0273169
245	0x3f81a3cc	1.0128112
246	0x3f8125e2	1.0089686
247	0x3f81e8cb	1.0149168
248	0x3f800e6a	1.0004399
249	0x3f851ab1	1.039877
250	0x3f85b39a	1.0445435
251	0x3f805d25	1.0028425
252	0x3f866417	1.0499295
253	0x3f822d3e	1.0170057
254	0x3f8056af	1.0026454
255	0x3f83f7ab	1.0309957

0.bn_red.bias f4 [256]
0	0xbd8a7387	-0.06760316
1	0xbcc67ba7	-0.024228884
2	0xbb4ff2f9	-0.0031730516
3	0xbdad8c7d	-0.08474062
4	0xba006a64	-0.0004898666
5	0x37577da2	1.284425e-05
6	0xbcd03da1	-0.025420012
7	0xbc88b325	-0.016686985
8	0xbdf776c3	-0.12083199
9	0xbde38b4e	-0.11110555
10	0xbdb16f7d	-0.08663843
11	0xbdfbb826	-0.12290983
12	0xbd5c27cf	-0.053748902
13	0xbd863513	-0.06553092
14	0xbccec409	-0.025239961
15	0xbe0e71c0	-0.1391058
16	0xbe0eea02	-0.13956454
17	0xbc8fd5f0	-0.017558068
18	0xbc4700be	-0.012146173
19	0xbd895118	-0.067049205
20	0xbdb0f579	-0.0864057
21	0xbd8bdf71	-0.068297274
22	0xbde03817	-0.10948198
23	0xbcb2c034	-0.021820165
24	0xba8e5425	-0.0010858817
25	0xbc1dad38	-0.009623818
26	0xbdc328ad	-0.09529243
27	0xbd555f11	-0.052092616
28	0xbdb43d1b	-0.088007174
29	0xbd68bd54	-0.056821182
30	0xbd172847	-0.036903646
31	0xbb138ac2	-0.0022513126
32	0xbcc3c698	-0.023898408
33	0xbdc8a71c	-0.097974986
34	0xbd044350	-0.032290757
35	0xbdc82837	-0.097732954
36	0xbd8075ca	-0.062724665
37	0xbb9e1395	-0.0048241117
38	0xbdb2fb7d	-0.08739374
39	0xbc80da98	-0.015729234
40	0xbcd21040	-0.025642514
41	0xbd83a834	-0.064285666
42	0xbb8fccf3	-0.0043884455
43	0xbc06fc37	-0.008238844
44	0xbc28ea50	-0.010309771
45	0xbd5f6570	-0.054540098
46	0xbcc3abcc	-0.02388563
47	0xbe058304	-0.1303826
48	0xbe07c49b	-0.13258593
49	0xbc75e722	-0.01500872
50	0xbd5284df	-0.051396247
51	0xbd0f6ef2	-0.035017915
52	0xbd6e5be8	-0.058193117
53	0xbd92fffa	-0.0717773
54	0xbbcaa41e	-0.006184115
55	0xbc3f1940	-0.011663735
56	0xbdaab9bb	-0.083362065
57	0xbd0270bf	-0.031845804
58	0xbc00adc6	-0.007853931
59	0xbd795e5e	-0.06088101
60	0xbd0fbbc9	-0.035091195
61	0xbd04c8c8	-0.032418042
62	0xbcd84957	-0.026402159
63	0xbd1bee3e	-0.038069002
64	0xbd9da3b3	-0.07697239
65	0xbbd06e4e	-0.0063608056
66	0xbd8aae3b	-0.06771513
67	0xbda50c54	-0.08058992
68	0xbdf9ec10	-0.122032285
69	0xbdb87188	-0.09006029
70	0xbbe0b0d8	-0.006857019
71	0xbbda91e5	-0.006670224
72	0xbd69f9b6	-0.05712291
73	0xbd4ead3f	-0.05045819
74	0xbb95caf2	-0.004571312
75	0xbdc84aa6	-0.09779863
76	0xbc3dde18	-0.011588596
77	0xbcef06eb	-0.029178103
78	0xbc14f2f6	-0.0090911295
79	0xbe0e21ed	-0.13880129
80	0xbd40e0c6	-0.04708936
81	0xbe41240d	-0.18861409
82	0xbdff1d45	-0.124567546
83	0xbc53676a	-0.012903074
84	0xbc432feb	-0.01191328
85	0xbcc79dca	-0.024367232
86	0xbba8e1e4	-0.0051538814
87	0xbd8039e8	-0.06261045
88	0xbd608956	-0.054818474
89	0xbc977e0c	-0.018492721
90	0xbdeb8dac	-0.11501631
91	0xbddbf81c	-0.107406825
92	0xb9ce5954	-0.00039357936
93	0xbc8ee520	-0.01744324
94	0xbd92f8eb	-0.071763836
95	0xbdac9f3e	-0.084288105
96	0xbd9db442	-0.07700397
97	0xbd5a6bf9	-0.053325627
98	0xbd4c5cb2	-0.04989309
99	0xbc9679f6	-0.018368702
100	0xbbe33899	-0.006934237
101	0xbc47cd55	-0.012194951
102	0xbd56774d	-0.052359868
103	0xbcdd0d9f	-0.026984034
104	0xbc5b47bb	-0.013383801
105	0xbd2c522d	-0.042070556
106	0xbba0028c	-0.004883116
107	0xbc5ecda8	-0.013598837
108	0xbcda59c3	-0.02665413
109	0xbd53dfe9	-0.05172721
110	0xbdc6c614	-0.09705749
111	0xbda9ffa2	-0.08300711
112	0xbde43a30	-0.11143911
113	0xbc9461de	-0.018113073
114	0xbdad59f6	-0.08464424
115	0xbc52a8f0	-0.012857661
116	0xbd56666d	-0.052343775
117	0xbdd1e4c3	-0.10248711
118	0xbd871a74	-0.065968424
119	0xbc83b982	-0.016079668
120	0xb9f6b479	-0.0004705524
121	0xbcb1ed30	-0.021719545
122	0xbd8ce193	-0.06878962
123	0xbd20470a	-0.039130248
124	0xbb104952	-0.0022016359
125	0x396d0e5f	0.00022607435
126	0xbd9a11f3	-0.07522955
127	0xba81c275	-0.0009899872
128	0xbd64dc94	-0.055874422
129	0xbd723caf	-0.059139904
130	0xbbeba469	-0.00719123
131	0xbd308e7e	-0.04310464
132	0xb9be100f	-0.0003625159
133	0xbbc488cc	-0.005997753
134	0xbd17fe7f	-0.03710794
135	0xbcd0e7e4	-0.025501199
136	0x39a6058f	0.0003166613
137	0xbdb5cf0d	-0.088773824
138	0xba3c40b8	-0.00071812747
139	0xbd37acee	-0.044842653
140	0xbc88c354	-0.016694702
141	0xbcecbafa	-0.028897751
142	0xbd1a63cb	-0.037692826
143	0xbd6e800a	-0.058227576
144	0xbdb3adca	-0.08773382
145	0xbd178b98	-0.03699836
146	0xbd83c92b	-0.06434854
147	0xbdbd2add	-0.09236691
148	0xbc26c24b	-0.010178159
149	0xbd32341a	-0.04350672
150	0xbca16203	-0.019700056
151	0xbd8e2dab	-0.06942304
152	0xbdaf6db9	-0.0856585
153	0xbcedfe42	-0.029051904
154	0xbd0b5fd1	-0.034026925
155	0xbd033bac	-0.03203933
156	0xbce309cf	-0.027714638
157	0xbd6923cc	-0.056918904
158	0xbca83650	-0.02053371
159	0xbd590dab	-0.05299155
160	0xba5b0d3f	-0.0008356161
161	0xbd288afb	-0.041148167
162	0xbbcabbba	-0.0061869295
163	0xbcdebdaf	-0.027190058
164	0x3870c581	5.74044e-05
165	0xbcd5de39	-0.02610694
166	0xbda224ea	-0.07917197
167	0xbcef8715	-0.029239217
168	0xbcd94ac4	-0.026524909
169	0xbe242553	-0.16029863
170	0xbd375bbe	-0.044765227
171	0xbdfa956c	-0.12235531
172	0xba245c1c	-0.0006269829
173	0xbdc63e3a	-0.096798375
174	0xbcdc3c10	-0.026884109
175	0xbc91a6df	-0.017779766
176	0xbc0d9343	-0.008641067
177	0xbda7dde3	-0.081966184
178	0xbd6dafe0	-0.058029056
179	0xbb818a47	-0.0039532515
180	0xbd005687	-0.03133252
181	0xba01161a	-0.0004924253
182	0xbc848992	-0.01617888
183	0xbb7fcb05	-0.0039030921
184	0xbcd8122f	-0.026375858
185	0xbd7a3364	-0.061084166
186	0xbe016577	-0.12636362
187	0xbd107ab8	-0.035273284
188	0xba632350	-0.0008664625
189	0xbda876bf	-0.08225774
190	0xbd06fe60	-0.032957435
191	0xbcad8092	-0.021179471
192	0xbda3d648	-0.07999855
193	0xbd1f225e	-0.038851134
194	0xbd706bc2	-0.058696516
195	0xbc537d93	-0.012908357
196	0xba23a142	-0.0006241986
197	0xbd691c0d	-0.056911517
198	0xbbb4e4e8	-0.005520452
199	0xba1100f8	-0.00055314554
200	0xbd1815eb	-0.037130278
201	0xbd4733e3	-0.048633467
202	0xba565086	-0.0008175451
203	0xbaf8b5b8	-0.0018975055
204	0xbd0b6b1b	-0.03403769
205	0xbc1e56b0	-0.009664223
206	0xbcfdce1e	-0.030982073
207	0xbc1c930b	-0.009556542
208	0xbda39ed8	-0.079892814
209	0xbd22c0fb	-0.03973482
210	0xbd279d26	-0.040921353
211	0xbb48861f	-0.003059752
212	0xbd4ed02f	-0.050491508
213	0xbc5203a5	-0.012818252
214	0xbd096fbd	-0.033553828
215	0xbcfbd181	-0.030739548
216	0xbc9b99b8	-0.018994197
217	0xbe009e49	-0.12560381
218	0xbc9ab5a5	-0.018885443
219	0xbc027e13	-0.007964629
220	0xbdc291b4	-0.09500447
221	0xbd9e5d88	-0.077326834
222	0xbdc7ece3	-0.097619794
223	0xbd20445c	-0.039127693
224	0xbbcf14cc	-0.006319618
225	0xbbf399c5	-0.0074341022
226	0xbdce11d3	-0.100619934
227	0xbd7c94fe	-0.061665528
228	0xbcde654c	-0.027147911
229	0xbb066d52	-0.0020511937
230	0xbe31628e	-0.17322752
231	0xbd89f63b	-0.06736418
232	0xbc20c8a5	-0.009813462
233	0xbd290780	-0.04126692
234	0xbd538c23	-0.051647317
235	0xbc27ec93	-0.010249275
236	0xbd98dbdc	-0.0746381
237	0xbd44412b	-0.04791371
238	0xbd2a7863	-0.041618716
239	0xbdb7915e	-0.089632735
240	0xbe207fc1	-0.15673734
241	0xbceaa63a	-0.028643716
242	0xbd42081f	-0.047371026
243	0xbdf09317	-0.11746805
244	0xbcfd4879	-0.030918347
245	0xbcc27bfe	-0.023740765
246	0xbc8b9cfc	-0.01704263
247	0xbcb9470c	-0.022616886
248	0xbaec4bf7	-0.001802801
249	0xbda5cc59	-0.08095617
250	0xbd956fb5	-0.07296697
251	0xbc2137bf	-0.009839951
252	0xbdef3942	-0.11680843
253	0xbcf9ba3a	-0.030484308
254	0xbb8042e3	-0.0039142235
255	0xbd5fbbdb	-0.054622512

0.bn_red.running_mean f4 [256]
0	0xbb3cbfec	-0.0028800918
1	0x3b4b73d5	0.0031044383
2	0x3d067370	0.032824934
3	0xba9affd2	-0.0011825508
4	0x3b8e8dae	0.0043503856
5	0xbd155360	-0.036456466
6	0xbd28730c	-0.041125342
7	0xbc9a3994	-0.018826284
8	0x38b614c6	8.6823056e-05
9	0x3cb2975f	0.021800695
10	0x3bb376e0	0.0054768175
11	0x3cb2267e	0.02174687
12	0xbced8bf6	-0.028997403
13	0x3c913057	0.017723246
14	0x3bfc06c8	0.007691238
15	0x3d48b89c	0.049004182
16	0xbc98755d	-0.01861065
17	0x3bee9961	0.007281468
18	0x3baad97b	0.005213914
19	0x3bebd370	0.007196836
20	0xbcdfc033	-0.027313327
21	0xbccaf408	-0.024774566
22	0x3d35b647	0.044363286
23	0xbb4c1869	-0.003114248
24	0x3abbe447	0.0014335
25	0x3cf6af79	0.030112969
26	0x3be0ab51	0.00685636
27	0xbcd60428	-0.026125029
28	0xbc791042	-0.01520163
29	0x3c9bcb7f	0.019017933
30	0x3c91e401	0.017808916
31	0xbb4b1bb2	-0.003099185
32	0xbbc7955a	-0.006090802
33	0x3d1d0530	0.038335025
34	0xbcbcd23d	-0.023049468
35	0xbc92add7	-0.017905159
36	0xbbca0cfa	-0.0061660977
37	0xbbece65b	-0.007229609
38	0xbd1eb74e	-0.03874903
39	0x3c9918ae	0.018688526
40	0xbc7ec017	-0.0155487275
41	0x3c1bff0c	0.009521257
42	0x3cfbc0d3	0.030731594
43	0xbbafdae5	-0.0053666704
44	0xbba77eec	-0.005111566
45	0xbbd66383	-0.0065426244
46	0xbcaf646f	-0.021410195
47	0xbc90046c	-0.017580234
48	0xbccccb39	-0.024999248
49	0xbc8a4f90	-0.016883641
50	0x3b6d7b31	0.0036236758
51	0x3d1b3c34	0.03789921
52	0x3c7dcacb	0.015490244
53	0x3c889733	0.01667366
54	0x3b8cf19a	0.004301262
55	0x3cb43543	0.021998053
56	0xbc59c122	-0.013290675
57	0x3c0bde9f	0.008536964
58	0x3c81cd6c	0.015845023
59	0xbbd5fb09	-0.00653017
60	0xbbf686ed	-0.0075234086
61	0xbbb4b037	-0.0055141705
62	0x3cdba004	0.0268097
63	0x3c971534	0.018442728
64	0xbce8e73b	-0.028430572
65	0xbd39c5c6	-0.045354627
66	0x3c6e2b50	0.014536694
67	0xbc479c75	-0.012183298
68	0x3bc4164b	0.005984103
69	0x3c68e35c	0.014214363
70	0xbb24b788	-0.0025133807
71	0xbc95243b	-0.018205753
72	0x3ca1eb0b	0.019765398
73	0xbca01a90	-0.019543916
74	0xbcdc6c78	-0.02690719
75	0x3a3c1986	0.0007175434
76	0xbbf13764	-0.0073613394
77	0xbc001a9e	-0.007818846
78	0x3cc7c756	0.024387043
79	0xbd23cf6e	-0.039992742
80	0xbbd89048	-0.0066089965
81	0xb99350f7	-0.00028098348
82	0x3d23fd47	0.040036466
83	0x3c884161	0.016632738
84	0x3c6b42b2	0.014359163
85	0x3cdd76ed	0.027034247
86	0x3cc02e7e	0.02345967
87	0xbd530f69	-0.05152837
88	0x3cc6c7d9	0.024265217
89	0x3c808125	0.01568658
90	0x3d0be947	0.034158017
91	0xbc36abda	-0.011149371
92	0x3c384478	0.011246793
93	0x3cde3707	0.027125848
94	0xbca94001	-0.020660402
95	0xbc52cb57	-0.012865863
96	0x3d2bcaa8	0.041941315
97	0xbcf83c1e	-0.030302104
98	0x3d0b98e5	0.03408136
99	0xbc8313b6	-0.01600061
100	0xbb2e42f3	-0.0026590198
101	0xbcabdc8d	-0.02097919
102	0xbc431ff5	-0.011909475
103	0xbd12fee8	-0.03588763
104	0xbcfa5f15	-0.030562917
105	0xbc0e7e7c	-0.008697148
106	0x3cbaac01	0.022787096
107	0x3b8644cc	0.0040975567
108	0x3ce710ab	0.02820619
109	0xbc591d77	-0.013251654
110	0x3c5b0d85	0.0133699225
111	0x3bf10d26	0.0073563037
112	0xbc2c987c	-0.010534402
113	0xbd1ae093	-0.037811827
114	0xbc5a8d68	-0.013339378
115	0xbca36fdf	-0.019950805
116	0x3cb36604	0.02189923
117	0xbb80e2c1	-0.003933281
118	0x3d22ae60	0.03971708
119	0x3c08eaec	0.008356791
120	0xbb4eb1bc	-0.0031539043
121	0xbaf4fd99	-0.0018691301
122	0xbd251c8d	-0.04031043
123	0xbb895853	-0.0041914373
124	0x3be32357	0.006931703
125	0x3d1e0e96	0.03858813
126	0x3be86822	0.0070924917
127	0x3ca5d488	0.020242944
128	0x3c9237f1	0.01784894
129	0x3c40e5eb	0.011773567
130	0xbc373213	-0.011181372
131	0xbd27c613	-0.040960383
132	0xbc051abe	-0.008124052
133	0xbcd28200	-0.025696754
134	0xbcd93cde	-0.026518282
135	0xbc2b26c6	-0.010446256
136	0x3c78a290	0.015175477
137	0x3cd101b9	0.025513517
138	0xbd041998	-0.03225097
139	0xbd3295e2	-0.04359997
140	0xbc6c382a	-0.014417687
141	0xbd083070	-0.03324932
142	0xbc7bf15f	-0.015377372
143	0x3cf91e38	0.030409917
144	0x3ca90a33	0.020634746
145	0x3c888d4f	0.016668944
146	0x3aa94c00	0.0012916327
147	0x3bd4d6e5	0.006495344
148	0xbc0550d1	-0.008136944
149	0xbd201cf1	-0.0390901
150	0x3cdf4497	0.027254386
151	0xbb7a3a9d	-0.003818191
152	0x3cef04ef	0.029177157
153	0x3ba122e3	0.004917489
154	0x3d1beb3b	0.03806613
155	0x3be375c0	0.006941527
156	0x3ce08374	0.027406432
157	0xbc3c2032	-0.011482285
158	0xbd2e6857	-0.042579975
159	0x3d24de9b	0.040251356
160	0x3cab60c2	0.020920161
161	0x3c465af3	0.012106645
162	0xbd240545	-0.040044088
163	0xbd20e817	-0.039283838
164	0xbbb8642b	-0.0056271753
165	0x3b3bd5c1	0.0028661343
166	0xbba22566	-0.004948306
167	0xbc8f753d	-0.017511958
168	0xbc435773	-0.011922705
169	0x3c0ba45a	0.008523071
170	0x3c699fa0	0.014259249
171	0xbbd72c7e	-0.006566583
172	0x3ca705ea	0.020388562
173	0x3b59fe18	0.0033263024
174	0x3d12a4db	0.03580175
175	0xbd01b02a	-0.031662144
176	0x3b79e880	0.0038132966
177	0x3c175306	0.009236103
178	0x3cf48a14	0.029850997
179	0x3d043f2e	0.032286815
180	0x3ca6c95e	0.020359691
181	0x3a515d02	0.00079865765
182	0x3d1fe9b8	0.03904125
183	0x3c3577b2	0.011075901
184	0x3ce45b76	0.027875643
185	0xbc3a3bb6	-0.011366775
186	0x3c969918	0.018383548
187	0xbc148aa1	-0.009066255
188	0xbc95ac65	-0.01827068
189	0xbc753cf4	-0.014968146
190	0xbcc0cbaa	-0.023534615
191	0xbc51c335	-0.012802889
192	0x3c01137d	0.0078781815
193	0x3d1e46b2	0.03864164
194	0x3ca73ad7	0.0204138
195	0x3aa47b97	0.001254904
196	0xbd084320	-0.03326714
197	0x3bdaeb43	0.0066808774
198	0xbd0dedb1	-0.03465051
199	0x38f23733	0.00011549741
200	0x3cea5c18	0.028608367
201	0x3c019e97	0.007911346
202	0xbcd5508b	-0.026039382
203	0x3ca952fd	0.020669455
204	0x3c9bbeb2	0.019011829
205	0x3c62523b	0.013813551
206	0xbd01d1f4	-0.031694368
207	0x3b90e199	0.0044214246
208	0x3cdd80a0	0.027038872
209	0x3ce888fb	0.02838563
210	0xbcab5967	-0.020916654
211	0x3cf8023a	0.0302745
212	0x3cb15534	0.021647073
213	0x3c8e519d	0.0173729
214	0xbc03cee8	-0.008044936
215	0x3c628257	0.013825021
216	0xbc4822fb	-0.012215371
217	0x3d04a06b	0.03237955
218	0xbcced944	-0.025250085
219	0x3b415552	0.0029500318
220	0x3b6cfa8a	0.0036160075
221	0xbc8e728d	-0.017388606
222	0x3b3f56d5	0.0029196043
223	0x3cad240d	0.021135354
224	0xbcc860af	-0.024460165
225	0x3cea365b	0.028590372
226	0x3d0c8542	0.034306772
227	0x3ce933d6	0.0284671
228	0xbc3d433b	-0.0115516735
229	0x3d0401e7	0.032228377
230	0x3d1a41e5	0.0376605
231	0xbb9edbef	-0.0048479955
232	0xbcdca28a	-0.026932973
233	0xbc6f5f1c	-0.014610078
234	0x3c55c987	0.013048536
235	0xbcd01549	-0.025400775
236	0xbd0b7eca	-0.034056462
237	0xbc3632bd	-0.011120495
238	0xbcfe0931	-0.031010242
239	0xbc06a664	-0.008218382
240	0x3cafcb23	0.021459168
241	0xbc6f3a45	-0.014601295
242	0x3bf26d4e	0.007398284
243	0x3ccf72bc	0.025323264
244	0x3c56856e	0.013093336
245	0x3cd16cf0	0.02556464
246	0xbcbac2a7	-0.022797896
247	0xbc0e5e08	-0.008689411
248	0x3c2e66d7	0.010644636
249	0xbc5d386a	-0.01350222
250	0x3d206915	0.039162714
251	0xbc89b486	-0.016809713
252	0x3b96baee	0.0045999205
253	0x3c157ea6	0.009124434
254	0x3c4b26df	0.012399404
255	0xbccaff3c	-0.024779908

0.bn_red.running_var f4 [256]
0	0x395c2017	0.0002099279
1	0x39782478	0.00023664709
2	0x39c5ca7f	0.0003772564
3	0x394b9fac	0.00019419071
4	0x39b7daee	0.00035067595
5	0x39e01fad	0.0004274821
6	0x394ad2ea	0.00019342793
7	0x398308eb	0.00024992911
8	0x39398541	0.00017692616
9	0x3936daae	0.00017438337
10	0x3944d795	0.00018772327
11	0x393b9b2b	0.00017891514
12	0x394dc6ca	0.00019624378
13	0x39816418	0.00024679373
14	0x396b6120	0.00022447528
15	0x3940887e	0.00018361394
16	0x39618865	0.00021508483
17	0x3989758b	0.00026218253
18	0x3994f6f7	0.00028412763
19	0x39557c4f	0.00020359571
20	0x39613289	0.00021476498
21	0x395ab3fb	0.00020857148
22	0x39320281	0.00016976336
23	0x398f1006	0.00027287024
24	0x39cd6a0b	0.00039179655
25	0x39aa67b1	0.00032502183
26	0x394ebd00	0.00019716099
27	0x39543e80	0.00020241179
28	0x393d8d25	0.00018077025
29	0x396482a9	0.00021792449
30	0x3998dbd4	0.00029155484
31	0x399c6f36	0.00029837497
32	0x39be226a	0.00036265264
33	0x39806ab3	0.0002449356
34	0x398e584d	0.0002715014
35	0x396d3fe6	0.00022625885
36	0x397add79	0.00023924363
37	0x3997f1ea	0.00028981204
38	0x39573073	0.00020522047
39	0x397eae0d	0.00024288167
40	0x397fd8d4	0.0002439947
41	0x394ff7e9	0.00019833412
42	0x39932c27	0.0002807092
43	0x399b150f	0.00029579594
44	0x39948667	0.00028328897
45	0x399abe27	0.00029514843
46	0x39a87c83	0.00032136225
47	0x3939666a	0.00017681127
48	0x396169cf	0.00021497089
49	0x3986fa63	0.00025745024
50	0x3958054c	0.00020601338
51	0x39879f87	0.00025868064
52	0x3952ba88	0.00020096649
53	0x392dae28	0.00016563444
54	0x39bd35c4	0.00036088948
55	0x39929526	0.00027958414
56	0x393afd72	0.00017832758
57	0x39a590ca	0.0003157913
58	0x3990a194	0.00027586205
59	0x39598374	0.00020743703
60	0x3957053e	0.0002050595
61	0x39a734e0	0.00031892117
62	0x395f8c81	0.00021319279
63	0x398af2ec	0.00026502402
64	0x3953a1d3	0.00020182812
65	0x39879f77	0.00025868017
66	0x396d7f6a	0.00022649547
67	0x3946ac73	0.00018946994
68	0x39266f17	0.00015872378
69	0x395e5a6f	0.00021205259
70	0x397b25cf	0.0002395131
71	0x39bd0d1c	0.00036058656
72	0x3987aa1f	0.00025875957
73	0x397232fd	0.00023097913
74	0x39c19997	0.00036926262
75	0x39481c8a	0.00019084118
76	0x39920eac	0.0002785822
77	0x397a1234	0.00023848639
78	0x39a460cd	0.0003135264
79	0x393c899f	0.00017980345
80	0x399dbb2b	0.00030084825
81	0x3944b956	0.0001876106
82	0x39589480	0.00020654686
83	0x398040fe	0.00024462485
84	0x3986fee2	0.00025748374
85	0x396e89a7	0.00022748728
86	0x3973ae59	0.00023239235
87	0x398076a2	0.0002450245
88	0x3952ef05	0.00020116202
89	0x3997825f	0.00028898098
90	0x3944fad8	0.00018785463
91	0x395d643c	0.00021113543
92	0x39b3f250	0.00034322077
93	0x39aa3b7f	0.00032469255
94	0x39870390	0.0002575186
95	0x3960d664	0.00021442171
96	0x3956118b	0.00020415166
97	0x3982f04a	0.00024974562
98	0x39970c1a	0.0002880998
99	0x39b7cb66	0.00035056024
100	0x39a12083	0.00030732536
101	0x399d7cd4	0.00030038378
102	0x39807f89	0.00024509084
103	0x39addc3e	0.00033161225
104	0x3992d4dc	0.00028005883
105	0x3976d82a	0.00023540916
106	0x3999c97d	0.00029332555
107	0x39c9f6fa	0.0003852172
108	0x3994368e	0.00028269406
109	0x3939c6ee	0.00017717082
110	0x395507e3	0.00020316201
111	0x393df00d	0.0001811387
112	0x39494a67	0.00019196571
113	0x397cfb3d	0.00024126186
114	0x394dd726	0.00019630473
115	0x398d6797	0.00026970796
116	0x392f64ff	0.00016726925
117	0x395770c3	0.00020546005
118	0x3965e5f0	0.000219248
119	0x3a10f6b0	0.00055299234
120	0x39aceeda	0.00032984355
121	0x3984e892	0.0002535028
122	0x399ee29d	0.00030304948
123	0x39940d14	0.00028238504
124	0x39b879d3	0.0003518598
125	0x39cfb766	0.0003961876
126	0x3956ab42	0.00020472429
127	0x39baae04	0.00035606336
128	0x392bf1f0	0.0001639796
129	0x393e9cac	0.00018178177
130	0x399e93e6	0.000302463
131	0x394865d9	0.00019111428
132	0x3a03f761	0.0005034116
133	0x3995ceab	0.00028573474
134	0x396c7e16	0.00022553685
135	0x39c28f66	0.00037109404
136	0x39c3d9a3	0.0003735545
137	0x39387639	0.00017591649
138	0x39aeb063	0.00033319285
139	0x3963c328	0.00021721108
140	0x39905c21	0.00027534462
141	0x398681ce	0.00025655184
142	0x398ed289	0.00027241212
143	0x3969d78b	0.00022300908
144	0x3958105d	0.00020605461
145	0x398c91ab	0.00026811412
146	0x39861f25	0.00025581676
147	0x39678d13	0.00022082431
148	0x398294cc	0.00024906395
149	0x3974bcf0	0.00023340038
150	0x3975c704	0.0002343916
151	0x3977ca74	0.00023631175
152	0x395587e3	0.00020363885
153	0x399d6be0	0.00030025747
154	0x394b5b9e	0.00019393719
155	0x39666d36	0.00021975194
156	0x399a2c95	0.00029406385
157	0x3953cf43	0.00020199739
158	0x399f5a03	0.00030393907
159	0x394cd4ee	0.00019534279
160	0x39ab5150	0.00032676244
161	0x396776ef	0.00022074183
162	0x39ca1d1b	0.00038550128
163	0x397ce029	0.00024116099
164	0x39dc4305	0.00042011603
165	0x39745a43	0.00023303278
166	0x3941ca63	0.00018481309
167	0x399e79b3	0.0003022678
168	0x3984ca1c	0.00025327585
169	0x393fa3f9	0.00018276264
170	0x395dda49	0.0002115752
171	0x392d6c95	0.00016539016
172	0x39e8b9d5	0.00044388944
173	0x39654efe	0.00021868569
174	0x397a05c6	0.00023844009
175	0x3987b6e0	0.0002588546
176	0x39c0346b	0.00036660148
177	0x397b7ff9	0.00023984899
178	0x3962b58b	0.0002162067
179	0x39967309	0.00028695937
180	0x397e04bc	0.00024225091
181	0x39e76b07	0.00044139495
182	0x39710eac	0.00022989017
183	0x398daae8	0.0002702095
184	0x397943a4	0.00023771689
185	0x39343d67	0.00017189012
186	0x39325741	0.00017007907
187	0x3988df7b	0.00026106447
188	0x39a468d5	0.00031358624
189	0x39612ed4	0.00021475117
190	0x3991edb8	0.0002783367
191	0x39638a65	0.00021699963
192	0x39512153	0.00019944207
193	0x397073bd	0.000229313
194	0x3978c970	0.00023726164
195	0x399b8b0c	0.00029667502
196	0x39b1d041	0.00033915232
197	0x396d9f3b	0.00022661399
198	0x39a5e0d2	0.00031638757
199	0x3996e6e8	0.00028782268
200	0x397d3231	0.00024146658
201	0x396873e4	0.00022168417
202	0x39fc2913	0.00048095788
203	0x399dfcdf	0.00030133777
204	0x398f2fd6	0.00027310726
205	0x39baab79	0.00035604442
206	0x397fedf4	0.0002440734
207	0x3989120c	0.00026144122
208	0x394fb42b	0.00019808176
209	0x397090bc	0.00022942101
210	0x3982537a	0.00024857727
211	0x3995df81	0.00028586018
212	0x39819083	0.00024712467
213	0x39a9478a	0.00032287493
214	0x3977e7d2	0.00023642115
215	0x394e0d9b	0.0001965076
216	0x399ca33b	0.00029876255
217	0x394bb14d	0.00019425638
218	0x399f5291	0.0003038836
219	0x39b65e62	0.00034784066
220	0x39615260	0.00021488359
221	0x3945f1c7	0.00018877453
222	0x395cbd48	0.00021051348
223	0x39674f8d	0.00022059512
224	0x39917e20	0.00027750526
225	0x399ba423	0.00029686195
226	0x3979e53f	0.00023831891
227	0x3944e4a6	0.00018777195
228	0x3950762f	0.00019880453
229	0x39dbe856	0.0004194404
230	0x3947ece1	0.00019066363
231	0x398c316d	0.00026739706
232	0x3976f87c	0.00023552956
233	0x3975deab	0.00023447971
234	0x3961b85c	0.00021526351
235	0x39b242f7	0.00034000698
236	0x39413110	0.00018424192
237	0x395bb92f	0.00020954454
238	0x3951f04a	0.00020021308
239	0x3952d5dc	0.0002010683
240	0x393f92b0	0.00018269825
241	0x3981fc8d	0.00024792962
242	0x39834a9f	0.00025041864
243	0x395deb78	0.00021163921
244	0x39747f78	0.00023317139
245	0x3979a281	0.00023807028
246	0x3998263f	0.00029020195
247	0x398fbfa2	0.00027417863
248	0x39d5f537	0.00040809225
249	0x397ce4b4	0.00024117791
250	0x394e50f5	0.0001967585
251	0x39a610f3	0.00031674615
252	0x394e3cf3	0.00019668396
253	0x39b8ecfe	0.00035271788
254	0x39b27409	0.0003403726
255	0x39516392	0.00019968886

1.weight f4 [1, 256]
0	0x3e813e6a	0.2524293
1	0xbe4c7df2	-0.1996992
2	0x3d57f3cc	0.052722737
3	0xbea24689	-0.3169444
4	0xbd1bca01	-0.038034443
5	0xbb910fe9	-0.0044269455
6	0x3e2c50ae	0.16827652
7	0xbe179401	-0.14802553
8	0xbec524c3	-0.3850461
9	0x3ebb34bc	0.3656367
10	0x3ea262fd	0.31716147
11	0xbeb46ea8	-0.35240674
12	0x3e8a0e54	0.26964056
13	0xbe8f54fe	-0.2799453
14	0x3e32c8be	0.1745939
15	0x3ec3f3e8	0.38272023
16	0x3ecb0fd5	0.39660516
17	0x3e0d7f87	0.13818179
18	0x3e1aaba2	0.15104535
19	0xbe9b5415	-0.30337587
20	0xbea52622	-0.32255656
21	0x3e846c89	0.25864056
22	0xbebff5f3	-0.37492332
23	0x3e2a7c09	0.16648878
24	0xbd188cac	-0.03724353
25	0xbde970e0	-0.11398482
26	0x3eb09615	0.34489504
27	0xbe84a555	-0.25907388
28	0xbeb141d1	-0.34620526
29	0xbe751f67	-0.2393776
30	0x3e515ed4	0.2044633
31	0xbd8ac3ad	-0.067756034
32	0x3e325344	0.17414576
33	0xbe9433b4	-0.28945696
34	0x3e4e76b5	0.2016247
35	0x3ea9065f	0.33012673
36	0x3e7edd9b	0.24889223
37	0x3e204fb7	0.15655409
38	0x3ea7874f	0.3272042
39	0x3e2f89cb	0.17142408
40	0xbe3ceb4f	-0.18449138
41	0xbe84d82e	-0.25946182
42	0x3db5f6bf	0.08884954
43	0x3dc45c59	0.095879264
44	0x3e00fc1a	0.12596169
45	0x3e7d334f	0.24726604
46	0x3e228082	0.15869334
47	0xbec305e6	-0.38090438
48	0x3ec0dceb	0.37668547
49	0x3e12ace3	0.14323764
50	0xbe72ea4a	-0.23722187
51	0xbe657569	-0.2240807
52	0xbe81ee02	-0.25376898
53	0xbe95f67b	-0.29289612
54	0x3dc2d9b9	0.095141836
55	0x3de53544	0.111918
56	0xbea63f4e	-0.32470173
57	0x3e3f6772	0.18691805
58	0x3dd6fa4a	0.104969576
59	0x3e81e808	0.25372338
60	0xbe64f397	-0.22358547
61	0x3e4fd5c5	0.2029639
62	0x3e4b959b	0.19881289
63	0xbe52b8c8	-0.20578301
64	0xbe98a8b7	-0.2981622
65	0xbe26a77f	-0.16274832
66	0x3e8bea7d	0.27327338
67	0xbe9ec2c6	-0.31007975
68	0xbeb55485	-0.35416046
69	0x3e98a959	0.29816702
70	0x3df3e44f	0.11908781
71	0xbdcf7507	-0.10129743
72	0x3e83edab	0.25767264
73	0x3e73c3b4	0.23805124
74	0xbd9413f9	-0.07230372
75	0xbeabe4dd	-0.33573046
76	0xbdff1d15	-0.12456719
77	0x3e5161e8	0.20447505
78	0x3dccb571	0.09995545
79	0x3ed50724	0.4160701
80	0x3e503267	0.20331727
81	0xbeeadc53	-0.4587122
82	0xbebf760e	-0.37394756
83	0xbe13936e	-0.14411709
84	0x3e08853c	0.13332075
85	0xbe3fb5f1	-0.18721749
86	0xbe13b4d8	-0.14424455
87	0x3e89aa4a	0.26887733
88	0xbe8e5806	-0.27801532
89	0xbe209195	-0.15680535
90	0x3eb70710	0.35747576
91	0x3eb4ab58	0.35286975
92	0xbcb1efca	-0.021720786
93	0x3dfea4fc	0.12433812
94	0x3e9520b0	0.291265
95	0x3e9b0aa7	0.30281565
96	0xbe9ba7c2	-0.30401427
97	0xbe697a19	-0.22800483
98	0xbe77da34	-0.24204332
99	0xbe04f773	-0.1298502
100	0x3d9d7d1c	0.07689878
101	0x3e024e7d	0.12725253
102	0xbe8126fb	-0.25225052
103	0xbe3ff379	-0.18745221
104	0xbe19504d	-0.14972039
105	0x3e6a20c1	0.22864057
106	0x3db239f4	0.0870246
107	0x3e0c5882	0.13705638
108	0xbe32c239	-0.17456903
109	0x3e87194c	0.26386487
110	0xbea7eb14	-0.32796538
111	0xbe942b59	-0.28939322
112	0xbea3b8b0	-0.31976843
113	0x3e2149c9	0.15750803
114	0x3ea1a752	0.31572968
115	0x3e2725f2	0.16323069
116	0xbe8f8629	-0.28032044
117	0x3eafeb07	0.34359
118	0x3e932946	0.28742427
119	0x3dd9e032	0.10638465
120	0x3c380235	0.011230995
121	0xbe5cfcb6	-0.21580777
122	0x3e840a72	0.2578922
123	0xbe6a9f8d	-0.22912426
124	0x3d4da3ae	0.050204925
125	0x3c835088	0.016029611
126	0x3e9ec822	0.31012064
127	0x3d998971	0.07496918
128	0xbe96985b	-0.29413113
129	0xbe96201a	-0.29321367
130	0xbe0d9f72	-0.13830355
131	0xbe6d8c1a	-0.23197976
132	0xbce189f1	-0.027531596
133	0x3dbbf52e	0.09177624
134	0xbe5a1506	-0.21297082
135	0x3e1c0d76	0.1523951
136	0xbdbcec42	-0.0922475
137	0x3ead4c26	0.3384716
138	0xbd1ab3e3	-0.03776921
139	0x3e80ac39	0.25131395
140	0xbe2d2fa3	-0.16912703
141	0x3e364f4f	0.17803691
142	0x3e4eee66	0.2020813
143	0xbe8b2dfa	-0.27183515
144	0x3eaa73f6	0.33291596
145	0x3e598d3e	0.21245286
146	0xbe85706b	-0.2606233
147	0x3e964c43	0.29355058
148	0x3e022743	0.1271029
149	0x3e5a7c98	0.21336591
150	0xbe2cd8b9	-0.16879548
151	0x3e9f1276	0.31068772
152	0xbea73653	-0.32658634
153	0xbe386208	-0.18006146
154	0xbe779c27	-0.24180661
155	0x3e6b75b0	0.22994113
156	0x3e313934	0.17306978
157	0x3e72b08b	0.23700158
158	0x3e21427a	0.15748015
159	0xbe7d0ad9	-0.2471117
160	0x3cf2afb7	0.029624803
161	0xbe6bd017	-0.23028599
162	0x3da79abb	0.08183809
163	0x3e2f5631	0.17122723
164	0x3d2eb4de	0.042652957
165	0xbe3ce4c5	-0.18446644
166	0xbea22e11	-0.3167577
167	0x3e53656c	0.20644158
168	0x3e2117b7	0.15731703
169	0x3edc5122	0.4303065
170	0x3e788538	0.24269569
171	0xbebab70b	-0.36467776
172	0xbce625f7	-0.028094275
173	0xbea963aa	-0.3308385
174	0xbe4c2ec9	-0.19939722
175	0xbe4a368c	-0.1974737
176	0x3df86910	0.12129414
177	0xbe931600	-0.28727722
178	0xbe929c76	-0.28634995
179	0x3da81f82	0.08209135
180	0xbe56bbeb	-0.20970123
181	0xbc8c57e5	-0.017131755
182	0x3e382608	0.17983258
183	0xbdd0993d	-0.10185478
184	0x3e285864	0.16439968
185	0x3e816256	0.25270337
186	0xbed00a95	-0.40633073
187	0x3e40c869	0.1882645
188	0x3ca1ed30	0.01976642
189	0xbea776bf	-0.32707784
190	0xbe574c9f	-0.21025322
191	0xbe2a6e45	-0.16643627
192	0x3e9b186b	0.30292067
193	0xbe6f8641	-0.23391058
194	0x3e68c940	0.22733021
195	0x3e177aac	0.1479289
196	0xbcecbafd	-0.028897757
197	0x3e7d0a1a	0.24710885
198	0x3dd243b3	0.10266819
199	0xbcc0f710	-0.023555309
200	0x3e4824bb	0.19545262
201	0xbe75e116	-0.24011645
202	0x3ac1a9e6	0.0014775365
203	0x3d400226	0.04687705
204	0xbe4e00f0	-0.20117545
205	0x3e12fa09	0.14353193
206	0x3e4164f1	0.18886162
207	0xbe0628ad	-0.13101454
208	0x3e9edc89	0.3102763
209	0x3e81ca42	0.25349623
210	0xbe65f21f	-0.22455643
211	0x3dccd3dd	0.10001347
212	0x3e73d223	0.2381063
213	0x3df0bfd0	0.11755335
214	0x3e6260fa	0.22107306
215	0x3e5e66bb	0.21718876
216	0xbe249bf8	-0.16075122
217	0xbeb9db5b	-0.36300167
218	0xbe3bba3a	-0.18332759
219	0x3daa262e	0.083080634
220	0x3ea9305b	0.33044705
221	0xbea18477	-0.31546375
222	0x3ea96a38	0.3308885
223	0x3e6c9fff	0.23107909
224	0xbdeed525	-0.11661748
225	0xbdd514ba	-0.10404344
226	0x3ea5b5aa	0.3236516
227	0x3e8b1b44	0.2716924
228	0x3e410373	0.18848972
229	0xbd496509	-0.04916862
230	0xbedfa6a6	-0.4368183
231	0xbe8e181b	-0.27752766
232	0xbe00e1d0	-0.1258614
233	0x3e6f7762	0.23385385
234	0xbe83d6e1	-0.25749877
235	0x3dc3ec0c	0.09566507
236	0xbea9b3ca	-0.3314498
237	0x3e76b3f0	0.24092078
238	0x3e861ef8	0.26195502
239	0xbea595c6	-0.3234083
240	0xbee020f8	-0.43775153
241	0xbe3b85cb	-0.18312757
242	0x3e6c6ec3	0.23089127
243	0x3eb40686	0.35161227
244	0xbe74543c	-0.23860258
245	0x3e2b464d	0.16726036
246	0x3e0da48b	0.138323
247	0xbe3454cf	-0.17610477
248	0x3d1b6de1	0.037946586
249	0xbe9898d0	-0.29804087
250	0xbea19416	-0.31558293
251	0x3dce3189	0.10068042
252	0x3eb17169	0.34656838
253	0xbe4b8bae	-0.19877502
254	0x3dac2bad	0.08406768
255	0xbe848749	-0.25884464
