weights/just_and_cm.pt (torch, 796549 bytes, 7 tensors)

0.fc_red.weight f4 [256, 768]
000000 3f 1f c7 3b 4b cb 33 3c e2 99 35 3d 07 9a 0e bd
       0.006076723 0.010973762 0.044336207 -0.03481486
000010 74 52 b5 bc 55 97 72 3d d2 2c 5a bc 36 05 59 bc
       -0.022134043 0.059226353 -0.01331635 -0.013245871
000020 ca 15 f9 bc 9a 00 37 bc e1 aa ff bc 30 09 a2 3c
       -0.030405898 -0.011169577 -0.031209411 0.019779772
000030 bb 0a 90 bb 3d 11 1e bc 81 c6 ab 3c 3c 85 19 bd
       -0.0043958104 -0.009647665 0.020968677 -0.037480578
000040 ac bf 1c bc 85 1c f0 bc d4 63 98 3c d0 8a c4 3c
       -0.0095671825 -0.029310474 0.01860229 0.023991972
000050 7e 88 d1 bb fd 3c 88 3c 55 61 26 3b 7e 3c 9c bc
       -0.006394445 0.016630644 0.0025387604 -0.019071814
000060 90 53 e0 bc 0c 8f db bc 9b db 5a bb 70 13 36 ba
       -0.027383596 -0.026801609 -0.0033395055 -0.00069456454
000070 d8 01 c7 3c c4 b3 37 3c 4f 5c 58 bb 92 1d a2 bc
       0.024292871 0.011212293 -0.0033014005 -0.01978949
000080 bb b9 fe 37 f9 d1 15 bd 5c 09 87 bc a5 1c a4 3c
       3.0365647e-05 -0.0365772 -0.016483955 0.02003319
000090 55 ba 9e 3c 6a a3 91 3c 44 2b 03 3c 56 46 7b bc
       0.01937596 0.017778117 0.008005921 -0.015336594
0000a0 93 05 a0 bc 59 33 92 3d 2b 56 be 3b d9 d9 68 bc
       -0.019533908 0.071387 0.005808612 -0.014212095
0000b0 ee 3b d8 bc 23 9c af 3c 98 43 04 3b 0b 17 a8 bb
       -0.026395764 0.021436756 0.002018189 -0.0051297
0000c0 96 ac f8 bc 7b 15 8f 3c 99 02 d3 bc ea 8a 4b bc
       -0.030355733 0.017466297 -0.025758075 -0.012423256
0000d0 a7 50 2f 3c 8d d8 0e bd 92 35 1a bd 47 bd a3 3c
       0.010700381 -0.034874488 -0.037648745 0.019987715
0000e0 df 6b 25 bd d8 b3 e0 bc fb c5 87 bc 01 89 1f 3d
       -0.040386077 -0.027429506 -0.016573897 0.038949016
0000f0 b3 49 e5 3c 12 29 33 bc 3b 97 c4 bb ac e9 10 3d
       0.027989244 -0.010935085 -0.0059994734 0.035379097
000100 f1 52 b2 3c 4e 9c 1e bc d6 31 41 3c 82 88 80 bc
       0.021768065 -0.009680821 0.011791667 -0.015690092
000110 53 69 1b bc e3 2c 82 3c b2 84 93 3b ed fa 21 3d
       -0.0094855605 0.015890544 0.0045019025 0.039545942
000120 bf fa a1 3b ff 77 e8 3b f6 ee 04 3d f2 0a ed bc
       0.0049432213 0.007094383 0.032454453 -0.028935883
000130 4d 85 26 3d 34 71 79 3c 5b b5 79 3c aa 03 21 bd
       0.04065447 0.015224744 0.015240992 -0.039310135
000140 c1 8b 12 3d 2d fc cc bc 13 3c bd 3c 69 ee 7e bc
       0.03577781 -0.02502259 0.023099935 -0.015559771
000150 40 90 6c bc 27 9b 52 3c a5 96 20 3d 31 57 1f 3c
       -0.014438689 0.012854374 0.039206166 0.009725378
000160 a8 ee 1f 3c 3f e7 34 bb 4e 3c 82 3b 8b 24 bb bb
       0.00976149 -0.0027603654 0.003974474 -0.0057111434
000170 3a 93 a2 3b a0 e0 25 3d c9 4d 33 3c 0a 01 79 bc
       0.0049613984 0.040497422 0.010943838 -0.015198002
000180 5c d9 b2 3b 0b 02 e4 bc 39 97 35 bd 8f 58 65 3b
       0.00545804 -0.027833005 -0.04433367 0.0034995412
000190 15 da 63 bb 32 ec b7 bc d4 99 e6 3c f3 72 ba b9
       -0.0034767438 -0.022451494 0.028149523 -0.00035562328
0001a0 9b 7a 94 bc 85 8c 0a 3d e2 37 8f 3c 37 f1 86 bc
       -0.01812487 0.033825416 0.017482702 -0.016472442
0001b0 16 66 1d bd 4c e8 22 bb dd 98 24 bc d5 80 dd bc
       -0.038427435 -0.0024857698 -0.010046211 -0.027038971
0001c0 c5 46 c6 bb 65 11 12 3d 51 d9 01 3b 78 f3 0d bd
       -0.006050917 0.03566112 0.0019813369 -0.034656018
0001d0 e1 23 de bc 40 53 86 bc ae ed 02 bd c3 84 3d 3d
       -0.027116718 -0.016397119 -0.03196495 0.04626919
0001e0 53 90 07 bd 5e 55 4e 3c 94 f3 7f bc 0e af af ba
       -0.033096623 0.012593595 -0.015622038 -0.0013403611
0001f0 54 c5 f6 3b 12 dc ed 3c a3 92 5d bc a9 57 8a bc
       0.0075308476 0.029035602 -0.01352373 -0.016887503
000200 f2 e1 46 bd 84 9e 26 bc 2d a1 d3 bb 21 05 e1 3b
       -0.048555322 -0.010169629 -0.0064584226 0.0068670665
000210 58 fe 6c bc 6b ef 84 3b 58 91 3c bc 5a c5 99 bc
       -0.014464937 0.004056861 -0.011509262 -0.018770862
000220 ef 8b f1 bb e2 5a cb 3b fb 21 6a 3c f6 7d 1e 3d
       -0.0073714177 0.0062059024 0.014290328 0.038694344
000230 6b 44 e8 3c fc ff 93 3c 2d 3c 9c 3c 81 d9 0d bc
       0.028352937 0.018066399 0.019071663 -0.008657814
000240 aa 9d 78 bc ff bf 39 bd ec dd 74 3c 54 31 01 3c
       -0.015174309 -0.045349117 0.014945488 0.007885296
000250 03 09 ac 3c 1c 38 ae 3c 51 90 b4 ba 8b 06 89 bb
       0.02100039 0.02126699 -0.001377592 -0.004181688
000260 1b d4 9c bc 16 2e d8 3c 73 d8 c3 3c 34 fc 19 3c
       -0.019144109 0.026389163 0.023906922 0.009398509
000270 1b 0a 20 bc e4 4e 12 bd bb a4 a7 3c 31 b4 8a 3c
       -0.009768034 -0.035719767 0.020464292 0.016931625
000280 9f 37 2a bb ca 3d 24 bd 78 e6 e2 bc 43 3e 9e b9
       -0.0025973094 -0.04009799 -0.027697787 -0.00030182497
000290 f1 ec 22 3c b3 53 0d bd 23 eb a5 bb d1 da ab 3c
       0.009944187 -0.03450365 -0.005063431 0.020978363
0002a0 6d f2 a8 3c d7 22 c4 3c 00 dc 12 3d 10 51 05 3d
       0.02062341 0.023942394 0.03585434 0.03254801
0002b0 ce ed 9b bc 2e 09 fe 3b c1 82 4f bb 55 bd fd 3c
       -0.019034293 0.007752559 -0.0031663629 0.03097407
0002c0 ac d2 08 bb e5 88 72 3c af 34 0e bd 1d e8 06 bb
       -0.0020877523 0.014803146 -0.03471821 -0.0020585128
0002d0 12 9c 54 3d 43 9a 15 3c bb d7 eb 3c f2 ef b9 bb
       0.051906653 0.009131017 0.028789392 -0.0056743557
0002e0 ee bb 1c 3d 84 28 95 3c 32 b5 02 bd e2 db 3b 3c
       0.03826516 0.018207796 -0.031911083 0.011465998
0002f0 25 8c ca bc bc 3f 8b bc 61 a6 f9 bb 8e 55 b7 3b
       -0.02472503 -0.016998164 -0.007618711 0.0055949157
000300 52 b7 0b bc f9 88 18 3d 46 45 f8 bc c1 aa 6d bc
       -0.008527594 0.037240002 -0.03030647 -0.014506043
000310 31 2b 5e bb ae 2f 94 b9 a8 9e b4 bc 43 83 b2 3c
       -0.0033900256 -0.00028264284 -0.02204831 0.021791106
000320 60 3f b1 3c a7 d0 8a bc 36 61 cf 3c 8b 3a fd bc
       0.021636665 -0.016945196 0.025314908 -0.030911705
000330 1d 9b 10 3d a6 a5 fd bc 11 81 51 3c ea f6 3f 3c
       0.035304178 -0.030962776 0.0127871195 0.011716584
000340 93 7f 51 bd 7f ca 1b bc 82 7e 8b 3c 42 d6 44 3c
       -0.051147055 -0.009508728 0.017028097 0.012013974
000350 2c f6 17 bd 52 2d 99 bc cf c7 12 bb 98 39 0b 3d
       -0.037100002 -0.018698368 -0.0022396927 0.033990473
000360 f3 c4 de 3b 40 5b 47 3d 62 a9 ee 3c 05 d2 15 bc
       0.0067983805 0.048671007 0.029133502 -0.009144311
000370 d7 91 37 bd f1 50 af bc 6b 33 bf 3c fc 3d 07 3c
       -0.044816818 -0.0214009 0.023339948 0.008254524
000380 b8 f3 87 bb 11 87 14 3c 3f a0 6d bc ea 78 a0 3c
       -0.0041489266 0.0090654055 -0.014503538 0.019588906
000390 bd fa d3 3b 6d ea 0f 3c f3 01 df 3b b2 83 03 3d
       0.0064690993 0.008783919 0.0068056523 0.032108016
0003a0 a1 49 75 3b 23 72 c7 bb be a5 78 bc 83 53 f2 3c
       0.003742792 -0.006086604 -0.015176235 0.029580837
0003b0 18 1a 69 bc 9a 50 43 bd 28 17 20 bc dc 72 89 3c
       -0.014227413 -0.04768429 -0.009771146 0.016778402
0003c0 68 09 82 3c fe 77 11 bd a4 8c d2 bc d1 2a f4 bc
       0.015873626 -0.035514824 -0.025701828 -0.029805573
0003d0 af 61 a6 bc ff d1 55 b9 48 50 00 bd bf ed 06 bd
       -0.020310251 -0.00020391493 -0.031326562 -0.032941576
0003e0 b0 66 9f bc 03 09 34 bc c8 59 b0 3c a5 df 7f 3c
       -0.019458145 -0.010988477 0.021527186 0.015617286
0003f0 66 f3 6e bc 5d c3 09 bd 3b 6d 78 3c 7d 22 47 bc
       -0.014584398 -0.03363358 0.015162761 -0.012154219

0.fc_red.bias f4 [256]
000000 0b ec b8 3c 53 fe 9c 3b 33 ed 2d 3c cb ee 9c bc
       0.022573492 0.00479106 0.010615635 -0.019156834
000010 57 fb eb bc f4 48 80 3c cc 0c 4f 3c 2c c4 f0 3c
       -0.028806372 0.015659787 0.012637328 0.029390417
000020 74 94 8d 3c cb af fb 3c f5 74 25 3c e8 c3 04 3d
       0.017282702 0.030723473 0.0100986855 0.032413393
000030 5c 57 d7 bc 61 fe 3f bc c9 30 81 3a 61 d7 ba 3b
       -0.026286773 -0.0117183635 0.0009856458 0.0057019447
000040 19 f8 02 bd 29 3b 17 3c 74 90 bc bc 18 49 23 3a
       -0.031974886 0.0092304135 -0.0230181 0.00062288484
000050 78 fb d2 bb 52 10 05 3d de 1c ae bc 24 8a a5 3c
       -0.006438669 0.032486267 -0.021254 0.020207472
000060 81 46 f0 bc e7 72 f5 3c 3d a6 05 bd 2a 25 c9 bc
       -0.029330494 0.029962016 -0.03262924 -0.024553854
000070 02 6b 47 bc d9 95 1e 3c d2 98 4a 3c ff f4 04 bd
       -0.012171509 0.009679281 0.012365537 -0.03246021
000080 93 77 6e 3b d2 e5 db bc 3b c3 aa 3b 56 0b 20 bc
       0.003638719 -0.026842985 0.0052112616 -0.009768328
000090 2c 55 aa bb f4 f7 24 bc ce 5d e9 bc 05 81 fd 3b
       -0.0051981416 -0.010068882 -0.028487112 0.0077363276
0000a0 f3 b3 9f bb 59 83 f3 3c a4 7f a7 bb 66 d8 bf bc
       -0.0048737465 0.029725717 -0.0051116515 -0.023418617
0000b0 d0 64 8f b9 63 f9 c4 bb 21 41 76 3c c4 49 a3 bc
       -0.00027350197 -0.0060111745 0.015030176 -0.019932635
0000c0 cb c9 fe 3c 49 b9 be 3c 76 35 f5 3c e7 4b 17 3c
       0.031102082 0.02328171 0.029932719 0.009234405
0000d0 da b7 13 bb cf d5 59 3c 72 58 0c bd ed 22 b9 3c
       -0.0022540004 0.013295605 -0.034264036 0.022599662
0000e0 5a 66 0d 3d 85 e6 54 3c 70 e0 0c 3d 39 0e eb bc
       0.03452144 0.012994413 0.034393728 -0.028693305
0000f0 81 1e f7 3c ac 0d 0a bd 5b fc 8c bc a9 69 ad 3c
       0.030165913 -0.033704445 -0.017210176 0.021168547
000100 94 1b f3 3c 01 de 5e bc 57 60 1f bc 57 95 39 bc
       0.029676236 -0.013602735 -0.009727559 -0.011327109
000110 a9 ec f7 bc 9c 35 6c 3c b5 e2 fa bc 8b e8 91 bc
       -0.030264216 0.014417078 -0.03062568 -0.01781108
000120 63 57 d8 bc c8 cc 10 bd b9 ba b5 3a 40 69 e4 3c
       -0.026408857 -0.035351545 0.0013864852 0.027882218
000130 02 e0 86 bc 3c 27 4c bc 32 6c 5a 3c 27 89 07 3d
       -0.016464237 -0.012460526 0.01333146 0.033089783
000140 7c 54 f1 bc 59 41 42 bc 53 06 86 bb f5 0a fd bb
       -0.02945923 -0.0118564 -0.0040901094 -0.0077222534
000150 13 08 89 bc 5e 88 d8 b7 f1 6a 08 3d 65 45 21 3c
       -0.016727483 -2.5812707e-05 0.033305112 0.009843205
000160 27 e2 c2 bc fd 8e c5 bc 1c 6b b4 3a 8e 93 95 bb
       -0.023789478 -0.024116034 0.0013764831 -0.004564709
000170 b6 7b 46 3c 62 9f ef 3c 6b c9 00 3d 2e 82 ec bc
       0.012114456 0.029250804 0.031442087 -0.028870668
000180 36 a3 1b bc c7 b9 85 ba 1d 43 59 3c 37 15 a0 3c
       -0.009499362 -0.0010202461 0.01326063 0.019541366
000190 14 82 dd b9 9d 35 0a 3c e7 ce 85 bc 8b 64 91 bc
       -0.0004224932 0.008435634 -0.01633401 -0.017748138
0001a0 b3 ca de bc 36 34 e0 bc 04 f4 9c 3c 7e a3 20 3b
       -0.027196264 -0.027368646 0.019159324 0.0024511511
0001b0 14 8f bb 39 a4 9d da 3c 09 dd 04 3d 34 13 12 bc
       0.0003577402 0.026686497 0.032437358 -0.008915711
0001c0 24 2b bc 3b 60 62 ee bc a8 d8 94 3c 2c 41 fb bc
       0.0057424475 -0.029099643 0.018169716 -0.030670725
0001d0 8b fd 5f 3c 6e e9 e7 3c 5d 33 a5 3b e4 94 eb ba
       0.013671289 0.02830955 0.0050415234 -0.001797345
0001e0 2c b6 2c bc a6 20 80 bc 00 cb dd bc f7 bf 78 bc
       -0.01054148 -0.015640568 -0.027074337 -0.015182487
0001f0 0b de af 3c 0a e3 12 bc 70 5d ec 3b 86 c8 70 ba
       0.021468183 -0.008965263 0.007213287 -0.0009185154
000200 c8 ec 21 bc b5 db 6c 3c 73 d0 c0 bb 01 da a7 3b
       -0.009883113 0.014456679 -0.005884224 0.0051224236
000210 5b 5e 0a bd f6 06 82 ba 1f d1 1d bc 6c 38 04 3c
       -0.03378139 -0.0009920287 -0.009632378 0.008070093
000220 dd 8a e1 bc b0 d7 5f bc 08 d1 9c 3c 70 90 b1 bc
       -0.027532035 -0.013662264 0.019142643 -0.021675318
000230 32 7a 04 3d cc 66 bf 3c 33 dd de bc 92 74 02 3d
       0.032343097 0.023364447 -0.027205085 0.03184945
000240 60 3e 15 39 df 51 77 3c 2f 40 00 bd ff 6c db 3c
       0.00014232984 0.015095203 -0.03131121 0.026785372
000250 e9 de a3 bc 33 29 89 bc 99 e3 e8 3c 10 15 9e bb
       -0.020003753 -0.016743278 0.02842884 -0.004824288
000260 fe aa ba 3a d7 25 0e bd 29 74 c1 3c 02 0b c1 bc
       0.0014241633 -0.034704056 0.02361496 -0.02356482
000270 ec 93 5b bc 80 c8 d8 3c 4c 44 6e 3c c4 cb ef bc
       -0.013401967 0.026462793 0.01454265 -0.029271968
000280 6c 3e c4 3b 2a 31 e8 bb 6b 65 83 3c fb 84 47 3b
       0.0059888866 -0.007085939 0.01603957 0.0030444253
000290 2e b1 da 3c 59 49 75 bc d6 e7 1c 3c a2 42 f6 3a
       0.026695814 -0.014971101 0.009576758 0.0018788169
0002a0 45 d8 47 bc cb 89 4e 3c 1d 87 f9 bc 7a c7 0a 3d
       -0.012197559 0.012606095 -0.030459935 0.033881642
0002b0 0b b6 13 bc 47 22 c6 3c d5 01 28 bc 12 72 d3 bc
       -0.00901557 0.024186267 -0.010254343 -0.025811229
0002c0 dc cf e9 bc ae 32 28 3c 5a f0 8f bc a5 91 d3 3c
       -0.028541498 0.010265989 -0.017570663 0.025826285
0002d0 94 a6 5a 3c da 6c ab bc cf 17 7e bb a2 65 06 3d
       0.013345379 -0.020925928 -0.0038771515 0.03281177
0002e0 70 12 44 3a 1f b8 04 bb af 60 d3 3c a8 80 94 3c
       0.0007479554 -0.0020251346 0.025802938 0.018127754
0002f0 47 79 07 bd 0e 3d c9 bc af f7 b6 3c dd 2a 3f 3c
       -0.033074643 -0.024565246 0.022334902 0.011667934
000300 73 8b bf 3c f1 e0 9a 3c 48 cb de bc 71 8d ce ba
       0.023381924 0.018906089 -0.027196541 -0.0015758706
000310 cd 5e a4 bc da be 16 3c 46 c1 b8 ba 60 89 95 bc
       -0.020064736 0.009200776 -0.0014095686 -0.018253982
000320 1d fc 81 3c ed 31 ce 3c ec 4e 07 3d f8 f4 51 bc
       0.015867287 0.02517029 0.03303425 -0.012814753
000330 bf 51 be ba 13 5e e7 3c ff 82 fc 3c 00 45 f3 bb
       -0.0014520212 0.0282431 0.030824183 -0.007423997
000340 0f 54 00 bc 81 36 da bb 64 09 e4 3c a6 75 0b 3c
       -0.007832541 -0.0066593294 0.027836509 0.008511936
000350 01 33 d4 bc b5 5c f1 bc ce 39 ec 3c 5b 22 de 3c
       -0.025903227 -0.029463151 0.028836157 0.027115991
000360 09 b9 c5 3c ef 92 bc 3c 5e 1f 21 3c 40 92 48 3c
       0.024136083 0.023019282 0.009834139 0.0122419
000370 5a 8c cd bc ff a0 c0 3c be 7b 95 bb 99 6b a7 3c
       -0.025091339 0.023514269 -0.0045618704 0.020437049
000380 fb 43 16 ba 2e a3 ef 3b 65 e7 9b 3b 3a 12 0d 3d
       -0.0005732176 0.0073131537 0.004757809 0.03444121
000390 9d a0 cd bc f2 d5 8b bc ea 50 8f bc fb 68 d6 3c
       -0.025101 -0.01706979 -0.017494638 0.026173105
0003a0 f8 8c de bb 4e e5 d3 3c 45 08 ec 3c 99 de f4 3c
       -0.006791707 0.025866177 0.028812537 0.0298913
0003b0 02 5f 56 3b cf 60 b5 3b b3 4b f7 bc fe 07 d9 bc
       0.0032710438 0.005535222 -0.030187463 -0.026493069
0003c0 be e3 59 3c f5 28 0e 3d 0c a2 92 bb c7 eb cf bc
       0.013298927 0.03470703 -0.004474884 -0.025380982
0003d0 00 5c 92 ba ec 5c 34 3c 65 e6 85 3c 65 7f f9 bc
       -0.0011166334 0.011008482 0.016345212 -0.030456254
0003e0 7f 18 06 bd a2 cb ed bc f3 d5 dc bc 61 39 c4 3c
       -0.032738205 -0.029027764 -0.026957488 0.023953142
0003f0 5b 30 9e bb d8 25 40 bc 80 0f b1 3c cc 3e 82 3c
       -0.0048275418 -0.011727773 0.021613836 0.015899085

0.bn_red.weight f4 [256]
000000 dd 81 82 3f f2 ea 7f 3f 23 4d 81 3f 7a 81 81 3f
       1.0195881 0.99967873 1.0101665 1.0117638
000010 23 2b 84 3f ea 23 83 3f 95 51 81 3f 25 38 84 3f
       1.0325664 1.0245335 1.0103022 1.0329634
000020 e1 58 81 3f 80 a9 82 3f df 71 84 3f 7d 22 82 3f
       1.0105249 1.0207977 1.0347251 1.0166775
000030 66 a9 81 3f 19 56 83 3f 68 41 85 3f cd 55 84 3f
       1.0129821 1.026065 1.0410585 1.0338684
000040 24 c7 80 3f 60 92 82 3f 21 4e 81 3f 1a c0 85 3f
       1.0060773 1.020092 1.0101968 1.044925
000050 01 bd 82 3f 13 81 83 3f d7 eb 7f 3f 08 9a 82 3f
       1.021393 1.0273765 0.9996924 1.0203257
000060 7f b8 84 3f 4e 34 83 3f 02 c1 80 3f b9 17 83 3f
       1.0368804 1.0250337 1.0058901 1.0241615
000070 6d e1 83 3f 2e 48 84 3f 12 e6 83 3f 25 0e 83 3f
       1.030317 1.0334527 1.0304587 1.0238692
000080 6f cf 7f 3f 3f cd 83 3f d8 31 80 3f a6 28 83 3f
       0.99925894 1.0297011 1.0015211 1.024678
000090 35 07 81 3f 0d 4b 82 3f 76 e4 80 3f ec 37 80 3f
       1.0080324 1.0179154 1.0069721 1.0017066
0000a0 a3 3e 85 3f 6e 05 81 3f 17 86 83 3f 36 61 80 3f
       1.040974 1.0079782 1.0275296 1.0029666
0000b0 aa a6 82 3f 20 5d 82 3f 7b c7 83 3f 0d d5 80 3f
       1.0207112 1.018467 1.0295252 1.0065018
0000c0 3a ab 81 3f 96 8e 83 3f dd d1 7f 3f c1 6e 81 3f
       1.0130379 1.0277889 0.999296 1.0111924
0000d0 91 fa 82 3f 92 f1 81 3f a5 44 84 3f 50 92 82 3f
       1.0232717 1.0151846 1.0333449 1.0200901
0000e0 bf 59 83 3f bd 87 84 3f 7a a4 84 3f d6 13 80 3f
       1.0261763 1.0353924 1.0362694 1.0006053
0000f0 15 35 80 3f 30 96 83 3f 69 c2 83 3f bb 59 84 3f
       1.0016199 1.0280209 1.0293704 1.0339884
000100 d5 89 81 3f 8b 27 81 3f 52 4c 83 3f 55 7b 83 3f
       1.0120188 1.0090193 1.0257666 1.0272013
000110 7a 03 85 3f 4b 8b 80 3f 69 9a 80 3f 85 4f 82 3f
       1.0391686 1.0042509 1.0047122 1.0180517
000120 87 78 82 3f 3e e6 81 3f 6d 5f 83 3f 6a d9 82 3f
       1.0193032 1.0148389 1.0263497 1.02226
000130 3a 33 81 3f 17 5d 83 3f 3e 02 84 3f 8b 1c 87 3f
       1.0093758 1.0262784 1.0313184 1.0555586
000140 5e 05 81 3f 34 d5 84 3f 5c 53 84 3f 91 ea 83 3f
       1.0079763 1.0377564 1.0337939 1.0305959
000150 97 60 83 3f 5b 2b 86 3f 98 5b 83 3f 63 b1 84 3f
       1.0263852 1.0481981 1.0262327 1.0366634
000160 dc 2c 80 3f 9b 3a 80 3f 04 2d 81 3f 2d 56 82 3f
       1.001369 1.0017885 1.0091863 1.0182549
000170 45 4f 82 3f 5c 64 85 3f 3c 4e 84 3f a7 8b 80 3f
       1.0180441 1.0421252 1.0336375 1.0042619
000180 12 6b 80 3f 6e c8 81 3f 47 8c 84 3f c7 d7 83 3f
       1.0032675 1.0139291 1.0355309 1.0300225
000190 7a 9a 80 3f c9 e2 7f 3f bb de 84 3f 56 f2 80 3f
       1.0047143 0.9995542 1.0380472 1.0073955
0001a0 7b 13 83 3f d8 25 80 3f aa f2 83 3f 77 5e 81 3f
       1.024032 1.0011549 1.030843 1.0106953
0001b0 1d 3e 84 3f 30 5a 83 3f 5a fe 82 3f 5e 9f 84 3f
       1.0331455 1.0261898 1.0233872 1.0361135
0001c0 d6 9f 81 3f d7 9d 81 3f d2 be 81 3f 0f 6b 84 3f
       1.0126903 1.0126294 1.0136359 1.0345172
0001d0 89 02 81 3f 99 39 86 3f 96 92 82 3f bd 35 82 3f
       1.0078899 1.0486327 1.0200984 1.017265
0001e0 f4 56 82 3f e6 c5 85 3f f8 12 85 3f e2 79 84 3f
       1.0182786 1.0451019 1.0396414 1.0349696
0001f0 53 ea 82 3f 2d 2d 82 3f 52 cf 81 3f df 48 85 3f
       1.022776 1.0170037 1.0141394 1.0412863
000200 72 56 84 3f 77 3b 84 3f 55 fb 81 3f 38 84 83 3f
       1.0338881 1.0330647 1.0154825 1.0274725
000210 af 34 81 3f 8a 6d 82 3f aa bd 83 3f ac 3d 80 3f
       1.0094203 1.0189679 1.0292256 1.0018821
000220 2a 06 83 3f b4 a0 83 3f 4b c5 82 3f 93 30 80 3f
       1.0236256 1.0283418 1.0216459 1.0014824
000230 0c 63 82 3f 1a 08 84 3f 00 dc 84 3f bf 16 81 3f
       1.0186477 1.0314972 1.0379639 1.0085067
000240 85 b3 84 3f 40 0e 82 3f 5b f9 7f 3f 19 c2 84 3f
       1.0367285 1.0160599 0.9998986 1.0371734
000250 17 84 85 3f 0e 62 85 3f 44 67 83 3f 11 29 84 3f
       1.0430936 1.0420549 1.0265889 1.0325032
000260 33 1f 83 3f 68 d9 83 3f a9 46 85 3f c5 75 85 3f
       1.0243896 1.0300722 1.0412189 1.0426565
000270 dd 4d 81 3f f9 10 84 3f 7d 0a 80 3f 55 d2 84 3f
       1.0101887 1.031768 1.0003201 1.0376688
000280 d9 83 82 3f f2 b4 81 3f 59 8d 83 3f d9 03 82 3f
       1.0196487 1.0133345 1.0277511 1.0157424
000290 ca af 84 3f 20 54 82 3f 6a da 82 3f 58 18 84 3f
       1.0366147 1.0181923 1.0222905 1.0319929
0002a0 a0 6a 81 3f 76 7e 84 3f f0 2f 81 3f 03 62 83 3f
       1.0110664 1.0351093 1.0092754 1.0264286
0002b0 6a da 81 3f f7 6a 84 3f a0 ab 81 3f 34 26 85 3f
       1.014478 1.0345143 1.0130501 1.0402284
0002c0 6e 68 81 3f 15 1b 85 3f 9d e2 84 3f 15 3b 82 3f
       1.0109994 1.039889 1.0381657 1.017428
0002d0 07 40 83 3f 55 a2 81 3f 15 81 86 3f 83 fb 84 3f
       1.0253915 1.0127665 1.0508143 1.0389255
0002e0 ce cd 87 3f d6 3a 81 3f 8c 73 81 3f 4e 92 82 3f
       1.0609682 1.009608 1.0113387 1.0200899
0002f0 1f de 83 3f c5 0d 82 3f 45 01 84 3f 8b 4b 84 3f
       1.0302161 1.0160452 1.0312887 1.0335554
000300 24 9e 83 3f 70 a5 83 3f 72 eb 83 3f fd fc 84 3f
       1.0282636 1.0284863 1.0306227 1.0389706
000310 d7 ed 80 3f f8 dd 82 3f 90 e2 80 3f b5 74 84 3f
       1.0072583 1.022399 1.0069141 1.0348116
000320 2d 50 84 3f 5a 56 82 3f c5 69 85 3f 49 d2 82 3f
       1.0336968 1.0182602 1.0422903 1.0220424
000330 c0 8b 83 3f 47 ee 84 3f 68 80 85 3f 2b 11 83 3f
       1.0277023 1.0385216 1.0429811 1.0239614
000340 ed 5e 81 3f 8e 4b 83 3f 6b 2b 81 3f 99 8a 82 3f
       1.0107094 1.0257432 1.0091375 1.0198547
000350 da 65 83 3f dd 85 84 3f 1f d6 81 3f 59 3a 83 3f
       1.0265458 1.0353352 1.014347 1.0252181
000360 a8 bf 83 3f 94 62 83 3f b3 cc 83 3f 6d 2f 82 3f
       1.0292864 1.0264459 1.0296844 1.0170723
000370 c1 a3 82 3f c3 c7 82 3f 1f 3c 84 3f 64 86 84 3f
       1.0206224 1.0217212 1.0330848 1.0353513
000380 d8 e2 7f 3f a7 d7 80 3f 1f 7d 83 3f b4 bb 80 3f
       0.9995551 1.0065812 1.0272559 1.0057282
000390 05 fa 85 3f 2c b3 83 3f 4d df 82 3f 20 23 84 3f
       1.0466925 1.0289054 1.0224396 1.0323219
0003a0 85 c6 82 3f 8d 34 85 3f 07 b2 82 3f 2e e0 80 3f
       1.0216833 1.0406662 1.021058 1.0068414
0003b0 c9 0c 83 3f 1f ac 82 3f 81 db 7f 3f 5b 8a 83 3f
       1.0238277 1.0208777 0.9994431 1.0276598
0003c0 f5 79 84 3f ca d0 82 3f 1e 6f 83 3f e8 cd 85 3f
       1.0349718 1.0219967 1.0268285 1.0453463
0003d0 a0 80 84 3f 3b 75 85 3f f5 69 84 3f 7c f4 82 3f
       1.0351753 1.0426401 1.0344836 1.0230861
0003e0 7b d2 85 3f 20 0d 82 3f 1b b5 81 3f 85 93 83 3f
       1.0454859 1.0160255 1.0133394 1.0279394
0003f0 55 35 84 3f 3c cd 80 3f 8b ec 82 3f a6 a2 82 3f
       1.0328776 1.0062633 1.0228437 1.0205886

0.bn_red.bias f4 [256]
000000 69 53 4b bd 08 35 fc 38 07 d1 09 bd 08 7b 10 bd
       -0.049640093 0.00012026174 -0.03364661 -0.03527358
000010 de 5c 36 be 8f 2e 06 be 4d fd 1f bd 30 54 df bd
       -0.17808864 -0.13103698 -0.039059926 -0.10904729
000020 d2 cc ee bc 7a 11 a5 bd aa b8 d8 bd 9c bb 64 bd
       -0.0291504 -0.08059974 -0.10582097 -0.05584298
000030 d3 fb 06 bd d8 3e 01 be 99 fc 4a be b0 62 d1 bd
       -0.032955002 -0.12621629 -0.19822921 -0.10223901
000040 54 5f 16 bc 7a b3 78 bd 17 56 08 bd 55 5a 40 be
       -0.009178001 -0.060718037 -0.033285227 -0.18784459
000050 d5 3d 8c bd 9e 1e d5 bd 70 ff 6b ba 8a dd 7a bd
       -0.06847731 -0.104062304 -0.0009002602 -0.061246432
000060 63 96 1a be c4 cd ab bd 77 9f 69 bc cd 30 fe bd
       -0.1509643 -0.08388856 -0.014259211 -0.12411652
000070 02 52 fa bd 18 3a 14 be 52 7b ee bd aa dd a6 bd
       -0.12222673 -0.14475286 -0.11644615 -0.08147748
000080 95 0e c3 b9 8b 4d c1 bd fa 0c 18 bc 53 19 f8 bd
       -0.00037204163 -0.09438618 -0.009280438 -0.12114205
000090 62 73 a3 bc ba 8c 36 bd ab 70 79 bc 2e 9d ff ba
       -0.01995248 -0.0445678 -0.015224616 -0.0019501799
0000a0 ec a9 0d be d5 42 af bc 9d c2 e1 bd 96 d2 da bb
       -0.13834351 -0.021394173 -0.11023448 -0.006677936
0000b0 e6 a6 85 bd 74 d7 39 bd 4d de a0 bd 9d 44 e9 bb
       -0.06525974 -0.045371488 -0.078549005 -0.007118775
0000c0 8d d9 b2 bc 87 66 c6 bd 50 58 a1 ba d7 79 e9 bc
       -0.021832252 -0.09687524 -0.0012309644 -0.02850048
0000d0 d0 05 db bd bc cc 5a bd 0f 0a ac bd 4a 78 c0 bd
       -0.10694468 -0.053417906 -0.08400356 -0.09397943
0000e0 0a fb c8 bd b9 4c 39 be 6d 88 08 be 48 d9 1b bb
       -0.09813507 -0.18095674 -0.13333292 -0.0023780633
0000f0 37 fd 08 bb 1f 93 dd bd 6c 46 f4 bd b8 d6 c7 bd
       -0.002090288 -0.10819077 -0.119274944 -0.09757751
000100 98 eb 0b bd 50 2a c3 bc d6 6e a9 bd b8 97 9f bd
       -0.034160227 -0.023823887 -0.082730934 -0.0779261
000110 3d 76 0b be ac 74 8e bb d5 80 9d bc 37 fd 8a bd
       -0.13619323 -0.0043474045 -0.019226471 -0.06786578
000120 6e 2b 58 bd de 34 63 bd c5 83 eb bd 8e d3 19 bd
       -0.052775793 -0.05547034 -0.114997424 -0.03755527
000130 33 32 2d bd 6c ff 0b be 31 d1 fb bd 24 1f 4e be
       -0.0422842 -0.13671654 -0.122957595 -0.20129067
000140 5d ee 76 bc be b9 2d be 48 af cc bd 42 39 c8 bd
       -0.015071479 -0.16965386 -0.0999437 -0.09776546
000150 a7 12 07 be 0c 67 4d be dd 54 d6 bd 42 ec 18 be
       -0.13190709 -0.2005884 -0.10465405 -0.14933875
000160 16 47 04 bc 0b 64 81 bc 66 5d 09 bd 82 5f 4f bd
       -0.008073589 -0.015794775 -0.033536337 -0.050628193
000170 89 dc 42 bd 56 e7 27 be 41 5f 0a be 89 9a 05 bc
       -0.0475736 -0.16396841 -0.13512899 -0.00815452
000180 8a d7 3d bc 30 79 27 bd a8 38 e3 bd 49 c0 fd bd
       -0.011587033 -0.040887058 -0.11094791 -0.12390191
000190 cd a1 36 bc f9 05 e1 b9 e1 ea 17 be 9e 7b a5 bc
       -0.011146975 -0.00042919794 -0.14835693 -0.020200547
0001a0 ad 62 c0 bd 99 1d 81 ba 34 25 2a be 50 65 ba bc
       -0.09393821 -0.000985074 -0.16615754 -0.022753388
0001b0 de 4a 29 be 01 cd a5 bd f3 40 9b bd 89 a9 11 be
       -0.16532466 -0.08095742 -0.075807475 -0.14224829
0001c0 e7 ae 26 bd d8 19 33 bd be c1 26 bd 3b 15 b4 bd
       -0.040694144 -0.04372582 -0.04071211 -0.08793112
0001d0 53 fc 06 bc 64 76 41 be f2 9b 80 bd 24 cd 59 bd
       -0.00823887 -0.18892819 -0.06279744 -0.053174153
0001e0 e2 0f 96 bd 11 34 32 be b5 a2 f9 bd 56 89 e9 bd
       -0.07327248 -0.17402674 -0.12189237 -0.11403148
0001f0 5f 44 84 bd ea d3 2f bd 25 16 3f bd 5f 31 38 be
       -0.06458353 -0.042926706 -0.046651978 -0.17987584
000200 a3 a1 fb bd e3 95 f6 bd 57 0f 56 bd c0 b4 b1 bd
       -0.12286689 -0.120403074 -0.052260723 -0.086770535
000210 8c 3a a3 bc e7 75 44 bd a2 df ab bd e8 5f 91 bb
       -0.019925378 -0.047964003 -0.08392264 -0.0044364817
000220 1b 2d cd bd 11 5c ae bd 96 6d 8c bd fb ad 26 bb
       -0.10018369 -0.08513654 -0.06856839 -0.002543329
000230 2c ac 2a bd ea 2f 07 be 71 2b f6 bd c7 29 93 bc
       -0.041668102 -0.13201872 -0.120200045 -0.017964257
000240 ef a4 d3 bd 44 04 ee bc 0f 31 d6 ba 92 97 00 be
       -0.10334193 -0.029054768 -0.0016341525 -0.1255782
000250 7b 56 3d be d2 90 3f be 88 da f1 bd 46 1b aa bd
       -0.18490021 -0.18707588 -0.1180926 -0.08305983
000260 de 4b 75 bd 08 06 da bd 6d 8c 21 be c0 b4 09 be
       -0.059886806 -0.106456816 -0.15776224 -0.13447857
000270 dc e9 83 bc 88 47 1d be 01 bf 02 ba 51 da 0d be
       -0.016102724 -0.15359318 -0.0004987568 -0.13852812
000280 8f 60 60 bd f5 a2 59 bd 4d fd e9 bd fc 50 2c bd
       -0.054779585 -0.053133924 -0.114252664 -0.04206942
000290 f6 4a ec bd 51 0d 4f bd 98 8c a3 bd a5 a4 d2 bd
       -0.11537735 -0.05054981 -0.079858005 -0.1028531
0002a0 19 6b 23 bd 01 ae fe bd 04 0f 8d bc 3c 21 a8 bd
       -0.03989706 -0.12435532 -0.017219074 -0.08209464
0002b0 16 0e 39 bd fe 4f 24 be 87 68 7f bd 01 6c 10 be
       -0.04517945 -0.1604614 -0.062355544 -0.141037
0002c0 3f 25 38 bd 5a 98 02 be cf 63 00 be 83 ac 8e bd
       -0.044957396 -0.1275343 -0.12538074 -0.06966498
0002d0 61 92 fe bd e3 9d 1d bd 5a 0c 2f be 6a a6 09 be
       -0.12430263 -0.03848065 -0.17094555 -0.13442388
0002e0 f4 b7 85 be be 65 b3 bc ee ea 21 bd 52 75 55 bd
       -0.26116908 -0.0218991 -0.039530687 -0.05211384
0002f0 26 e5 ee bd 0d f9 98 bd 1c e7 ad bd 0e c4 00 be
       -0.116648 -0.07469378 -0.08491346 -0.12574789
000300 3e 57 a5 bd ad 73 c5 bd ea 78 1d be b3 91 0b be
       -0.08073281 -0.09641204 -0.15378156 -0.13629799
000310 24 18 c2 bc ff 11 aa bd 78 60 4f bc 08 57 0f be
       -0.023693152 -0.08304214 -0.012657277 -0.13998044
000320 46 56 ff bd 7d 0e 77 bd 9f 44 5c be 10 b1 93 bd
       -0.12467627 -0.06031655 -0.21510552 -0.07211506
000330 fe 13 d3 bd 63 ff 12 be 01 e1 49 be df 17 c4 bd
       -0.103065476 -0.14355235 -0.19714738 -0.095748655
000340 c5 d8 10 bd 8a 92 be bd ee 3d a6 bc 99 16 6e bd
       -0.035362978 -0.09305294 -0.020293202 -0.05812702
000350 7b 01 a0 bd da 35 4c be 38 69 ea bc 9f c8 bc bd
       -0.078127824 -0.19942418 -0.028614625 -0.09217953
000360 c8 54 f5 bd b5 b0 8f bd 4f 3e 9c bd 8f 7e 12 bd
       -0.11979061 -0.07016126 -0.07629072 -0.035765227
000370 f2 c0 68 bd 28 5f 90 bd f2 23 f7 bd 6b e4 0f be
       -0.056824632 -0.070493996 -0.12067403 -0.14051978
000380 f3 be db b9 ad 1b 8a bc 81 be c3 bd c2 9c 60 bc
       -0.00041913203 -0.0168589 -0.0955782 -0.013709249
000390 7f b7 3d be 45 7f e9 bd 08 fa 8d bd dd ee ce bd
       -0.1852703 -0.11401228 -0.06932455 -0.10104153
0003a0 e8 33 60 bd 5d 8e 0e be a4 35 a5 bd 51 32 78 bc
       -0.054737 -0.13921495 -0.08066872 -0.015148715
0003b0 ef ca b5 bd 68 24 a4 bd a5 3c 0d ba 53 a3 02 be
       -0.08876597 -0.080147564 -0.000538776 -0.12757616
0003c0 cc 3d f2 bd 4d ce e6 bd b6 f5 2d be 45 ef 67 be
       -0.11828193 -0.112698175 -0.16988263 -0.22649868
0003d0 9b 2f f4 bd d8 5a 11 be 91 62 01 be 55 aa b2 bd
       -0.119231425 -0.1419481 -0.12635256 -0.087238945
0003e0 56 36 4a be 71 4e 1d bd 53 1f 81 bc b4 dd 9f bd
       -0.1974729 -0.038404886 -0.015762007 -0.078059584
0003f0 38 7e fb bd 18 5d 9b bc 18 20 9c bd d5 71 5d bd
       -0.12279934 -0.018965289 -0.07623309 -0.054063637

0.bn_red.running_mean f4 [256]
000000 d4 70 dc 3c cc 05 48 3c 1f a9 91 3c f9 89 ca bc
       0.02690927 0.012208413 0.017780839 -0.024723994
000010 4e 05 f1 bc c2 13 9f 3c c6 33 8d 3c 50 ea 0b 3d
       -0.029421475 0.019418601 0.017236602 0.034159005
000020 93 c5 8e 3c f7 d9 d9 3c d1 9e 5d 3c ac 42 16 3d
       0.017428195 0.026593192 0.013526634 0.036684677
000030 f9 86 5e bc f9 da bc bc f8 25 c5 3b 45 22 cb bb
       -0.013581985 -0.023053633 0.006016489 -0.0061991536
000040 78 f5 46 bd 59 a0 7b 3c fe 4a a6 bc a3 e5 cd bb
       -0.04857394 0.015358054 -0.020299431 -0.0062834783
000050 d5 3f e8 bb 8a a9 f5 3c 7d 3c fe bc ac e3 b8 3c
       -0.0070876875 0.02998807 -0.031034702 0.0225695
000060 fe 2c fa bc 63 8f ff 3c bb 1e 07 bd 3b 65 de bc
       -0.030539032 0.031196302 -0.03298829 -0.02714788
000070 78 88 13 bb 61 a1 5c 3c d5 c3 73 3c 67 55 ee bc
       -0.0022511762 0.01346621 0.014878233 -0.029093457
000080 e8 02 60 bc 7e 45 20 bd af bb b7 3b 24 d9 55 bc
       -0.013672568 -0.039128773 0.0056070904 -0.013052259
000090 2b 8c 0e bc 97 e3 92 bc a7 04 0d bd 45 3d e9 3a
       -0.008700411 -0.017930789 -0.034428265 0.0017794749
0000a0 0c ac 8f bb 9c 46 d2 3c eb d3 6f ba 79 05 e2 bc
       -0.0043845233 0.025668435 -0.00091487047 -0.0275905
0000b0 93 b6 cc 3a 12 02 14 bc 8e 3c c8 3c ae 22 d9 bc
       0.0015618376 -0.009033697 0.024442937 -0.026505794
0000c0 f1 38 f3 3c 4d ba 6b 3c cb ac e3 3c 78 f3 df 3b
       0.029690238 0.014387679 0.027792355 0.0068344437
0000d0 ad 94 4c 3c 00 17 39 3c a6 b0 db bc f3 4a be 3c
       0.012486619 0.0112969875 -0.026817631 0.023229098
0000e0 3b 0b 2e 3d a4 15 90 3c 96 dc 0f 3d 15 a3 0e bd
       0.04249118 0.017588444 0.035122477 -0.034823496
0000f0 84 90 d9 3c 65 fb 02 bd db 6f 98 bc 45 b6 bb 3c
       0.026558168 -0.03197803 -0.018608024 0.022914061
000100 6b a0 fc 3c 27 b8 42 bc 72 27 96 bb 0a e4 8d bc
       0.030838212 -0.011884726 -0.004582339 -0.017320652
000110 e1 13 d4 bc ed 23 03 3d e3 e2 00 bd 20 33 db bc
       -0.025888385 0.032016683 -0.031466376 -0.026757777
000120 b8 0a 04 bd 66 e7 ed bc d7 eb d2 bb 30 77 af 3c
       -0.032236785 -0.029041003 -0.0064368057 0.021419138
000130 b1 39 80 bc 0a 8f 52 bc 78 58 67 3c 94 53 28 3d
       -0.01565251 -0.012851486 0.014120214 0.04109533
000140 90 a0 f1 bc 71 04 7b bc e1 22 04 bc 12 f3 5c bc
       -0.029495507 -0.015320883 -0.008064956 -0.013485687
000150 aa 72 c0 bc 03 9f 14 3b 96 d6 20 3d 2a 24 17 3c
       -0.023492176 0.0022677786 0.039267145 0.009224931
000160 3c 40 8b bc ad 59 df bc d0 c1 1b ba de 3e 1d 3c
       -0.016998403 -0.02726444 -0.0005941661 0.009597508
000170 51 3c 44 3b bf 3b 12 3d 09 03 1b 3d d3 ad 19 bd
       0.0029943178 0.03570151 0.03784469 -0.037519287
000180 a9 72 f8 bc ab ce 3a bc 38 b0 a5 ba 39 20 ed 3c
       -0.030328112 -0.011401813 -0.0012641018 0.028946029
000190 f1 83 32 3b 94 6a af 3c 27 cc 91 bc 1c b4 7c bc
       0.0027239288 0.021413125 -0.017797543 -0.015423801
0001a0 30 ab b1 bc cd 60 02 bd 9a 7d a3 3c fb 71 85 3c
       -0.021688074 -0.031830598 0.019957352 0.016289702
0001b0 af 36 8e 3b 2f 6e 17 3d f1 af f5 3c 42 02 82 bb
       0.004340015 0.036970314 0.029991122 -0.0039675543
0001c0 3f 34 a7 3b 26 c5 d6 bc 56 9c 8d 3c 30 bb f2 bc
       0.0051026638 -0.026217055 0.01728646 -0.029630274
0001d0 94 49 de 3c d2 4a b9 3c 43 f4 63 3b 2b 66 27 bc
       0.027134694 0.022618685 0.0034783043 -0.01021723
0001e0 ca 09 18 bc 0a 16 66 bc 39 40 e7 bc d5 82 3a bc
       -0.009279678 -0.01404334 -0.028228866 -0.011383732
0001f0 49 0e a4 3c 05 2f 5e bc fe c7 3f 3b 88 b2 0e bb
       0.020026343 -0.013561015 0.0029263492 -0.0021773893
000200 74 5c f1 bb 7b bb 1c 3c 5b 95 13 bc f2 33 e9 3b
       -0.0073657576 0.009566183 -0.009007777 0.007116788
000210 1c 17 49 bd ab fb af 3a 7a 09 02 bc 31 d1 9e 3b
       -0.049094304 0.0013426443 -0.00793683 0.004846715
000220 2b e4 16 bd 48 73 1e bc ff b7 98 3c dc 4c 9f bc
       -0.03683869 -0.00967104 0.018642424 -0.01944583
000230 60 47 16 3d 8f 7d 84 3c 1a 9d e1 bc c3 ac d3 3c
       0.036689162 0.016173152 -0.027540732 0.025839215
000240 82 cd a6 3a 4a 4a 2d 3c cd 26 fc bc 5f 29 9d 3c
       0.0012726041 0.010576794 -0.03078022 0.019184766
000250 2d 1a 50 bc 53 08 55 bc f5 cc ca 3c ca 66 df 3b
       -0.012701553 -0.013002473 0.024755934 0.0068176733
000260 f9 81 06 bc 1e db 2c bd f1 75 07 3d 9e cb be bc
       -0.008209699 -0.042201154 0.033071462 -0.023290452
000270 a7 d5 ac bb 71 81 dc 3c e5 10 d3 3c cb ba ff bc
       -0.005274493 0.026917191 0.025764892 -0.031217
000280 e2 14 6c 3b 24 5d 5d bc 34 83 ce 3c 74 32 5a 3c
       0.003602319 -0.013510976 0.025209047 0.013317693
000290 b7 57 ac 3c a0 7c 92 bc 5f 3e b3 3c 43 c8 7a bb
       0.02103792 -0.017881691 0.021880327 -0.0038266338
0002a0 62 8b f5 bb e7 20 b2 3c 4e 03 ca bb 4f 3e 16 3d
       -0.0074934224 0.021744205 -0.0061649447 0.036680516
0002b0 fb 6e f4 bb 1c 1b f5 3c 7f e3 7e bc 41 9d d0 bc
       -0.007459519 0.029920153 -0.015557169 -0.02546561
0002c0 22 69 0b bd 99 d4 aa 3c dc 4c 8f bc 8a 65 a0 3c
       -0.03403581 0.020853328 -0.017492704 0.019579668
0002d0 83 b6 c5 3c 97 77 e9 bc 78 e8 1b bc 5d 58 3d 3d
       0.02413488 -0.028499408 -0.009515874 0.046226848
0002e0 66 fe a8 b9 b6 f8 ce 39 95 2a 05 3d d5 4a dc 3c
       -0.00032233 0.00039476686 0.032511313 0.026891151
0002f0 aa dd 17 bd 2f eb 88 bc 36 0c b3 3c 22 3d 11 3c
       -0.03707663 -0.016713707 0.021856409 0.008864673
000300 93 0f b4 3c 01 23 a2 3c 8d a3 ed bc 37 80 39 3b
       0.021980083 0.019792082 -0.029008651 0.0028305182
000310 0d a7 a0 bc f6 13 f7 3a 52 6f 27 3b f8 49 87 bc
       -0.019610906 0.0018850553 0.002554853 -0.016514763
000320 65 22 92 3c aa f7 db 3c 3a 0b 57 3d f5 84 f9 bb
       0.017838666 0.026851494 0.05250094 -0.0076147267
000330 32 fa ac bb 93 a0 e8 3c 2a e1 0e 3d 1d 31 f3 bb
       -0.005278849 0.02839688 0.034882702 -0.0074216262
000340 fe c0 ad bb db 76 bd bb d2 39 26 3d ca 7a ff 3a
       -0.0053025475 -0.005781991 0.040582485 0.001949155
000350 66 5a 8f bc 0c 98 e4 bc ba 1a a2 3c af 13 28 3d
       -0.01749916 -0.027904533 0.019788135 0.041034397
000360 b7 83 fb 3c 77 44 f7 3c 82 9c 76 39 f7 aa 90 3c
       0.030702455 0.030184014 0.00023518692 0.017659647
000370 3c 41 e0 bc 92 05 10 3d ea 29 92 bb 54 9f b0 3c
       -0.027374856 0.035161562 -0.004460563 0.021560349
000380 bb 80 1e bc 76 b0 89 3b 57 04 1f 3a 2c 7b 02 3d
       -0.009674246 0.004201944 0.00060660153 0.031855747
000390 ff ec a6 bc 2f dd cc bc cd 3d b7 bc 12 79 05 3d
       -0.02037668 -0.025007812 -0.022368336 0.032586165
0003a0 32 15 0f bc c9 36 ac 3c cb 50 f8 3c fc f4 e2 3c
       -0.008733081 0.021022217 0.030311963 0.027704708
0003b0 55 75 82 3c 40 4b 4a 3c 22 d8 bb bc ec ff bc bc
       0.015925089 0.012347043 -0.022930209 -0.023071252
0003c0 49 a2 91 3c ae 95 09 3d 38 12 23 bc 7b 05 80 bc
       0.017777579 0.03359001 -0.009953074 -0.015627613
0003d0 d9 2f f1 3a 6e e9 9c 3b e5 c6 a7 3c 78 f2 02 bd
       0.00184011 0.004788569 0.020480582 -0.031969517
0003e0 d3 b9 f0 bc c8 ea 07 bd af 41 ad bc 8d c3 cd 3c
       -0.029385483 -0.03318289 -0.021149484 0.02511766
0003f0 30 36 d5 3b ff 14 1a b9 dc 60 80 3c 48 3f 37 3c
       0.006506704 -0.00014694406 0.015671186 0.011184521

0.bn_red.running_var f4 [256]
000000 5b 46 9a 39 3d d3 b3 39 2f a9 a9 39 09 7c 6a 39
       0.00029425588 0.00034298925 0.00032360243 0.00022362186
000010 dc 84 5c 39 cb 42 84 39 bc 8c 6b 39 d7 b7 6e 39
       0.00021030329 0.00025226767 0.00022463774 0.00022765934
000020 ab e8 78 39 bf f3 5e 39 e5 35 61 39 e8 54 79 39
       0.00023737799 0.00021262372 0.0002147775 0.0002377812
000030 85 32 62 39 1c c6 74 39 fc d4 7b 39 41 3d 4c 39
       0.0002157186 0.00023343455 0.00024016568 0.00019477775
000040 dd 31 c4 39 ce e5 93 39 ea 87 a1 39 51 37 85 39
       0.00037421184 0.00028209243 0.00030809577 0.0002540895
000050 2b 20 80 39 0b 23 52 39 de 69 c9 39 d4 81 64 39
       0.0002443803 0.00020040215 0.00038416585 0.00021792139
000060 cd 37 42 39 2c 65 78 39 4d 14 94 39 6c 47 64 39
       0.00018522069 0.00023688813 0.00028243885 0.00021770381
000070 49 e9 4d 39 b9 72 6f 39 49 da 85 39 52 cf 99 39
       0.00019637229 0.00022835554 0.00025530372 0.000293369
000080 f6 d7 a5 39 57 f3 45 39 fd 7c 9e 39 d3 72 89 39
       0.00031632156 0.00018878035 0.00030229232 0.00026216227
000090 d6 1d 9e 39 4f 4c 61 39 1f 31 88 39 d7 50 b2 39
       0.00030158338 0.000214861 0.0002597654 0.00034011036
0000a0 f0 06 5a 39 99 12 a0 39 a7 2d 3d 39 c5 6e b9 39
       0.00020792685 0.00030531434 0.00018041451 0.0003536848
0000b0 02 ef 6e 39 c6 f0 7c 39 3e b2 7f 39 06 ca ee 39
       0.00022786486 0.00024122288 0.00024385095 0.00045545417
0000c0 11 72 7e 39 03 33 58 39 4f c2 a9 39 b1 3b 94 39
       0.0002426582 0.00020618369 0.00032378963 0.00028273233
0000d0 d2 c4 74 39 b4 7d 6c 39 8a bb 4b 39 07 f1 82 39
       0.00023342975 0.00022553542 0.00019429452 0.00024975112
0000e0 2e ef 48 39 7f 9e 4b 39 1b a2 6c 39 b7 c4 a4 39
       0.00019162588 0.00019418633 0.00022567103 0.00031427082
0000f0 5c 38 c7 39 f2 86 92 39 1e 12 52 39 88 47 80 39
       0.0003799823 0.00027947832 0.0002003391 0.00024467357
000100 bf 93 d0 39 b4 01 9e 39 9e 6a 7a 39 7e fd 81 39
       0.0003978293 0.00030137377 0.00023881576 0.00024793664
000110 ed 34 72 39 e4 3d ae 39 06 da a9 39 26 5f 72 39
       0.00023098635 0.00033233978 0.00032396632 0.00023114364
000120 36 d4 79 39 36 cf 7e 39 fc e9 68 39 ee 38 78 39
       0.00023825545 0.0002430052 0.0002221241 0.00023672331
000130 fa c0 72 39 13 5e 6f 39 22 e4 4a 39 91 70 44 39
       0.00023150808 0.00022827862 0.00019349207 0.00018733951
000140 12 da 85 39 95 1a 4e 39 47 ce 37 39 e7 2f 4f 39
       0.00025530212 0.00019655593 0.00017529084 0.00019758903
000150 63 a0 40 39 3d 54 67 39 ef e5 54 39 06 73 6a 39
       0.00018370296 0.00022061258 0.00020303552 0.00022358829
000160 f4 ca f4 39 ae ac c6 39 5a b4 6e 39 57 54 69 39
       0.00046690519 0.0003789416 0.00022764635 0.0002225203
000170 20 1a 85 39 d0 dd 54 39 ed 0f 84 39 95 d1 b6 39
       0.00025387201 0.00020300527 0.00025188868 0.00034869896
000180 17 57 ea 39 b5 7c 81 39 3f 29 4c 39 4e 2e 7d 39
       0.00044696845 0.0002469771 0.00019470321 0.0002414521
000190 63 05 8d 39 2d e4 a8 39 61 a2 8a 39 84 76 a4 39
       0.0002689763 0.0003221346 0.00026442393 0.0003136882
0001a0 aa 46 6c 39 3d be c5 39 9c a2 86 39 ee b1 5d 39
       0.00022533038 0.00037716507 0.00025679625 0.00021142486
0001b0 f1 da 5a 39 7b 57 4d 39 84 a7 88 39 96 19 57 39
       0.00020871662 0.00019582913 0.0002606475 0.0002051353
0001c0 6f df 90 39 50 3b 9f 39 04 16 a5 39 c9 50 4f 39
       0.0002763229 0.00030371035 0.00031487655 0.00019771153
0001d0 e7 cc 93 39 cc d8 65 39 e5 52 3d 39 dd 93 7f 39
       0.0002819069 0.00021919905 0.00018055325 0.00024373778
0001e0 b0 3a 74 39 29 e5 49 39 b4 82 7d 39 03 91 64 39
       0.00023291516 0.00019254223 0.00024176651 0.00021797795
0001f0 8d eb 85 39 c4 68 9c 39 89 cd 72 39 c5 7e 3a 39
       0.00025543236 0.00029832695 0.00023155486 0.00017785568
000200 88 ab 72 39 5b 06 6c 39 d6 56 82 39 b9 96 2f 39
       0.00023142819 0.00022509081 0.0002486023 0.00016745449
000210 d8 dd 9c 39 e7 33 6c 39 9b 07 89 39 46 42 9d 39
       0.00029919925 0.00022526049 0.00026136343 0.0002999475
000220 0f 75 92 39 a6 eb 60 39 ce 5e 65 39 a6 7e e4 39
       0.00027934505 0.0002145009 0.0002187446 0.0004358191
000230 cc 00 5e 39 6d b6 5c 39 4f 3f 64 39 09 bc 9f 39
       0.00021171867 0.00021048794 0.00021767359 0.0003046694
000240 a8 a1 5e 39 a4 e1 84 39 36 17 a8 39 04 56 60 39
       0.00021231791 0.00025345117 0.0003206075 0.00021394348
000250 8a e2 49 39 2f 36 79 39 83 c6 62 39 63 a6 5d 39
       0.00019253246 0.00023766675 0.00021626991 0.00021138186
000260 63 17 60 39 bf 96 24 39 6c b6 61 39 6d ac 74 39
       0.00021371017 0.00015696416 0.0002152563 0.00023333887
000270 8e c0 8f 39 f8 4d 72 39 8f 5c cb 39 17 e4 56 39
       0.0002741855 0.00023107964 0.0003878814 0.000204936
000280 b8 79 80 39 d5 bc 89 39 3c ab 4d 39 5e 15 36 39
       0.0002450475 0.00026271367 0.00019614113 0.00017364832
000290 31 db 4a 39 05 95 6b 39 da 70 6f 39 24 19 52 39
       0.00019345876 0.0002246686 0.00022834857 0.00020036526
0002a0 7f 14 b8 39 14 ff 4c 39 50 93 90 39 f3 2d 87 39
       0.00035110486 0.0001954998 0.00027575577 0.0002578344
0002b0 87 91 93 39 e0 33 70 39 f0 8b 99 39 cc 82 6b 39
       0.0002814645 0.00022907509 0.00029286696 0.00022460072
0002c0 75 24 9e 39 84 ef 53 39 dd 6c 4e 39 67 b2 69 39
       0.0003016327 0.00020211755 0.00019686246 0.00022287072
0002d0 29 c2 6c 39 d6 30 7f 39 be e8 4b 39 4a 4b 64 39
       0.00022579044 0.00024336888 0.00019446292 0.00021771822
0002e0 6a fa 6a 39 15 86 a3 39 28 37 71 39 97 1c 8b 39
       0.00022409266 0.00031189682 0.00023004098 0.00026533447
0002f0 06 4f 75 39 8c ff a1 39 1a 4a 50 39 35 bc 59 39
       0.0002339446 0.0003089871 0.00019864031 0.00020764845
000300 49 0f 42 39 04 2f 4c 39 d9 61 61 39 ac c0 52 39
       0.00018506976 0.00019472471 0.00021494123 0.00020098937
000310 90 32 84 39 a1 f3 65 39 f7 92 80 39 60 73 3c 39
       0.00025214674 0.000219299 0.0002452356 0.00017972058
000320 23 88 5e 39 e1 ce 73 39 a5 6a 50 39 d5 74 6e 39
       0.00021222285 0.00023251354 0.00019876154 0.00022740972
000330 84 f3 6e 39 b9 90 30 39 b0 3d 49 39 7d ab 74 39
       0.00022788165 0.00016838581 0.00019191834 0.00023333538
000340 07 91 94 39 2f d9 65 39 17 b4 ab 39 60 50 7f 39
       0.00028336814 0.00021920049 0.0003274984 0.00024348637
000350 fa e8 7b 39 e8 3d 3c 39 02 11 83 39 3b e7 56 39
       0.00024024016 0.00017952139 0.0002499894 0.0002049477
000360 9c 99 5e 39 e9 29 8f 39 21 e5 51 39 6f 19 86 39
       0.00021228794 0.0002730631 0.0002001715 0.0002557742
000370 69 d9 6b 39 f1 9e 6e 39 ec 9a 3f 39 57 63 8e 39
       0.00022492338 0.00022756659 0.00018272892 0.00027158365
000380 69 34 12 3a 86 d4 90 39 2d f3 6a 39 74 3a 80 39
       0.0005577268 0.00027624163 0.00022406569 0.00024457613
000390 90 38 53 39 fd ab 4f 39 57 aa 76 39 b8 83 68 39
       0.00020143599 0.00019805129 0.00023523845 0.00022174313
0003a0 06 63 4c 39 2e 7d 3a 39 6a 3f 8b 39 e8 9d bb 39
       0.00019491845 0.00017784975 0.00026559393 0.0003578507
0003b0 ba 46 74 39 6e f8 87 39 38 d4 ef 39 9b d3 53 39
       0.00023296001 0.000259343 0.00045743748 0.00020201357
0003c0 a2 cc 86 39 2d 92 82 39 a1 87 4b 39 68 e8 63 39
       0.00025710935 0.00024904442 0.00019410114 0.00021734985
0003d0 e6 a2 61 39 a6 9d 3f 39 51 3e 5f 39 64 32 76 39
       0.00021518357 0.00018273908 0.00021290152 0.0002347916
0003e0 fe 57 57 39 4f dc a2 39 d8 1e 8e 39 c9 e0 4f 39
       0.00020536777 0.0003106319 0.0002710733 0.00019824797
0003f0 9e f4 64 39 f4 1c d7 39 a6 9d 4c 39 ca e8 8f 39
       0.00021834901 0.00041029567 0.00019513685 0.00027448527

1.weight f4 [1, 256]
000000 8a 8a 59 3e c7 54 7e bc 7e c5 19 be ce c5 24 be
       0.21244255 -0.015523142 -0.15016744 -0.16091082
000010 97 35 a2 be c0 84 88 be 16 a2 1d be f5 8e 90 3e
       -0.3168151 -0.2666378 -0.15393862 0.28234068
000020 6e 45 1b 3e d5 30 65 3e 93 90 93 3e 90 a0 46 be
       0.15163204 0.22381909 0.2882124 -0.19397187
000030 cf c6 2d 3e 41 ba 89 be 93 1c b6 3e 48 cd 91 3e
       0.1697037 -0.26899913 0.35568675 0.2847693
000040 6b 81 eb 3d fc 5a 5c 3e f5 76 19 be ba e7 b8 3e
       0.11499294 0.21519083 -0.14986785 0.36114293
000050 0c 72 68 be b5 2c 88 be 50 1b 14 bd c5 b4 5a be
       -0.22699755 -0.2659661 -0.03615886 -0.2135802
000060 e3 08 a1 3e 59 9b 79 3e 7a 8f e8 3d 55 5d 83 be
       0.31452093 0.24375667 0.11355491 -0.25657144
000070 6f 7c 91 be c9 f8 9b be 50 ec 8e 3e 8f 74 73 be
       -0.28415248 -0.30463246 0.27914667 -0.23774932
000080 73 c0 35 3c e3 a6 87 be 45 cf 8c bd ac 05 86 be
       0.011093247 -0.26494512 -0.06875471 -0.26176202
000090 2b b4 07 be 28 22 4a 3e 7e 2d 06 be ba ef 94 bd
       -0.13252322 0.19739592 -0.13103291 -0.07272287
0000a0 f1 f6 a4 3e c9 e4 0d be 20 82 86 be fe 8f ae bd
       0.3221965 -0.13856806 -0.26271152 -0.08523558
0000b0 18 e8 5d 3e b4 7f 4d be 12 ab 84 3e 40 14 f3 3d
       0.21670568 -0.20068246 0.25911766 0.11869097
0000c0 31 e7 29 3e cf 0e 84 be 5f e5 e9 bb aa fd 1f be
       0.16592099 -0.25792548 -0.007137939 -0.15624109
0000d0 83 47 7a be 8d 79 43 be 47 d7 8d be 9f 83 68 be
       -0.24441342 -0.19089337 -0.27703306 -0.2270646
0000e0 33 3a 83 be 57 af a8 be b1 d0 9b 3e 9c ea 3e bd
       -0.2563034 -0.32946274 0.30432656 -0.04661046
0000f0 f2 e6 82 3d 83 4d 88 be 08 99 8d be 26 41 90 3e
       0.063917056 -0.26621637 -0.27655816 0.28174704
000100 4f 13 26 3e 41 b4 10 3e e0 0b 7e be de 7f 7f 3e
       0.16218303 0.14131261 -0.24809217 0.24951121
000110 b0 3b a4 3e 3b 35 c8 3d c2 82 e4 bd 6d ba 52 be
       0.32076788 0.09775778 -0.111577526 -0.20578928
000120 69 39 54 3e 15 87 45 3e 9e 8e 86 be c2 f0 5e 3e
       0.20725025 0.19289811 -0.26280683 0.2177153
000130 d0 99 19 be 51 38 8d be fa 65 90 be a6 26 cb 3e
       -0.15000081 -0.27582029 -0.28202802 0.39677924
000140 b9 bd 05 3e df 60 a7 3e 8b e2 90 3e 19 fa 89 3e
       0.13060655 0.32691094 0.2829784 0.26948622
000150 53 0d 8c be 4d 5e c0 3e b3 ce 83 be c9 67 a0 be
       -0.27353916 0.37571946 -0.25743636 -0.31329182
000160 d2 67 80 bd d8 05 ad bd 1f 6b 1b be 67 72 4d be
       -0.06269802 -0.0844838 -0.15177582 -0.20063172
000170 df 71 54 3e f8 c0 ad 3e 8b 72 97 be 44 2d cd 3d
       0.20746563 0.33936286 -0.29579577 0.10018399
000180 07 c5 bc 3d 41 57 33 3e 32 90 95 3e 82 3a 8e be
       0.092172675 0.17513753 0.29211575 -0.27779013
000190 d5 86 d0 bd 09 42 a0 bc f3 8e a4 3e 8a 5c 03 be
       -0.10181967 -0.019562738 0.32140312 -0.1282827
0001a0 9d 13 77 be 0c ab 71 3d 30 a6 9d be b5 01 1b be
       -0.24128576 0.059001014 -0.30790854 -0.1513737
0001b0 f9 0f a1 be 97 29 7d be 58 cb 6e 3e 35 68 9d be
       -0.314575 -0.24722897 0.23319757 -0.30743566
0001c0 72 4f 2b be 1a ba 2f be 92 41 36 3e 02 a7 8f 3e
       -0.16729525 -0.17160836 0.1779845 0.28057104
0001d0 63 03 05 3e db 62 be 3e 07 5c 5a be 56 d2 48 be
       0.12989573 0.37184796 -0.21324168 -0.19611487
0001e0 7d f8 55 3e 92 f5 b4 3e 1f fe a1 3e 20 cb 96 3e
       0.20895572 0.35343605 0.31639192 0.29451847
0001f0 89 cb 6a 3e a2 6f 45 3e b3 22 37 be 12 14 b2 3e
       0.22929205 0.19280866 -0.1788433 0.34780937
000200 6a 0b 95 be ce c1 95 3e 3a 9d 42 be d1 be 82 be
       -0.2911027 0.29249424 -0.1900529 -0.25536206
000210 69 aa 13 be a2 64 50 3e 63 93 87 3e 4b 65 99 bd
       -0.14420475 0.20350888 0.26479635 -0.07490023
000220 8b 36 79 3e aa 00 83 3e e0 f6 64 3e c6 8f a2 3d
       0.24337213 0.25586444 0.223598 0.07937579
000230 ca 1e 50 be 47 43 95 be e5 ff 9c 3e 2b a3 0d be
       -0.20324245 -0.2915289 0.30663982 -0.13831775
000240 74 7c 97 3e fe 72 3e 3e cb 75 d6 bc 23 d7 9c 3e
       0.29587138 0.18598554 -0.026179215 0.30632886
000250 80 af b5 be da 41 b5 be 43 6e 88 be 9e 4d 8b be
       -0.35485458 -0.35401803 -0.26646623 -0.27207655
000260 bc 92 70 3e c1 d2 8a 3e 17 b9 ab 3e c2 82 a8 3e
       0.23493475 0.27113917 0.3353965 0.3291226
000270 19 d6 18 3e c7 02 9b be 8a 0b 1c 3d a7 53 a0 be
       0.14925422 -0.30275556 0.038096942 -0.31313822
000280 73 c7 55 be 65 04 3d be f3 9e 87 be fb 19 3e be
       -0.20876865 -0.18458708 -0.26488456 -0.18564598
000290 2f cc 99 be cb 40 4d 3e 7f 2f 6f be a1 e6 8f be
       -0.30038592 0.20044248 -0.23357962 -0.28105643
0002a0 8c 65 26 be 6e 12 98 be 29 06 10 3e 91 2a 7e 3e
       -0.16249675 -0.2970156 0.1406485 0.24820925
0002b0 36 4b 37 be f5 bf a1 be c6 62 39 be 83 11 a5 3e
       -0.17899784 -0.31591764 -0.18104085 0.32239923
0002c0 d8 7e 25 be e3 76 a0 3e 64 96 9f 3e 45 38 53 3e
       -0.16161668 0.31340703 0.31169426 0.20626934
0002d0 68 31 88 be 98 c7 2b be ba 6a bc 3e 79 60 a0 3e
       -0.26600194 -0.16775358 0.36800176 0.31323603
0002e0 13 16 e3 3e 45 55 16 3e a5 00 26 be 67 f2 57 3e
       0.4435278 0.14680965 -0.16211183 0.21088563
0002f0 39 3d 8e 3e f8 ae 4b be 14 3c 89 3e fa 28 95 be
       0.27781084 -0.19890964 0.26803648 -0.29132825
000300 f1 10 83 3e 27 6c 85 be 47 0b 98 be c1 b7 a2 3e
       0.25598863 -0.26059076 -0.29696104 0.31780818
000310 04 ed 02 be 1d ae 71 be d3 56 00 3e 28 d2 9c be
       -0.12785727 -0.23601575 0.12533121 -0.30629086
000320 4c 9a 97 3e 20 56 52 3e 3b 43 bd be 4c 0c 66 be
       0.29609907 0.20540667 -0.36965355 -0.22465628
000330 7a 34 85 be 50 ea a1 be ac f8 b8 be 96 60 7d be
       -0.260166 -0.3162408 -0.36127222 -0.24743876
000340 5a ae 23 be 1a 06 80 be c8 60 14 3e 33 4c 59 3e
       -0.15984479 -0.25004655 0.14490044 0.21220474
000350 37 64 7c 3e e5 a2 ad be 91 da 33 be 5e 21 7e be
       0.24647604 -0.3391334 -0.17563845 -0.24817416
000360 22 aa 8d 3e d3 c8 7e 3e 6f 7e 84 3e ca f0 43 3e
       0.27668864 0.24881296 0.2587771 0.19134822
000370 49 7c 5c 3e 3f 83 64 be 4b 5a 96 3e a1 ab 9e 3e
       0.21531786 -0.22315691 0.29365763 0.30990317
000380 28 ee bc bb e6 2a f7 bd 36 af 84 be fe 3c e5 bd
       -0.005765695 -0.12068729 -0.25914925 -0.11193274
000390 dd 15 bb 3e 2a 45 8a 3e 00 13 68 3e 59 86 90 3e
       0.36540118 0.27005893 0.22663498 0.282275
0003a0 cd 46 5f 3e f4 c8 a4 3e 8e e9 68 be 3f 68 f9 bd
       0.21804352 0.32184565 -0.22745344 -0.121780865
0003b0 f4 ac 79 be 24 c3 64 be 49 56 86 bb 56 c0 8b be
       -0.24382383 -0.22340065 -0.0040996415 -0.27295178
0003c0 b4 fb 95 3e f3 71 7b be 28 78 96 be 92 f7 c4 be
       0.29293597 -0.24555187 -0.29388547 -0.3847013
0003d0 c3 0f 99 3e f8 ba aa 3e 6e e1 97 3e b3 a6 73 be
       0.29894838 0.3334577 0.29664177 -0.2379406
0003e0 35 0b bd 3e b3 df 3e 3e 7f 11 2b 3e b8 51 81 3e
       0.36922613 0.18640022 0.16705893 0.2525766
0003f0 6a 71 93 3e f9 6b f1 3d 20 37 6b be e0 84 5a 3e
       0.28797466 0.11788172 -0.22970247 0.2133975
