weights/just_ethics.pt (torch, 796549 bytes, 7 tensors)

0.fc_red.weight f4 [256, 768]
000000 81 5c cf 3c 64 82 77 3b 9c 35 cc bc b6 df aa 3b
       0.025312664 0.0037766928 -0.024927907 0.0052146567
000010 ac e8 54 bd 58 11 e1 3c 2c 1c 5e 3b 19 88 99 bc
       -0.051979706 0.02747409 0.0033891303 -0.018741654
000020 8b f7 fe bc 19 87 c1 bc 86 88 68 3d 0f 28 50 bc
       -0.031123897 -0.02362399 0.056770824 -0.012704863
000030 37 b4 e5 3c f2 e3 16 3c cb a8 34 3b f9 75 b1 bc
       0.028040035 0.00920962 0.0027566429 -0.021662699
000040 7d 25 dc 3c f8 df a1 3c 93 2a 5a 3c ce da 1d bc
       0.026873345 0.019760117 0.013315815 -0.009634687
000050 f8 81 11 bc c3 67 12 bd b3 9e 00 3c 40 e8 e1 bb
       -0.008881085 -0.035743486 0.007850337 -0.0068941414
000060 11 25 35 3b 4c 96 17 3c 60 5c e0 3b 57 a2 2b bc
       0.0027640502 0.009252142 0.0068469495 -0.010475717
000070 03 58 bd 3b e5 57 59 bc 1e 26 88 3b 0f 96 ab 38
       0.005778314 -0.013265585 0.0041549345 8.181866e-05
000080 11 74 ad bb 25 77 30 3c b4 c2 d7 39 77 3d 9e 3c
       -0.005293377 0.010770594 0.0004115306 0.019316418
000090 8c e7 21 bc be 29 2f 3c 64 1a 7b bc 7a eb fa 3b
       -0.009881865 0.010691104 -0.015326116 0.0076574655
0000a0 c8 86 20 bc 26 df f5 3c 34 bd ab 3c af a2 50 bc
       -0.009797759 0.030013632 0.020964243 -0.012734099
0000b0 55 86 a5 3c 87 a4 97 bc 1e b1 a2 bc 35 91 3e 3c
       0.020205656 -0.01851107 -0.019859847 0.0116313
0000c0 75 55 b8 3c 37 4a 89 bc 0b b4 24 3c 12 de c2 bc
       0.022501687 -0.016759021 0.010052691 -0.023787532
0000d0 9a 20 5c bc 8e 33 dc 3c 70 fb 6c bc e2 dd f0 3c
       -0.013435507 0.026880052 -0.014464244 0.029402677
0000e0 18 60 09 bc a6 ba 4d 3b 46 44 8f 3c 4e d9 a3 3a
       -0.008384727 0.0031391769 0.01748861 0.0012500675
0000f0 ae 8c 20 3d 88 28 04 bc ae b5 72 bc 6a d5 8a bb
       0.039196663 -0.008066304 -0.014813824 -0.0042368667
000100 30 63 8a 3a 8c 05 fc 3b 81 aa b9 3b 75 15 1c bb
       0.0010558125 0.007691091 0.0056660776 -0.00238165
000110 e9 f1 e5 3b e2 ce a3 3c 2b 63 bf bc 35 f4 a8 bc
       0.0070173633 0.01999611 -0.023362717 -0.02062426
000120 4e 3d e4 3c 0d ed 35 3d 9a f2 84 3c 44 29 b8 3c
       0.027861264 0.044415522 0.016228963 0.022480614
000130 1e 3a c5 3c 28 2b f8 bb dc 45 23 bd 2a 81 23 3d
       0.024075564 -0.007573504 -0.039861545 0.039918102
000140 0c f5 60 bc f0 9d be 3c 8e 5e 30 3c 43 9b 9e bb
       -0.013730299 0.02326867 0.010764731 -0.004840286
000150 c4 33 be bc 28 a8 e7 3a f6 9b 67 3c 02 80 55 3c
       -0.023218043 0.0017674016 0.014136305 0.013031008
000160 6b 37 2b bd ca 57 77 bc 15 ef f2 3c 48 c6 ae 3b
       -0.041800898 -0.015096614 0.029655019 0.0053336956
000170 78 c1 f7 3c 25 25 8e 3c 26 39 bd bb fb d1 5a 3b
       0.03024362 0.017351696 -0.005774635 0.0033389318
000180 96 22 b6 3c bc 40 13 bd 36 86 04 3b d2 79 78 3d
       0.022233289 -0.035950407 0.0020221598 0.060663052
000190 bb 72 a0 bc d5 56 99 3c 9b 23 df 3c d4 03 a5 bc
       -0.019585958 0.018718163 0.027238658 -0.020143427
0001a0 ff 95 66 bc 11 92 32 bd d5 3a 0a bd 0c 7b 38 3d
       -0.014073848 -0.04359633 -0.033747513 0.04503922
0001b0 23 7b ed bc 03 21 26 bc 1e 38 f7 3c 44 3d 87 bb
       -0.02898938 -0.010139707 0.030178126 -0.0041271765
0001c0 c1 3e 1e 3b 60 56 b1 bb 34 a8 bd bc 91 0f 1d 3c
       0.002414629 -0.005411908 -0.023151495 0.009586231
0001d0 a0 ed 2d 3c eb b9 1a 3d db 7a e1 ba e2 b9 c7 3c
       0.010615736 0.03777496 -0.0017202751 0.024380628
0001e0 40 c9 0d 3c 40 65 5f bc d5 0d e9 3c b3 19 94 3a
       0.008653939 -0.01363498 0.028448978 0.0011299163
0001f0 88 b7 95 3c cc f9 73 3c 9d 2c c3 bb ac d7 ec 3b
       0.018275991 0.014891099 -0.005956246 0.0072278585
000200 b3 eb e1 ba 44 dd 57 3d f9 69 fd ba 84 41 a4 bc
       -0.0017236382 0.05270125 -0.001933395 -0.020050772
000210 ee 59 02 3d 9d a8 c7 bb 8b e2 55 3d 08 7b 2e bc
       0.031824045 -0.0060930983 0.052218 -0.01064945
000220 96 db c5 3c c7 63 e7 bc 1b 19 44 bd 58 16 31 bd
       0.024152558 -0.02824582 -0.047875505 -0.0432342
000230 37 61 76 bc df e7 a3 bc 87 ad 43 3c 34 ce a7 3c
       -0.015037826 -0.020008026 0.011943228 0.020484067
000240 06 5e e3 3b 47 3a 11 bd 43 09 24 3b 75 13 02 3d
       0.0069386987 -0.03545597 0.0025029934 0.031756837
000250 4c a7 88 3c a2 f6 33 bb 42 f7 7c ba 74 92 f6 3c
       0.016681336 -0.0027460237 -0.00096498814 0.030099131
000260 f8 88 80 3b ce d0 71 ba ad 61 af 3b b3 59 4b bc
       0.003922578 -0.0009224535 0.00535222 -0.012411523
000270 7f 15 27 3b 50 e4 65 3c 74 c2 ae 3c 73 61 63 3c
       0.002549499 0.014031485 0.021332957 0.013878214
000280 72 d9 99 3c 4a ea 2d bd 10 1c 89 3c 2d 22 6e bc
       0.018780444 -0.042459764 0.016737014 -0.014534515
000290 3b 66 a6 3c 7f 04 13 3c 6a c0 61 bc e5 03 57 bc
       0.02031242 0.00897324 -0.013778785 -0.013123487
0002a0 c5 d6 07 bd 6e 1e 42 bd 86 65 00 3d bf e0 cf bc
       -0.033163805 -0.0473923 0.03134682 -0.025375722
0002b0 96 a4 40 3b 82 e1 3c bc e4 eb b6 bb 84 ce 79 39
       0.0029394976 -0.011528375 -0.0055823196 0.00023823424
0002c0 20 f3 4b 3c a7 af 41 3c 37 29 97 bc 9b 28 73 3b
       0.012448102 0.011821664 -0.01845227 0.003710306
0002d0 bc 7f e6 3b 33 93 08 bd 99 92 08 3d 71 56 04 bd
       0.00703427 -0.033343505 0.03334293 -0.032309
0002e0 77 ad 66 bc da 36 8b 3b 0c 0f 0d bd 14 79 8a bb
       -0.014079443 0.004248482 -0.034438178 -0.0042258594
0002f0 3f eb 16 3d 1c a7 c1 3c 82 97 f9 bc e0 88 13 bc
       0.036845442 0.023639254 -0.030467752 -0.0090048015
000300 cc e8 54 3c 2d f5 f5 3c 74 94 f9 bc 13 1e e3 bc
       0.012994956 0.030024135 -0.030466296 -0.027724301
000310 db 2f 8e bc cf aa c8 bc 31 01 6a bc d0 bf de 3c
       -0.017356804 -0.02449551 -0.014282511 0.027191073
000320 d0 d3 9a bc 15 8d c4 3a f0 87 19 3d a1 58 ea bc
       -0.018899828 0.0014995659 0.037483156 -0.028606715
000330 11 14 0a 3b b0 2f 3c bc 66 40 43 3c b8 be ea 3c
       0.002106909 -0.011485979 0.011917209 0.028655395
000340 a5 ac ab bc bf f9 f1 3c d4 b9 4f bb 02 a2 f4 3c
       -0.020956347 0.029538034 -0.0031696456 0.029862408
000350 95 c0 45 bc a2 4a 43 bc ce e6 73 bb cd c9 6f bc
       -0.012069841 -0.011919649 -0.0037216428 -0.014635515
000360 e1 15 11 bd 86 b8 97 bc 14 53 bb bc 08 5f 01 3c
       -0.035421256 -0.018520605 -0.022866763 0.007896192
000370 68 06 03 3a e5 6d bb bc d7 b0 cd 3c 04 bc f4 bc
       0.0004998208 -0.02287955 0.025108738 -0.02987481
000380 0b 05 91 3b 8d 83 6d 3c d3 80 26 3d 4c 5b c0 bb
       0.00442565 0.014496696 0.0406502 -0.0058702584
000390 7f 66 ee bc 4b 83 17 3c 75 cd 83 bc e4 31 19 bc
       -0.029101608 0.009247611 -0.01608918 -0.009350274
0003a0 8d 8c c3 3b 44 ec f2 bc 1e 54 84 3a fd d3 ed 3c
       0.0059676827 -0.029653676 0.001009587 0.029031748
0003b0 e5 d3 ec 3b 6b 2a b9 bc c0 0c 21 bc 25 39 9e 39
       0.0072274082 -0.022603234 -0.0098297 0.00030178684
0003c0 20 6a 78 bc cc 69 bd 3a cf 08 72 3c 3e 21 1f 3c
       -0.015162021 0.0014451086 0.014772608 0.009712515
0003d0 ac c6 41 3d 5c 1a 3f bc 20 c3 a6 bc 36 e9 b0 bc
       0.04730861 -0.011663999 -0.020356715 -0.021595579
0003e0 4a 3f 1e 3d 02 76 1e 3c 44 45 15 bd 5d 2c b4 bc
       0.038634576 0.00967169 -0.03644301 -0.02199381
0003f0 19 b8 55 bd 4a f4 e3 bc 7f e0 87 3c ed 10 bd b9
       -0.052177522 -0.027826447 0.01658654 -0.000360615

0.fc_red.bias f4 [256]
000000 56 01 c3 bb e3 8f bc 3b 6d 06 f2 3c 17 7e f8 3a
       -0.005951087 0.0057544573 0.02954408 0.0018958476
000010 16 0a 49 bb 00 b5 7d bc 79 28 12 bd 24 cd 49 bc
       -0.0030676178 -0.015485048 -0.03568313 -0.012316976
000020 10 b6 4c bc 42 7c d0 3c 55 c3 a0 3a 30 d3 6a 3c
       -0.012494579 0.025449876 0.0012265245 0.014332578
000030 86 dd bf bc 31 0a c8 3c b0 9b 65 ba 7a 79 13 3d
       -0.02342106 0.024418922 -0.0008758856 0.03600452
000040 f8 9b 0e bd 2e 18 9d 3a b7 fd 1d 3c e2 3b b9 3b
       -0.034816712 0.0011985356 0.00964301 0.0056528905
000050 76 c0 d3 bc 19 d0 b2 bc df 49 e1 3c 9a e7 75 bc
       -0.025848608 -0.021827744 0.027501045 -0.015008831
000060 8c c3 05 bc 4a 7f 00 3d f3 30 fc 3b 98 e4 cc bc
       -0.008164298 0.031371392 0.007696265 -0.025011346
000070 14 cd d0 bc 66 f2 a4 3c af ab ea 3c fc 14 63 bc
       -0.025488414 0.020135116 0.028646318 -0.0138599835
000080 ff 77 c7 bb 8e ef e6 3c d7 ae 82 bc 03 47 c8 bc
       -0.0060873027 0.0281904 -0.01595251 -0.024447924
000090 35 67 91 bc fc 92 aa bb 23 8e c0 bc 06 3c 96 3c
       -0.017749408 -0.00520551 -0.023505276 0.018339168
0000a0 85 68 4a bc ab a2 bb 3b dc c5 06 3d 6a bd a3 3a
       -0.012354021 0.0057261786 0.032903537 0.0012492363
0000b0 90 2a 49 3c 2c 34 d9 bb 3b cc 9d bc b5 ff 9e bc
       0.012278214 -0.006628534 -0.019262424 -0.01940904
0000c0 d2 ba f5 bc 99 7f 63 bc 7a 8a 90 3c 35 ca e8 3c
       -0.02999631 -0.013885402 0.017644156 0.028416732
0000d0 da 69 25 3c d6 4c 81 3c f7 cd 7e 3b 68 17 c4 3c
       0.010096038 0.015783709 0.0038880089 0.023936942
0000e0 69 8b 8b bc a2 04 d3 3c 64 f0 79 3c d5 7c 16 bc
       -0.01703425 0.025759045 0.0152550675 -0.009185036
0000f0 84 26 bb bb dd 57 47 bc c0 73 04 3d be 4e d1 3c
       -0.0057113785 -0.012166944 0.03233695 0.025550243
000100 2a 9f fe bc 90 e7 0f bd 10 72 39 3c 57 b2 b5 bc
       -0.031081755 -0.035132945 0.0113186985 -0.022179766
000110 63 2e 08 bb 1f eb 7a 3c d2 3b 7a bb d9 18 6a bc
       -0.0020779602 0.015314846 -0.0038182628 -0.014288151
000120 d0 87 9f 3c 8f 81 f3 bc c5 81 db bc ba 42 a6 ba
       0.01947394 -0.029724864 -0.026795277 -0.0012684681
000130 10 7c 78 bb 51 f8 d7 bb 13 2c 2d 3c 47 a7 13 bd
       -0.0037915744 -0.006590881 0.01056959 -0.0360482
000140 62 d5 c2 bb 54 4f 3b bb fe 3d d2 3c bf 25 90 3c
       -0.0059458474 -0.0028581219 0.025664326 0.017596124
000150 98 a0 e3 3c 65 a1 58 3c 5b f8 72 3c b2 88 fd bc
       0.027786538 0.013222073 0.01482972 -0.03094897
000160 c9 3b da 3c 4b e2 a4 3c 40 bb 05 3d e2 50 4e bc
       0.026639836 0.020127436 0.03264928 -0.012592526
000170 50 4d d7 3c 2b 1a bb 3c a1 c8 05 bd fa 06 0d bc
       0.026281983 0.022839626 -0.032662038 -0.00860762
000180 ac be d4 3c 38 81 e3 bc b6 8e c8 3c ff 63 a2 bb
       0.025969826 -0.027771577 0.024482112 -0.004955768
000190 d7 d4 8a 3a 7a 52 6a bc 3a eb fe bc 06 c1 bc bc
       0.0010591996 -0.0143018905 -0.031118024 -0.02304126
0001a0 8b cd 0c bd 19 ab 94 bb 28 12 09 3c 42 ef 8b 3c
       -0.03437571 -0.004536998 0.008366145 0.01708186
0001b0 ac 0e 09 3d 65 f4 9b bc c2 b6 87 3b 45 ba 06 3c
       0.033461258 -0.019037435 0.0041416595 0.008223121
0001c0 24 50 52 bc de 10 10 bd 94 b4 82 bc aa dc fa bc
       -0.01283649 -0.035172336 -0.015955247 -0.030622799
0001d0 5c ae a5 3c e8 c8 05 bc 35 5f 0f 3d fb a6 81 3c
       0.020224743 -0.008165576 0.035002906 0.015826693
0001e0 aa 23 75 bc d0 46 c6 3c 60 84 12 bd b2 14 4c bb
       -0.014962116 0.024203688 -0.035770774 -0.0031140265
0001f0 a7 2c 4a 3c 7e 75 0d 3d db 3d af 3b 42 db ee 3c
       0.0123397475 0.034535877 0.00534795 0.029157285
000200 c4 39 56 3c f2 bc 5b 3c 45 fb 85 bc 88 1f 0c bd
       0.013075296 0.013411747 -0.016355166 -0.034209758
000210 44 ea 50 bc a1 c6 00 bc 64 a8 05 bd f5 ad ab bc
       -0.012751166 -0.007859857 -0.032631293 -0.020956973
000220 2f 98 c5 3c ee 90 76 3c a9 2b 11 bd 1c f9 0e bd
       0.024120418 0.015049202 -0.03544203 -0.034905538
000230 25 fa b1 bb 31 99 12 bd 18 82 96 bc 18 db eb 3c
       -0.005431431 -0.035790626 -0.01837258 0.028790995
000240 82 d2 b6 3c 3e ce 7c 3c 04 d8 10 bc 4e 74 53 3b
       0.022317175 0.015430031 -0.008840565 0.0032265368
000250 67 2a d2 bb 79 f0 0c bd 0e c5 d2 3c 87 8e 25 bc
       -0.006413746 -0.03440902 0.025728729 -0.010104782
000260 ca bb d9 3c 1e b9 53 38 97 b0 e6 3c bc a3 18 3c
       0.026578803 5.0478724e-05 0.028160376 0.009316381
000270 e3 af d0 3c 8e 85 c3 bb c0 c6 ef bc 53 4a f1 3c
       0.025474494 -0.0059668487 -0.029269576 0.029454386
000280 9c 43 90 3c 2b 21 d2 3c 5a 3e fa bc f6 97 a7 bc
       0.017610364 0.025650581 -0.03054731 -0.020458203
000290 14 33 80 bb fc d5 94 3b 32 3d 7d bc b2 8b da bc
       -0.003912339 0.0045421105 -0.015456485 -0.02667794
0002a0 db 3b dd bb 3e 2a 7f 3c 71 1b cb 3c 29 10 99 bc
       -0.00675152 0.015574036 0.024793359 -0.018684464
0002b0 7d ed 88 3c 48 0d 30 bc e5 f6 de 3c 26 72 05 bd
       0.016714806 -0.010745354 0.027217338 -0.032579564
0002c0 1a e9 92 bb 98 ef 8c 3c a8 62 fa 3c 2f 91 9f 3c
       -0.0044833543 0.017204091 0.030564621 0.019478409
0002d0 98 69 01 3d d8 c9 b9 bc 3f f7 0a 3d 0b cb 18 bb
       0.031594843 -0.022679254 0.0339272 -0.0023314382
0002e0 19 bc be 3c 5f e3 8f bc 8a 36 ce 3b a0 74 7b bc
       0.023283051 -0.017564474 0.0062931227 -0.01534763
0002f0 6b aa 0b bc 40 49 5a bc 8b 86 ff bc f0 9f 09 bc
       -0.0085245175 -0.013323128 -0.031192085 -0.0083999485
000300 70 94 76 3c af a3 c1 3c 86 27 bf 3c 3b ad d9 bb
       0.015050039 0.02363762 0.023334276 -0.006642965
000310 b1 85 95 bc 3f d2 bb 3a 7f 88 de bc 7b d3 25 bc
       -0.018252226 0.0014329626 -0.027164696 -0.010121222
000320 2b ee c0 3c 17 4a 3d 3c 64 2a be bc ca 38 a4 3c
       0.023551067 0.011553309 -0.023213573 0.02004661
000330 a2 41 00 3d 05 67 35 3b d5 cd 06 bd 5c b3 b8 bb
       0.031312592 0.0027679813 -0.03291114 -0.0056366157
000340 50 b9 f2 3c 36 31 cc 3c d9 8d d2 bc bb ec a3 3c
       0.02962938 0.02492581 -0.025702404 0.020010343
000350 6c 89 04 3d 28 f5 f1 3c 8e d1 0c bc 44 66 b7 3b
       0.03235762 0.029535845 -0.008594884 0.005596908
000360 0e e3 8f bc 4e 9c ff 3c e0 1b 97 bc 93 1a 45 3c
       -0.017564323 0.031202462 -0.018445909 0.012030262
000370 9c e6 9a bb ea 5c 84 bc 99 0c 31 3c d1 b1 c9 3c
       -0.004727198 -0.016157586 0.010806226 0.024620922
000380 b8 8f 10 bc 4d 80 b6 3c b6 67 eb 3c 4c 1d ec 3c
       -0.008823328 0.022277975 0.028735977 0.028822564
000390 f9 0b af bb 15 fa 88 3c 89 11 13 3d 58 0f 87 bc
       -0.0053420034 0.01672081 0.035905395 -0.016486809
0003a0 94 b3 d0 bc ab a6 3c bc 0a a2 bf ba 00 e6 ac bc
       -0.025476255 -0.011514346 -0.0014620435 -0.021105766
0003b0 2f a6 13 bd 17 01 21 bc 02 20 97 bc 85 44 3c bc
       -0.036047157 -0.00982692 -0.01844788 -0.011490946
0003c0 32 a9 b4 3c 15 cb 66 bb 27 3b 77 3c 4d 5b ac 3c
       0.022053335 -0.0035216261 0.015089787 0.02103963
0003d0 bc a5 d7 3c 52 12 87 3c c2 1e 94 bc c2 4a 50 bc
       0.026324145 0.016488228 -0.018081073 -0.012713136
0003e0 b1 bc f7 3c cb b1 9d bc 9d 4f 0e 3d 90 d2 a5 bc
       0.030241342 -0.019249817 0.034743894 -0.020242006
0003f0 4f ba b3 b8 ce 0d 32 3c 4b 4c 89 bb 1e c9 e6 bc
       -8.570088e-05 0.010867549 -0.004190003 -0.028172072

0.bn_red.weight f4 [256]
000000 c5 9a 83 3f 2b 88 82 3f 9f 1e 80 3f 55 b8 85 3f
       1.0281607 1.0197805 1.0009345 1.0446879
000010 5a 12 80 3f 72 f0 7f 3f 78 a4 81 3f 96 4c 81 3f
       1.00056 0.99976265 1.0128317 1.0101497
000020 c2 36 88 3f 7d 44 87 3f 38 96 85 3f 6a c9 86 3f
       1.0641711 1.0567776 1.0436468 1.0530217
000030 0e 31 84 3f aa b7 84 3f 0d c9 81 3f 77 b7 87 3f
       1.032747 1.036855 1.0139481 1.0602864
000040 1f 2a 88 3f da 1c 81 3f da 53 81 3f 3e 79 85 3f
       1.0637854 1.008693 1.0103714 1.0427625
000050 8d 28 86 3f e4 ab 83 3f 9b df 87 3f 6b a3 81 3f
       1.0481125 1.0286832 1.0615114 1.0127996
000060 d8 0f 80 3f be d2 80 3f 8c 6f 86 3f b6 1a 84 3f
       1.0004835 1.0064313 1.0502791 1.0320652
000070 eb ed 86 3f a9 62 83 3f d8 63 82 3f 6c 44 80 3f
       1.0541357 1.0264484 1.018672 1.0020881
000080 c6 9d 81 3f f0 8f 84 3f 9c 5a 82 3f 10 fa 85 3f
       1.0126274 1.0356426 1.0183902 1.0466938
000090 ed 56 83 3f 61 50 81 3f 60 d5 85 3f 2c c0 81 3f
       1.0260903 1.0102655 1.0455742 1.0136771
0000a0 90 2b 82 3f 13 e7 83 3f 39 60 80 3f 6e 66 80 3f
       1.0169544 1.0304893 1.0029365 1.0031259
0000b0 9f ec 80 3f 15 6c 83 3f 8d 6d 81 3f 1f e0 87 3f
       1.0072211 1.0267359 1.0111557 1.0615271
0000c0 fa 46 87 3f 42 34 81 3f 75 60 83 3f 6c 1b 83 3f
       1.0568535 1.0094073 1.0263811 1.0242743
0000d0 67 dd 83 3f 6c fa 84 3f c3 81 80 3f 23 b7 80 3f
       1.0301942 1.0388923 1.00396 1.0055889
0000e0 b6 15 86 3f fd f0 81 3f 40 9e 80 3f 49 99 83 3f
       1.0475376 1.0151669 1.0048294 1.0281154
0000f0 c0 1c 83 3f 39 5a 82 3f 86 46 82 3f ec 78 82 3f
       1.0243149 1.0183784 1.0177772 1.0193152
000100 1f 2f 85 3f ae b3 81 3f 59 0d 84 3f ed 98 85 3f
       1.0405005 1.0132959 1.0316573 1.0437294
000110 f7 f2 86 3f 70 af 84 3f c0 d1 80 3f 5e a2 80 3f
       1.0542897 1.0366039 1.0064011 1.004955
000120 1b d1 83 3f cf 29 83 3f 37 55 80 3f f0 5e 86 3f
       1.0298189 1.0247134 1.0026006 1.0497723
000130 a9 fe 80 3f ba 7e 82 3f 73 8c 80 3f 8e 12 89 3f
       1.0077716 1.0194924 1.0042862 1.0708787
000140 eb 46 82 3f 50 ac 8a 3f 27 bf 87 3f 68 57 81 3f
       1.0177892 1.0833836 1.060521 1.0104799
000150 db f7 80 3f 4f 3d 82 3f b8 5a 81 3f cf 0f 84 3f
       1.007564 1.017496 1.010581 1.0317324
000160 c4 95 84 3f 3e 5e 81 3f ae c1 86 3f 6d aa 86 3f
       1.0358205 1.0106885 1.0527856 1.052076
000170 fa 97 7f 3f ce d5 80 3f e5 bb 84 3f 31 f7 84 3f
       0.9984127 1.0065248 1.0369841 1.0387937
000180 05 5e 85 3f c7 0f 83 3f e6 94 83 3f 6a fc 80 3f
       1.0419317 1.023919 1.0279815 1.0077031
000190 63 50 80 3f fa d7 80 3f 81 b3 83 3f 13 36 82 3f
       1.0024532 1.0065911 1.0289155 1.0172752
0001a0 b5 73 81 3f 84 0b 83 3f 08 54 80 3f c7 18 81 3f
       1.0113436 1.0237889 1.0025644 1.0085686
0001b0 96 e3 81 3f 7e fe 83 3f fb 21 86 3f 49 ba 84 3f
       1.0147579 1.031204 1.047912 1.036935
0001c0 7d 9c 85 3f 6b 76 81 3f e2 88 85 3f b7 91 81 3f
       1.0438381 1.0114263 1.0432398 1.0122594
0001d0 67 ca 84 3f 3c 52 86 3f e4 a6 84 3f 4d 66 80 3f
       1.0374268 1.0493846 1.0363431 1.003122
0001e0 25 ef 7f 3f 21 e4 82 3f fc 8c 83 3f ae 21 83 3f
       0.9997428 1.022587 1.02774 1.0244653
0001f0 43 1c 80 3f b9 e1 7f 3f 66 52 85 3f 8d 4d 80 3f
       1.0008625 0.999538 1.0415771 1.0023667
000200 aa 4a 85 3f cc 3e 85 3f c2 33 81 3f 9e 4e 83 3f
       1.0413411 1.0409789 1.009392 1.0258367
000210 84 01 80 3f 7b 76 80 3f 90 bc 82 3f 39 34 81 3f
       1.0000463 1.0036157 1.0213795 1.0094062
000220 41 8c 80 3f 77 69 86 3f 05 11 80 3f 04 a9 83 3f
       1.0042802 1.0500935 1.0005194 1.0285954
000230 e1 cc 81 3f e1 da 81 3f 65 37 82 3f 80 5d 84 3f
       1.0140649 1.0144922 1.0173155 1.0341034
000240 15 27 86 3f 39 7f 82 3f 3c 13 84 3f 13 8e 84 3f
       1.0480677 1.0195075 1.031837 1.0355858
000250 2b e9 80 3f a6 73 82 3f ca d5 81 3f 3f 80 85 3f
       1.0071157 1.0191543 1.0143368 1.0429763
000260 d3 1e 86 3f 77 f9 81 3f ce 94 83 3f 9d 08 83 3f
       1.0478157 1.0154256 1.0279787 1.0237004
000270 3e ab 81 3f 9c 23 83 3f 67 77 81 3f 79 b9 83 3f
       1.0130384 1.0245242 1.0114564 1.0290977
000280 8c d1 7f 3f d8 3b 83 3f e7 59 80 3f 51 b1 81 3f
       0.9992912 1.0252638 1.0027436 1.0132238
000290 a6 0e 80 3f 33 1f 82 3f 23 e5 85 3f ef 7d 82 3f
       1.000447 1.0165771 1.0460552 1.0194682
0002a0 2e 68 81 3f a0 63 89 3f ef 5f 83 3f d4 45 87 3f
       1.0109918 1.0733528 1.0263652 1.0568185
0002b0 0c e8 7f 3f 75 3a 86 3f 66 85 82 3f a0 5f 82 3f
       0.9996345 1.048659 1.019696 1.0185432
0002c0 08 ca 80 3f 28 c5 84 3f e7 eb 84 3f 94 57 80 3f
       1.0061655 1.0372667 1.0384492 1.0026727
0002d0 97 c4 82 3f 8a f2 7f 3f e6 e6 81 3f 57 a5 80 3f
       1.0216244 0.9997946 1.014859 1.0050458
0002e0 39 8c 81 3f 87 82 83 3f 03 30 89 3f ff 0e 82 3f
       1.0120918 1.0274209 1.0717777 1.0160826
0002f0 9b f7 7f 3f 4f 34 86 3f b0 ac 82 3f 0f 93 81 3f
       0.9998719 1.0484713 1.020895 1.0123004
000300 e5 2f 85 3f 6b 6b 83 3f 88 e7 82 3f e8 46 81 3f
       1.0405241 1.0267156 1.0226908 1.0099764
000310 c6 08 80 3f 94 82 83 3f 7c 98 80 3f ca f3 7f 3f
       1.0002677 1.0274224 1.0046535 0.9998137
000320 0f 38 82 3f b6 7c 83 3f 80 d7 7f 3f f1 14 80 3f
       1.0173358 1.0272434 0.999382 1.0006391
000330 91 74 82 3f 3a 2e 81 3f a4 fe 81 3f f6 09 81 3f
       1.0191823 1.0092232 1.0155835 1.0081165
000340 98 58 85 3f 10 b7 83 3f bd 22 83 3f a3 8e 80 3f
       1.0417662 1.0290241 1.0244976 1.0043529
000350 7f 40 83 3f 35 c2 80 3f f4 da 82 3f 90 ae 82 3f
       1.0254058 1.0059267 1.0223069 1.0209522
000360 bf 9f 81 3f 1b 38 87 3f 3f 25 82 3f 4e 60 80 3f
       1.0126876 1.0563997 1.0167617 1.002939
000370 cc e3 85 3f 2b da 85 3f b7 f1 85 3f e3 26 83 3f
       1.0460143 1.0457205 1.046439 1.0246242
000380 a2 e4 80 3f 35 af 80 3f e8 b9 85 3f 62 30 84 3f
       1.0069773 1.0053469 1.0447359 1.0327265
000390 61 18 82 3f 2b 1d 80 3f 8d e8 89 3f 2f 8c 84 3f
       1.016369 1.0008901 1.0774094 1.0355281
0003a0 40 dc 80 3f 53 3a 83 3f 83 f2 83 3f be 7c 80 3f
       1.0067215 1.0252174 1.0308384 1.0038068
0003b0 1c 7c 86 3f 0d 6c 83 3f f4 0a 84 3f b1 f7 85 3f
       1.0506625 1.026735 1.0315843 1.0466214
0003c0 3c 39 8a 3f a2 1e 82 3f d0 17 83 3f eb 7b 86 3f
       1.0798717 1.0165598 1.0241642 1.0506567
0003d0 d0 98 83 3f 1b 8f 81 3f 50 19 81 3f e1 f9 81 3f
       1.028101 1.0121797 1.008585 1.0154382
0003e0 9a 0a 80 3f a3 39 85 3f 61 d5 85 3f 41 52 80 3f
       1.0003235 1.0408214 1.0455743 1.0025102
0003f0 eb 40 86 3f c6 44 82 3f a3 4d 80 3f 2a 10 84 3f
       1.0488561 1.0177238 1.0023693 1.0317433

0.bn_red.bias f4 [256]
000000 cc 69 8c bd 93 b4 c1 bc ea aa 59 bb 3a 8a ab bd
       -0.06856117 -0.023645675 -0.0033213445 -0.08375974
000010 30 63 b2 b9 5a 47 fc 37 25 2b d6 bc 8a 8d 84 bc
       -0.00034024706 3.0073967e-05 -0.02614362 -0.016180772
000020 59 d5 f3 bd 22 d2 e6 bd 2a 67 b3 bd 9d 6e f9 bd
       -0.11905927 -0.112705484 -0.08759911 -0.12179301
000030 33 d7 61 bd d5 43 84 bd 13 ff d3 bc 79 cd 0f be
       -0.05513687 -0.064582504 -0.025878465 -0.14043225
000040 7c 76 10 be 44 20 93 bc 2c 60 51 bc 22 3f 87 bd
       -0.14107698 -0.017959721 -0.012779277 -0.066038385
000050 14 84 ae bd 51 f9 8d bd a3 b3 de bd 4b 86 b6 bc
       -0.08521286 -0.06932319 -0.10874107 -0.022280833
000060 ee a3 76 ba cb 53 16 bc 7f dd c6 bd 87 6b 51 bd
       -0.00094085827 -0.009175251 -0.09710216 -0.051127937
000070 c2 ac b1 bd 9e 30 66 bd ed 92 19 bd 86 d4 06 bb
       -0.08675529 -0.05619871 -0.037493635 -0.0020573451
000080 31 9a ca bc de 1a c7 bd ec bc 06 bd 15 75 ca bd
       -0.024731727 -0.097219214 -0.032895014 -0.09885613
000090 69 b8 82 bd c5 5c b0 bb c7 b8 b5 bd 22 ed 84 bc
       -0.0638283 -0.0053821527 -0.08873134 -0.016226355
0000a0 48 af cd bc 7a 7c 81 bd 00 dc 98 bb 61 48 0d bc
       -0.025107995 -0.0632257 -0.004664898 -0.0086232135
0000b0 08 95 2e bc 40 3c 63 bd c9 d8 c8 bc a4 03 04 be
       -0.010655649 -0.05547738 -0.024517434 -0.12892014
0000c0 e6 b6 09 be 53 ec 7f bc 58 15 4f bd 20 20 0b bd
       -0.13448676 -0.015620309 -0.050557464 -0.033966184
0000d0 71 fa 69 bd 32 6e 90 bd 76 9a d5 bb 10 94 45 bc
       -0.057123605 -0.07052268 -0.0065186573 -0.012059227
0000e0 15 fb a8 bd 0d 86 05 bd da 9b 07 bc 21 91 7d bd
       -0.08251015 -0.032598544 -0.008276904 -0.061905984
0000f0 52 ae 0b bd 0c 7f 08 bd 69 10 df bc f6 90 18 bd
       -0.03410179 -0.033324286 -0.027229505 -0.03724762
000100 94 a0 9b bd 6e 90 bd bb 11 ac 8c bd 6c 93 a2 bd
       -0.07598987 -0.0057850396 -0.068687566 -0.07938275
000110 38 a9 f7 bd f7 b2 ba bd 43 a5 ef bb ed e1 d0 bb
       -0.12092823 -0.09116166 -0.007313402 -0.0063745887
000120 f2 84 6e bd 5f fa 52 bd 51 10 8d bb 8b 7f c5 bd
       -0.058232255 -0.051508304 -0.0043049236 -0.096434675
000130 6e e4 37 bc 8a 45 f5 bc 04 44 1b bc 91 8f 0f be
       -0.0112238955 -0.029940385 -0.009476665 -0.1401961
000140 ce bf 43 bd b0 c1 3f be 1c fd fb bd c6 26 4a bc
       -0.04779034 -0.1872623 -0.12304136 -0.012338346
000150 c6 37 4c bc 96 24 c0 bc d2 97 93 bb 18 64 82 bd
       -0.012464469 -0.023454946 -0.0045041824 -0.063667476
000160 79 e4 5c bd 2a bf 92 bc cb e8 ee bd 66 0c df bd
       -0.053928826 -0.01791342 -0.116654955 -0.10891037
000170 52 af a5 b9 5f ac 92 bc 58 bf 94 bd 85 ab ae bd
       -0.00031601876 -0.017904459 -0.072630584 -0.085288085
000180 e5 ad 9b bd de 3a 56 bd 48 ca 48 bd c5 11 92 bc
       -0.07601527 -0.052302234 -0.049021035 -0.017830739
000190 63 63 eb bb ff d7 4f bc 42 3d 53 bd 76 c5 d4 bc
       -0.0071834787 -0.012685775 -0.051572092 -0.025973063
0001a0 2e a4 50 bc eb 05 30 bd cc 8e ab bb 72 1d 68 bc
       -0.012734456 -0.042974394 -0.0052355286 -0.014167177
0001b0 84 1e d5 bc e7 d3 57 bd 0b 11 c5 bd 3e d6 a7 bd
       -0.026015528 -0.05269232 -0.09622391 -0.0819516
0001c0 9f 1d e2 bd 29 61 99 bc a0 4d af bd 03 59 5f bc
       -0.11040806 -0.018723087 -0.08559728 -0.013632062
0001d0 34 fc 51 bd cc 99 d4 bd 00 ca 89 bd 79 4f 87 bc
       -0.05126591 -0.10380897 -0.067279816 -0.016517388
0001e0 e5 b0 04 ba 91 c4 aa bc fa 3d 8f bd 7b e8 1c bd
       -0.000506176 -0.020845683 -0.06994243 -0.03830765
0001f0 07 f6 1b bb 9c 8f 29 39 41 34 9c bd 35 36 a1 ba
       -0.0023797767 0.00016170595 -0.07627154 -0.001229948
000200 e5 bf 60 bd 56 be 6d bd 20 82 d8 bb 33 ee 2d bd
       -0.054870505 -0.058042847 -0.006607309 -0.042463493
000210 7c 64 80 b9 97 ae d3 bb 82 c1 15 bd 5d 05 d6 bc
       -0.0002448893 -0.0064600217 -0.036561497 -0.026125604
000220 1c 2e 1c 3a 2b dd b8 bd dd 0c 0f ba 6b 6b 3c bd
       0.00059577986 -0.090265594 -0.0005456934 -0.04600088
000230 32 24 84 bc 5b f1 f0 bc b9 8a 1d bd 16 34 6b bd
       -0.01613054 -0.029411962 -0.038462374 -0.05742272
000240 be 7a b6 bd b0 99 1a bd f5 cd 81 bd 2e c5 bf bd
       -0.0891013 -0.037744224 -0.06338111 -0.09363781
000250 95 20 31 bc 53 6b 35 bd a5 7e 9c bc 9e 30 90 bd
       -0.010810991 -0.044291805 -0.019103358 -0.07040523
000260 90 fc ac bd 42 b3 e7 bc a5 75 08 bd 8b d8 06 bd
       -0.0844661 -0.028283719 -0.03331532 -0.032921355
000270 4e ca e7 bc ba c8 6c bd 52 49 af bc 33 01 54 bd
       -0.028294709 -0.057808615 -0.021397267 -0.051758956
000280 11 28 74 ba 0f 8e 24 bd 2e d6 d6 bb 7e 41 e5 bc
       -0.00093138317 -0.04017454 -0.006556294 -0.02798533
000290 35 8b cb b8 8e b5 d1 bc 65 ed 9f bd 80 93 f6 bc
       -9.705724e-05 -0.025599267 -0.07808951 -0.03009963
0002a0 e7 55 de bc 93 8e 26 be 8f 64 3b bd 61 2f f7 bd
       -0.02714057 -0.16265325 -0.045750197 -0.12069584
0002b0 98 66 09 ba 1b ab c3 bd 94 a8 d7 bc f7 b9 8d bc
       -0.0005241423 -0.0955412 -0.026325502 -0.017300589
0002c0 29 a6 13 bc 64 1f a6 bd 02 97 69 bd 40 a2 8d bb
       -0.009011784 -0.08111456 -0.057028778 -0.00432232
0002d0 0f 04 fb bc 5f c1 d1 b9 b2 2a 8a bc 7f 9d 63 bb
       -0.030641584 -0.0004000766 -0.016866062 -0.0034731326
0002e0 86 7b dc bc a1 a0 7d bd e3 69 ff bd 23 0c 14 bd
       -0.02691437 -0.061920766 -0.12471368 -0.036144387
0002f0 ff 6d 79 ba 8b 45 a6 bd c2 8b 04 bd 6e 8a a8 bc
       -0.0009514987 -0.08118733 -0.032359846 -0.02057382
000300 80 1f a6 bd 93 8e 1b bd 6d 7c 73 bd 37 27 5d bc
       -0.08111477 -0.037977766 -0.059444834 -0.013498119
000310 29 16 fd b9 fd 84 6d bd 25 91 c2 bb 18 e8 e0 b9
       -0.0004827243 -0.057988156 -0.0059377127 -0.00042897533
000320 54 30 1b bd f9 03 43 bd f2 52 56 ba cb a3 04 bb
       -0.037887886 -0.04761121 -0.0008175812 -0.002023923
000330 e0 1a 09 bd f7 5b 25 bc be 22 02 bd fd a2 12 bc
       -0.033472896 -0.010092727 -0.031771414 -0.008949992
000340 98 da a5 bd 59 50 26 bd 21 a0 24 bd b8 50 5d bb
       -0.08098334 -0.04060397 -0.040191773 -0.0033770036
000350 a1 b9 52 bd 27 aa 56 bc 54 7e 0d bd e5 db 01 bd
       -0.05144656 -0.013102091 -0.034544304 -0.03170385
000360 31 4a 97 bc 8f 10 ff bd fc f3 95 bc 10 7d 09 bc
       -0.018467994 -0.1245433 -0.018304817 -0.008391634
000370 e8 d8 c4 bd c4 ca 9b bd a2 2f cb bd 03 ea 23 bd
       -0.09611684 -0.07607034 -0.099211946 -0.040018093
000380 aa 8b bf bb 7e 83 e5 bb ac 54 d0 bd f5 98 80 bd
       -0.0058455067 -0.0070042005 -0.101724 -0.06279174
000390 0b 21 e4 bc f1 1b ec ba b5 fa 2f be 03 36 88 bd
       -0.027847787 -0.0018013698 -0.17185481 -0.06650927
0003a0 93 30 18 bc 5e 6d 2c bd 28 0d 51 bd 68 9b 2e bc
       -0.009288925 -0.04209649 -0.051037937 -0.010657169
0003b0 7a 2a 96 bd df e1 46 bd 7a 4f 2e bd 8e e0 b5 bd
       -0.073323205 -0.04855525 -0.042556264 -0.08880721
0003c0 5a e8 1e be d4 8e e4 bc d2 ed 44 bd 42 e8 f3 bd
       -0.15518323 -0.027900137 -0.048078366 -0.11909534
0003d0 a3 ec f6 bc 45 7f c9 bc 68 a7 90 bc eb 52 b3 bc
       -0.030142134 -0.02459682 -0.01765795 -0.021890124
0003e0 13 75 ff ba 4e f9 a3 bd 42 5b 93 bd c3 3c 27 bc
       -0.0019489847 -0.080065355 -0.071951404 -0.010207358
0003f0 5c 13 f2 bd 8d c0 f3 bc 8f 2f 89 bb ff fa 5b bd
       -0.11820099 -0.029754901 -0.0041865776 -0.053706165

0.bn_red.running_mean f4 [256]
000000 8a 9a 23 ba 0f 73 25 bc b0 32 2b 3d 1f cd bc b9
       -0.00062409847 -0.010098233 0.041796386 -0.0003601098
000010 72 c6 60 bb 82 c3 d8 bc 9a de 1e bd ff db aa bc
       -0.003429797 -0.026460413 -0.03878651 -0.020856855
000020 1f 70 97 3b 76 dc 1f 3d f3 fa 2a 3c 07 21 e7 3c
       0.00462152 0.039028607 0.0104358075 0.02821399
000030 49 a3 e9 bc 8a c0 84 3c de 2f 7d 3c 18 01 4f 3d
       -0.028520243 0.016205091 0.015453307 0.050538152
000040 c1 fc 15 39 a6 01 a9 bb a4 0f dc 3c 8d 91 96 3a
       0.00014303905 -0.005157667 0.026862927 0.0011487469
000050 a0 46 f6 bc 25 35 fc bc db 96 e2 3c b7 df 74 bc
       -0.030062973 -0.03078706 0.027659824 -0.014945916
000060 ea 32 a6 bb 92 56 c9 3c 1c 69 41 ba c7 95 ee bc
       -0.0050719874 0.024577413 -0.0007378028 -0.029124154
000070 4a 45 a0 bc 45 6f f1 3b 92 8d a1 3c c1 18 e2 bc
       -0.01956429 0.0073680007 0.019720826 -0.027599694
000080 aa 6e 8d bc 39 f4 d8 3c 0e 12 d8 bc dc 3c 95 bc
       -0.017264683 0.026483642 -0.026375797 -0.018217497
000090 82 4e 6c bc da d5 8e 3c 77 1f 31 bd da 98 2e 3b
       -0.014423015 0.017435957 -0.043242898 0.00266414
0000a0 9d 56 09 bc 67 dd 43 3c 11 22 e4 3c 2c 8f 11 3c
       -0.008382467 0.011954642 0.027848275 0.0088842325
0000b0 70 e2 1d 3b 41 53 45 3c fd 91 1e bc 44 7a d7 bb
       0.0024091266 0.012043775 -0.009678361 -0.0065758545
0000c0 68 33 59 bc 7a 74 16 bd a6 24 ac 3b 21 24 1a 3d
       -0.013256885 -0.036732174 0.0052533923 0.03763211
0000d0 da 15 f1 3c 11 98 35 3d 0c d9 2f 3b 64 99 80 3c
       0.029429365 0.044334475 0.002683225 0.015698142
0000e0 a9 0e 7a bc 63 a0 af 3c 5b 41 45 3c 5c 5c 50 bc
       -0.015262284 0.021438783 0.012039508 -0.012717333
0000f0 30 39 aa bb f9 6e 81 ba 79 ca 85 3c c3 53 31 3c
       -0.0051948056 -0.0009874991 0.016331898 0.010823193
000100 c5 7c 5a bd 8d bc 2c bd dc 0f ce 3c e6 e0 46 bc
       -0.053341646 -0.042172004 0.025154047 -0.012138581
000110 a9 53 fb 3b 3f 79 29 3c 28 26 0d bc ce 1b e4 bb
       0.007669885 0.010343849 -0.008615054 -0.0069613224
000120 a3 68 18 3d 0c 34 ff bc 67 ba 24 bd c5 81 3a 39
       0.037209164 -0.031152748 -0.04021683 0.00017786685
000130 e1 60 90 bc 78 01 e6 3b a9 c8 22 bb 42 f8 e8 bc
       -0.01762432 0.007019218 -0.002483884 -0.028438691
000140 7a 4d 85 3c d2 85 79 bb 4c 79 0e 3d 48 fc 30 3c
       0.016272295 -0.0038074148 0.034783646 0.010802336
000150 78 24 c7 3c bc 33 30 3b ca 8e 2e 3d 94 d5 d5 bc
       0.024309382 0.0026886305 0.042616643 -0.026102819
000160 3e f2 0a 3d 42 d8 59 3c 37 4a 48 3d 04 75 e2 3a
       0.033922426 0.013296189 0.0488989 0.0017277305
000170 ff b2 6f 3b 18 c0 3f 3c c0 7f 9b bc ab 67 7a bb
       0.0036575196 0.011703514 -0.018981814 -0.0038208764
000180 94 d3 46 3d ff 1c 2a bd 3b f0 88 3c 45 dd 33 bc
       0.04854162 -0.04153156 0.016716113 -0.010978048
000190 0f 7a 8f bb 13 fa e3 bc 5f d0 37 bd 10 a4 04 bd
       -0.004378564 -0.027829206 -0.044876453 -0.032383025
0001a0 00 b6 1e bd c2 ce 55 3c 6f 20 5e 3c 6c 25 00 3d
       -0.038747787 0.013049783 0.013557537 0.03128569
0001b0 74 4c 36 3d 90 ee c8 bb 90 a4 0d bc a0 0a d8 3b
       0.044506505 -0.0061319545 -0.008645192 0.0065930635
0001c0 09 63 42 bc d5 07 2e bd d7 44 7f 3a 20 71 95 bc
       -0.011864432 -0.042487938 0.0009737736 -0.018242419
0001d0 bd 19 1c 3c 89 b0 d5 3b df 0b 47 3d ef ba 2d 3c
       0.009527621 0.006521289 0.048595306 0.0106036505
0001e0 2d 8a b8 bc 29 ad 43 bb 4d 7e 4a bc 3d 00 05 3b
       -0.022526825 -0.002985785 -0.012359214 0.0020294331
0001f0 f2 48 7b 3c 4c 06 82 3d 1f 74 c9 3b 65 c0 3e 3d
       0.015337216 0.06348857 0.006147876 0.0465702
000200 4a fb 8a 3c 98 24 1e 3c d9 b8 3f bb 39 91 12 bd
       0.016965527 0.009652279 -0.0029254465 -0.035783026
000210 e3 b8 16 bc 15 6e aa bc 2c 14 64 bc d7 46 c1 ba
       -0.009199354 -0.020804444 -0.013920825 -0.0014745843
000220 e3 bf b2 3c 74 22 d3 3c 73 d2 ff bc ed fd 23 bd
       0.021820014 0.025773264 -0.03122828 -0.040037084
000230 8e 05 be bc 63 03 28 bd 91 5a a2 bc 89 bb 2d 3d
       -0.023196008 -0.041018855 -0.019818576 0.042415176
000240 53 da 40 3d 3d b6 a4 3c 6c a3 88 bc a7 8d 1c bc
       0.04708321 0.02010643 -0.016679488 -0.009555257
000250 de 81 11 3b a2 db f0 bc 1c 88 fb 3c f3 78 0d bc
       0.002220265 -0.029401604 0.03070455 -0.008634794
000260 7e 28 ce 3c c7 53 a2 3c fc a4 04 3d 16 a4 9e b9
       0.025165793 0.019815339 0.032383904 -0.00030258362
000270 cd fc f1 3c 02 d7 3c bb a5 94 9a bc 55 ef eb 3c
       0.02953949 -0.0028814678 -0.018869707 0.028800646
000280 37 91 01 3d 8c fa 8c 3c fc 64 1c bd 81 18 a3 bc
       0.03163263 0.017209314 -0.038182244 -0.019909145
000290 38 5c d0 ba e6 3c 80 3c 3f ec 46 bc 23 09 e4 bc
       -0.0015896624 0.015654039 -0.012141286 -0.027836388
0002a0 21 cb e2 ba b8 59 f7 3b 08 0c aa 3c 5f bd 3f bc
       -0.0017302969 0.007548537 0.02075769 -0.011702864
0002b0 93 0c 8b 38 8b 19 00 b9 3d 32 a3 3c 33 e3 08 bd
       6.6303786e-05 -0.00012216547 0.019921416 -0.0334198
0002c0 bd d2 c0 3b ac a9 ca 3b 7e 76 1a 3d 50 95 93 3c
       0.005884497 0.0061847772 0.03771066 0.018015534
0002d0 04 c5 16 3d 27 1c a5 bc 2a 73 13 3d 7d bb d8 bc
       0.036808982 -0.020155026 0.0359985 -0.026456589
0002e0 9c fc 05 3d 87 99 c3 bc 86 65 9f 3b 3f 33 31 bc
       0.03271161 -0.023876918 0.0048643975 -0.010815441
0002f0 d5 ac c8 bc 2e 26 9d bc d8 37 bd bc 3f d5 00 bd
       -0.024496475 -0.019183245 -0.023097917 -0.031453367
000300 c8 64 ce 3c 9c 9f da 3c 6f 99 eb 3c ab c2 b9 3b
       0.02519454 0.026687436 0.028759686 0.005668958
000310 6d 19 7c bc 4c ad c0 3c 8d 6b fa bc 1b c3 cf ba
       -0.015386921 0.023520134 -0.030568862 -0.0015850993
000320 27 d5 e2 3c ee 7f cb 3c cd ec 25 bd d0 bf b9 3c
       0.02768953 0.024841275 -0.040509034 0.022674471
000330 68 70 94 3c fb 2b cc 3b 48 ac ef bc 96 7e 63 bb
       0.018120006 0.006230829 -0.029256955 -0.0034712902
000340 6a e7 0e 3d 1b ab f7 3c 4d 00 23 bd e4 0c e4 3c
       0.034888662 0.030232957 -0.03979521 0.027838178
000350 99 a8 32 3d 11 29 d7 3c c3 f4 73 bc 3b 2c 09 3d
       0.04361782 0.0262647 -0.014889899 0.033489447
000360 91 97 8f bc 59 a1 fc 3c c1 12 b7 bc 61 46 96 3c
       -0.017528327 0.030838655 -0.02234781 0.018344106
000370 52 49 83 bb b0 09 89 bc 06 11 c4 3c 40 f5 38 3d
       -0.004006543 -0.016728252 0.023933899 0.045155764
000380 e8 4b 61 bb 36 2e 67 3c 70 1a 0c 3d 93 42 20 3d
       -0.003437752 0.014110139 0.0342049 0.03912599
000390 01 47 3c 3a fb bf 3c 3d 59 ec 26 3d 8d f4 6b 3b
       0.0007182211 0.046081524 0.040752742 0.0036003918
0003a0 05 6a 6a bc da c8 4b bc 37 fa b0 3b 39 af b0 bc
       -0.014307504 -0.012438023 0.0054009217 -0.021567928
0003b0 8a 04 e5 bc 38 bc d0 3b ae 05 40 bc e5 54 a5 bb
       -0.027956266 0.0063700937 -0.011720104 -0.0050455206
0003c0 8a 3a 81 3c da a1 43 bc a9 0a c8 3b 4b 6d 16 3d
       0.015774984 -0.011940444 0.0061047864 0.036725324
0003d0 4c c9 22 3d 3b 8e f1 38 24 85 e3 bc 8a 7f d9 bc
       0.039742753 0.00011518268 -0.027773447 -0.026550073
0003e0 aa ee ea 3c 1b 71 53 bc 36 57 21 3d 30 9f 87 bc
       0.028678257 -0.012905384 0.03938981 -0.016555399
0003f0 54 2c 6f 3c f7 c8 8b 3b c6 ef b2 3c 06 ed 1b bd
       0.014597971 0.0042659002 0.021842849 -0.03806784

0.bn_red.running_var f4 [256]
000000 68 92 2f 39 c9 a8 89 39 e1 ee e3 39 fa cf 43 39
       0.00016743841 0.0002625643 0.00043474793 0.00018674126
000010 10 52 38 39 5f a3 08 39 fb 56 dd 38 8a cd a8 39
       0.00017578178 0.00013030831 0.000105543026 0.00032196596
000020 58 32 2f 3a 07 61 1d 39 c8 8b 02 39 ad de 13 39
       0.0006683222 0.00015008832 0.00012449839 0.00014101966
000030 cb 96 27 3a 07 b3 20 39 6f 98 c5 39 92 b4 a9 39
       0.00063930143 0.00015325482 0.0003768834 0.00032368727
000040 d5 2d d0 38 a9 cf 93 39 82 5b 8f 39 c9 e5 90 39
       9.92675e-05 0.00028192744 0.00027343264 0.00027637024
000050 6f c3 87 39 01 5e ad 39 ff 9c 9d 39 6a a2 3a 39
       0.00025894816 0.0003306717 0.00030062345 0.00017798846
000060 8b 1f 9a 39 cd 2b c0 39 92 78 4e 39 36 3c 21 39
       0.0002939667 0.00036653728 0.00019690607 0.00015376587
000070 30 07 a1 39 2a 63 6a 39 36 b7 48 3a c5 4b 2d 39
       0.00030713668 0.0002235292 0.0007656695 0.00016526792
000080 c0 aa 68 39 c8 ad 83 39 70 e6 95 39 eb 0a 7d 39
       0.00022188853 0.00025115744 0.00028591184 0.00024132027
000090 53 92 c2 39 29 f1 c1 39 8e 1c 37 39 12 65 8b 39
       0.00037111584 0.00036991507 0.00017462877 0.0002658745
0000a0 fa b2 9c 39 b1 eb 42 39 83 04 04 39 91 78 71 39
       0.00029887987 0.00018589084 0.00012590182 0.00023028466
0000b0 a0 38 25 39 8f 19 56 39 56 09 8a 39 99 ef c3 39
       0.0001575672 0.00020418152 0.00026328367 0.00037371813
0000c0 8d e4 6c 39 47 03 52 39 3a 89 84 39 77 c3 7c 39
       0.00022591856 0.00020028382 0.00025279244 0.00024105409
0000d0 c6 5d 2d 39 9b bf 95 39 1e f9 bc 39 62 43 ab 39
       0.00016533499 0.00028562252 0.0003604376 0.00032665866
0000e0 f6 fd a5 39 5c 93 4f 39 79 39 9c 39 ba 60 61 39
       0.00031660468 0.00019795954 0.0002979746 0.00021493706
0000f0 1f 6b 4a 39 7f 06 82 39 2b 83 9a 39 4c e9 51 39
       0.00019304127 0.00024800372 0.00029470897 0.00020018703
000100 eb 26 f8 39 fd c0 21 3a b8 d9 f1 38 20 ea 23 39
       0.00047331242 0.000617042 0.00011532329 0.0001563211
000110 60 20 20 39 e6 6e aa 39 54 27 82 39 8e a2 4a 39
       0.0001527085 0.00032507553 0.00024824834 0.00019324778
000120 09 df 7f 39 dc 2a 42 39 68 12 3c 39 8e 97 f2 39
       0.00024401782 0.00018517248 0.00017935934 0.00046270754
000130 26 ce a1 39 7d 97 98 39 94 ea 34 39 df c4 68 39
       0.00030861906 0.00029104567 0.00017253525 0.00022198584
000140 6f eb 60 39 49 4b 93 39 2e 30 76 39 fd f4 e3 39
       0.0002145001 0.00028094117 0.00023478337 0.00043479344
000150 27 ed 28 39 86 16 df 38 e5 17 3f 39 b8 4f 30 39
       0.00016110075 0.00010637664 0.00018224081 0.00016814366
000160 21 83 8b 39 de c1 3f 3a b7 f2 1a 39 19 4a 8d 39
       0.00026609845 0.000731496 0.00014777003 0.00026948823
000170 7b b6 6f 39 95 bd 75 39 eb c0 39 39 1c ab 73 39
       0.00022860795 0.00023435646 0.00017714842 0.00023238029
000180 7f 2a 18 39 23 4c 1a 39 0d f0 5e 39 f8 c0 93 39
       0.0001451168 0.00014714948 0.00021260996 0.00028181798
000190 e8 d3 04 39 60 b1 3c 39 ad f7 89 39 a2 55 bd 39
       0.00012667442 0.00017995154 0.0002631521 0.0003611269
0001a0 e3 09 0c 39 be 26 b6 39 a9 34 ae 39 30 9f 5e 39
       0.00013355124 0.0003474261 0.000332271 0.00021230872
0001b0 98 16 30 39 f9 aa 69 39 64 40 75 39 4b 73 39 39
       0.00016793085 0.00022284304 0.00023389008 0.00017685925
0001c0 09 55 58 39 6f 71 b5 39 b1 a0 0e 39 bf e6 6a 39
       0.00020631043 0.00034607525 0.00013602038 0.00022401939
0001d0 1e 60 1d 39 fc 1b 99 39 53 6d 43 39 53 5e 81 39
       0.00015008493 0.00029203284 0.00018637376 0.00024675074
0001e0 09 04 36 39 c9 01 81 39 d9 6a 2a 39 81 57 9a 39
       0.00017358376 0.00024606127 0.00016252267 0.00029438364
0001f0 db da 56 39 1b cd 14 3a 1d 28 88 39 6d 09 13 39
       0.0002049016 0.0005676315 0.00025969828 0.00014022524
000200 74 2f 12 39 65 e9 2a 39 97 cb 66 39 83 ae 12 39
       0.00013941323 0.0001629941 0.00022010352 0.00013988656
000210 22 59 8f 39 67 55 89 39 aa e5 55 39 12 5e c9 39
       0.00027341495 0.00026194306 0.0002039882 0.00038407795
000220 0a 2d ba 39 0d 7d 17 39 fe 73 32 39 42 d8 c4 39
       0.0003551024 0.00014447067 0.00017018613 0.00037545158
000230 ca 44 8e 39 d2 e6 e4 38 79 68 14 39 b2 0d 4a 39
       0.00027135602 0.00010914881 0.00014153299 0.00019269323
000240 ca 8f 93 39 f0 2b d2 39 5a d0 69 3a 41 0f 61 39
       0.00028145156 0.00040087057 0.00089192914 0.00021463355
000250 dd 37 7b 39 94 a1 cb 39 ee e7 cb 39 27 1d 38 39
       0.00023958036 0.00038839562 0.00038891978 0.00017558468
000260 81 fb 95 39 9d be f3 39 dc aa 4d 39 9e 84 f5 39
       0.0002860688 0.0004649059 0.00019613974 0.0004682885
000270 a9 f4 b8 39 f3 ee 35 39 1f ae 5b 39 7f 95 8a 39
       0.000352775 0.0001735052 0.00020950333 0.00026432794
000280 75 ff a5 39 92 bd 3a 39 9b 30 3c 39 07 fb 42 39
       0.00031661583 0.00017808963 0.00017947184 0.00018594797
000290 6b 29 31 39 8f c8 3f 39 04 88 0a 39 58 73 ba 39
       0.00016895465 0.00018289893 0.00013211375 0.00035562622
0002a0 b2 50 7f 39 94 b6 a2 39 d5 77 35 39 9c 99 9e 39
       0.00024348756 0.0003103508 0.00017306146 0.00030250556
0002b0 e4 0f 75 39 6b b6 01 39 39 4d 6f 39 46 9c 05 3a
       0.0002337094 0.00012370355 0.00022821584 0.0005096834
0002c0 91 7a 56 39 98 26 93 39 47 6a 5e 39 74 02 61 39
       0.0002045429 0.0002806678 0.00021211161 0.00021458586
0002d0 ec 14 72 39 91 ec d6 39 9e 64 0d 39 f7 94 23 39
       0.00023086712 0.00040993516 0.0001348429 0.00015600385
0002e0 ca d0 2c 39 e0 84 62 39 0e 18 24 39 08 a0 a0 39
       0.00016480978 0.0002160254 0.0001564922 0.0003063681
0002f0 1f 7f 8a 39 60 88 43 39 52 14 97 39 91 1b 82 39
       0.00026416124 0.00018647453 0.00028816104 0.0002481607
000300 bc ee 17 39 40 d7 98 39 6f c3 4c 39 c8 95 78 39
       0.00014489418 0.00029152073 0.00019527761 0.00023706921
000310 75 af cc 39 48 a5 18 39 cd b5 18 39 74 6f 3e 3a
       0.00039040638 0.00014557422 0.00014563576 0.00072645326
000320 1c 58 5f 39 0f 49 aa 39 b1 29 ae 39 2b 7e a6 39
       0.0002129976 0.0003247936 0.0003321893 0.0003175599
000330 31 02 86 39 f0 5a 23 39 4d 5d e7 39 46 22 74 39
       0.00025560104 0.00015578768 0.00044129268 0.00023282421
000340 be b9 9e 39 28 73 01 39 7b 18 f5 38 ca d9 ad 39
       0.00030274497 0.00012345298 0.0001168707 0.00033159397
000350 46 d9 41 39 58 26 2c 3a 55 b4 81 39 d7 61 70 39
       0.00018486855 0.0006566993 0.00024739155 0.00022924632
000360 9c 10 6f 39 69 f3 52 39 fa aa e4 39 5d 29 53 39
       0.00022799004 0.00020117838 0.00043614936 0.00020137937
000370 0a af 8f 39 a9 a2 16 39 59 99 32 39 ca f2 18 39
       0.000274055 0.0001436571 0.0001703253 0.00014586296
000380 20 19 8a 39 27 b1 2a 39 84 61 15 39 57 73 0c 39
       0.0002634013 0.00016278458 0.00014246075 0.00013394408
000390 88 ad ac 39 c4 76 fa 39 44 f3 36 39 f3 90 c8 39
       0.00032935687 0.00047772203 0.00017447496 0.00038254968
0003a0 46 d4 7c 39 49 d6 3e 39 b5 32 4d 39 6b 42 84 39
       0.00024111671 0.0001819964 0.00019569213 0.00025226487
0003b0 7e 1e df 39 98 4d 29 39 b7 ff 14 3a 0d 96 a7 39
       0.00042556593 0.00016146002 0.00056838564 0.0003196452
0003c0 bc 0e c4 39 78 1e a2 39 46 c0 93 3a cb 4d ba 39
       0.0003739501 0.0003092175 0.0011272512 0.00035534645
0003d0 36 3c 82 39 0e d5 4a 39 32 8e 30 39 e0 3c 3c 39
       0.00024840393 0.0001934359 0.0001683764 0.00017951755
0003e0 d6 05 80 39 c3 22 47 39 b9 6e 11 39 ef 79 67 39
       0.0002441841 0.00018991069 0.00013869525 0.000220753
0003f0 e1 06 08 39 5f 8e 4e 39 07 b8 51 39 73 3d 87 39
       0.00012972533 0.00019698728 0.00020000349 0.0002579499

1.weight f4 [1, 256]
000000 ba 87 7f 3e 89 68 4f be 97 0c 4d 3d ed e8 a3 be
       0.2495412 -0.20254721 0.050060835 -0.32013646
000010 9e 2c 27 bd e7 3b e6 bb 49 02 29 3e ea 29 1a be
       -0.040814035 -0.007026184 0.16504778 -0.15055051
000020 c7 97 c6 be d7 da b9 3e 76 36 a1 3e b0 1d b6 be
       -0.38787672 0.36299774 0.31486863 -0.35569525
000030 8a 4f 88 3e d9 8a 90 be 30 f7 2e 3e ee 7b c2 3e
       0.26623183 -0.28230932 0.17086482 0.37985176
000040 23 fe c9 3e 8f 89 0a 3e c2 bb 17 3e cc af 9c be
       0.39451703 0.13529037 0.14817718 -0.30602872
000050 e0 2b a7 be 87 12 83 3e 53 fc c0 be 63 eb 27 3e
       -0.3265066 0.25600073 -0.37692508 0.16398387
000060 24 25 25 bd e4 ac ef bd c3 f6 ae 3e 3c 3b 86 be
       -0.040318623 -0.11702898 0.3417264 -0.26217067
000070 22 5f b2 be dc 3a 77 be 96 ee 4d 3e ce 5f 8f bd
       -0.34838206 -0.24143547 0.20110545 -0.07000695
000080 f9 54 2e 3e 04 59 95 be 02 73 4a 3e 80 60 a7 3e
       0.17024602 -0.29169476 0.19770434 0.3269081
000090 90 e1 7b 3e 16 a8 1d 3e 70 f6 a5 3e c8 2e 2c 3e
       0.24597764 0.15396151 0.3241458 0.1681472
0000a0 dc 60 40 be d1 ac 86 be 22 8d b0 3d 4a 66 be 3d
       -0.18786949 -0.26303723 0.08620669 0.09296854
0000b0 a8 8d fc 3d 0a d3 79 3e 43 c0 1e 3e 8c 41 c4 be
       0.12331706 0.24396911 0.1550303 -0.38331258
0000c0 72 f2 be 3e 86 59 0f 3e 02 4b 76 be 72 bd 68 be
       0.37294346 0.13998994 -0.2405205 -0.22728518
0000d0 da 47 83 be 68 86 97 be 72 cd bc 3d 31 88 e0 3d
       -0.25640756 -0.2959473 0.09218873 0.109634764
0000e0 8f 70 a7 be 04 7f 3b 3e 32 18 d0 3d fd 48 80 3e
       -0.32703063 0.18310171 0.10160865 0.25055686
0000f0 17 6d 67 be b2 a6 4c 3e de df 48 3e ea b3 56 be
       -0.22600208 0.19985464 0.19616649 -0.2096707
000100 e9 17 9a be 99 06 2a be 5b 93 8a 3e 56 07 a0 be
       -0.30096367 -0.1660408 0.27065548 -0.31255597
000110 b5 9e b6 be b7 00 97 3e 0b db ec 3d c6 7b d4 bd
       -0.3566796 0.29492733 0.11565217 -0.103751704
000120 c0 05 82 3e 60 1c 6f 3e 51 47 9b bd 1d 42 ad be
       0.25395012 0.23350668 -0.07581962 -0.33839503
000130 6a 92 02 be 16 d6 4e 3e be 9b c3 3d 06 62 d3 3e
       -0.12751165 0.20198855 0.0955119 0.41285723
000140 aa 5f 4d 3e d7 00 ec be d7 7d c0 be 22 fa 16 be
       0.20056024 -0.4609439 -0.37596008 -0.14743856
000150 f6 c9 04 3e 0a 40 43 be dc 14 17 be 55 df 87 3e
       0.12967667 -0.19067398 -0.14754051 0.26537576
000160 25 de 8f be b3 d0 23 be f2 bb b5 3e 9f 72 b3 3e
       -0.2809917 -0.15997581 0.35494953 0.35048386
000170 f3 65 ce bc 57 0b f8 3d 09 89 93 3e 04 08 99 3e
       -0.025195098 0.12111538 0.28815487 0.29888928
000180 cc 43 9d be e2 34 6d be 5e 9c 7a be 21 65 08 be
       -0.30715787 -0.23164704 -0.24473712 -0.13319828
000190 44 2a 98 3d 0a da fe 3d fc ff 82 be a1 d6 43 be
       0.074299365 0.124439314 -0.25585926 -0.19124843
0001a0 7c 1f 1d be a8 2c 66 3e 2d f4 ab 3d 70 0c 09 3e
       -0.15344042 0.22477973 0.08396182 0.13383651
0001b0 6c c9 35 be fb 61 85 3e c5 12 a9 be b8 67 95 be
       -0.17752618 0.26051316 -0.33022133 -0.29180694
0001c0 4a f8 a4 be f8 4d 1e 3e 0a 4c a0 3e 02 f9 23 3e
       -0.3222068 0.1545943 0.31308013 0.16012958
0001d0 4d 69 91 be 17 5e ae 3e be 64 91 3e 36 83 d3 3d
       -0.2840065 0.3405616 0.28397173 0.10327761
0001e0 17 1e 05 3c 61 42 60 be 3d bb 82 3e 50 88 6d be
       0.00812485 -0.21900322 0.25533476 -0.2319653
0001f0 d2 ba 42 3d ee cd 4d 3c 4a 1d 9d 3e 8d 01 95 3d
       0.047541447 0.0125613045 0.30686408 0.072756864
000200 15 0f 98 be df d5 97 be 61 a3 10 be 10 2d 70 be
       -0.29699007 -0.29655358 -0.14124824 -0.2345469
000210 48 fe fb bc 9b e8 b4 3d 67 11 5c be 75 9d 18 3e
       -0.0307609 0.088334285 -0.21491013 0.14903815
000220 b8 e0 c2 bd d8 c8 ab 3e 26 ba 27 bd 23 c7 7d 3e
       -0.09515518 0.3355167 -0.04094901 0.24782996
000230 49 d0 30 be 2b bb 33 3e 42 bf 4b 3e eb 7d 8c be
       -0.17266954 0.17551868 0.19897178 -0.27439818
000240 20 45 a8 3e cd 7c 55 3e 40 5c 87 be 94 16 95 3e
       0.32865238 0.20848389 -0.2643757 0.29118788
000250 59 b0 fd 3d 76 04 57 3e 4b 85 30 be 4b 35 9d 3e
       0.12387151 0.20997795 -0.17238347 0.30704722
000260 81 63 a8 be d2 a4 3b be 56 dc 79 be 9f cb 67 3e
       -0.32888415 -0.18324593 -0.24400458 0.22636269
000270 14 78 2e 3e a1 76 6f 3e a6 78 1e 3e 11 c0 7f be
       0.17037994 0.23385097 0.15475711 -0.24975611
000280 23 28 d5 3c 93 df 6f be c2 4b a1 3d 0a 4d 2c 3e
       0.026020115 -0.2342513 0.07875778 0.16826263
000290 54 42 20 3d 48 ed 3f be c3 65 a3 be fb f5 4f 3e
       0.039125755 -0.1874286 -0.31913576 0.20308678
0002a0 45 22 1d 3e d3 ad da 3e 7a c5 75 3e 2c 40 bc be
       0.15345104 0.42710742 0.24001113 -0.3676771
0002b0 1a 23 fd bc 07 ae aa be b5 38 4f be 41 45 4d be
       -0.030900527 -0.33335897 -0.20236476 -0.2004595
0002c0 33 d0 f2 3d 34 88 94 be 7b ec 93 be 66 f0 9f 3d
       0.11856117 -0.29010165 -0.28891358 0.07809524
0002d0 d8 87 59 be 5c 50 a4 bc df 8e 35 3e d6 17 d8 bd
       -0.21243227 -0.02005785 0.17730282 -0.10551421
0002e0 80 c8 25 3e 99 d5 7f 3e 37 80 d1 be df 75 3d 3e
       0.16189766 0.24983825 -0.40918133 0.18501996
0002f0 25 0f 85 3c 4c b1 a8 be d3 01 5a be 68 3d 2e be
       0.016242573 -0.32947767 -0.21289758 -0.17015612
000300 e2 71 99 3e 09 8b 72 be 3d d4 65 3e 4f c5 13 3e
       0.29969698 -0.2368585 0.22444244 0.14430736
000310 85 21 03 bd e1 e2 79 3e 2c 0a cc 3d 11 57 db bc
       -0.03201439 0.24402954 0.09962878 -0.026774915
000320 1c 19 45 3e 39 4b 79 be e0 63 c7 ba 44 09 37 3d
       0.1924786 -0.24345101 -0.001521226 0.04468657
000330 69 8f 50 be cc e8 0f 3e eb d5 3d 3e f9 2e 09 be
       -0.20367207 0.14053649 0.18538634 -0.13396825
000340 c7 87 9d 3e 88 82 80 3e 72 f5 68 be 5a 26 c6 3d
       0.30767652 0.25099587 -0.2274988 0.09675284
000350 1b 8f 71 3e be e4 ea 3d f3 f7 5e 3e 73 2f 5a 3e
       0.23589747 0.1146941 0.21774273 0.21307163
000360 e7 77 27 be 68 3d bb be b7 b3 3e be 3c a9 a4 3d
       -0.16354333 -0.36570287 -0.18623243 0.080400914
000370 66 cf a7 3e 72 23 a3 be 0c 71 a7 3e 6b 4a 69 3e
       0.3277542 -0.3186298 0.32703435 0.22782294
000380 88 14 f7 bd 51 e3 db bd 24 98 a4 3e 8e ec 89 3e
       -0.12064463 -0.107367165 0.32147324 0.2693829
000390 2f 5b 3d 3e 38 c1 55 bd 64 e8 e0 be 35 bb 8f be
       0.18491815 -0.05218622 -0.439273 -0.28072515
0003a0 2c 92 04 be 04 6f 6c 3e be 1f 85 be f9 ab be 3d
       -0.12946385 0.23089224 -0.2600078 0.09310145
0003b0 f6 04 ab be 56 9b 74 3e fd 98 84 3e 74 88 a6 be
       -0.33402222 0.23887381 0.2589797 -0.3252598
0003c0 7f 7a e1 be 1b 0c 3f be 58 ce 68 3e 8e 1d b2 3e
       -0.4403877 -0.18656962 0.22734964 0.34788173
0003d0 cd a9 77 be 71 72 27 3e f1 d3 0a 3e be 4a 37 be
       -0.24185868 0.1635225 0.13557412 -0.17899606
0003e0 46 5e 0e 3d 63 27 9a be fd 32 a3 be 80 64 c7 3d
       0.034757875 -0.30108175 -0.31874838 0.09735966
0003f0 d7 03 b0 3e 3e 2a 4f be 58 55 a5 3d b8 f2 85 be
       0.3437793 -0.20230958 0.08072919 -0.26161742
