weights/just_and_cm.pt (torch, 4997 bytes, 1 tensors)

weight f4 [1, 768]
000000 be 78 3c bc 71 55 2d bd 5a 46 26 bd a6 09 13 3d
       -0.011503397 -0.04231781 -0.040594436 0.035897873
000010 95 ea de bc da df 5d bd bf e5 42 3d bd b5 5e bc
       -0.027211467 -0.05416856 0.047582384 -0.0135931345
000020 ef 80 a1 bc e7 00 fb bc f5 00 5f bd 41 39 84 3d
       -0.0197148 -0.030640079 -0.054444272 0.06456233
000030 6f 94 2c 3d 71 6d 0f bd 25 1c dd bc 56 66 67 3c
       0.042133745 -0.03501648 -0.02699096 0.01412352
000040 a4 f5 a3 bd 92 95 16 3b 74 ea 18 bb d2 12 a2 3b
       -0.080058366 0.0022977334 -0.0023333104 0.004946091
000050 68 61 03 bc ce 78 05 bc 75 f3 91 bc b7 1d 89 3d
       -0.008018829 -0.008146478 -0.017816285 0.06695121
000060 dc 41 b7 bb d4 11 62 3d 6b d3 60 bd 6f c9 ba 3c
       -0.005592568 0.055192783 -0.054889124 0.02280113
000070 90 37 75 3d 99 10 3f 3d 91 f8 73 3d 7f ee 8b bd
       0.05986744 0.046646688 0.059563223 -0.06832599
000080 40 04 04 3d 31 17 73 3d ab 71 0e bc 1b 52 9a 3c
       0.032230616 0.05934829 -0.008694093 0.018837979
000090 fc 9a 85 bd 21 54 ed 3b 86 30 4d bc 0a b3 d7 3c
       -0.065237015 0.007242695 -0.012523776 0.02633049
0000a0 a0 f9 03 be c6 37 8e bd 38 c4 18 bd 4a 82 07 bd
       -0.12888193 -0.06944232 -0.037296504 -0.033083238
0000b0 6a 58 b7 bc d3 35 9a 3d 30 21 17 bd 91 ce 8c bc
       -0.022381026 0.075297974 -0.036896884 -0.017188342
0000c0 7a 20 03 3d c6 d7 30 3a 65 cd 68 bc 43 cb dc 3d
       0.032013394 0.000674602 -0.014209126 0.107809566
0000d0 90 dd c8 3d 6a 72 20 3d f0 1f 8d bd e7 4b bb 3b
       0.09807885 0.039171614 -0.06890857 0.0057158354
0000e0 c6 35 5e bc 43 57 b9 3c 4e 88 a8 bc b0 b2 b9 bc
       -0.013562625 0.022624617 -0.020572808 -0.022668213
0000f0 d5 03 06 bc f2 fe a9 bd 16 8e a8 3d f0 fa 00 be
       -0.008179625 -0.0830058 0.08230226 -0.12595725
000100 41 5e 9d bd 27 30 e6 bc c6 16 c4 3d 59 87 13 bd
       -0.07683993 -0.028099133 0.09574656 -0.03601775
000110 ae 21 28 3d 0f ef 87 bc 87 d3 7b 3d 06 5d 02 bc
       0.041047744 -0.016593484 0.061481025 -0.007956749
000120 67 53 b3 3c 59 9a f5 bd 73 49 96 3b 99 ea e7 3d
       0.021890355 -0.1199233 0.0045863925 0.11324043
000130 b2 f5 31 3b 32 03 3a bc 48 c2 f4 bc 53 ac 29 3d
       0.0027154502 -0.011353301 -0.029877797 0.041424107
000140 ea c0 95 3d 84 4f 22 bd 77 15 24 3d 52 be 6f 3c
       0.07312186 -0.039626613 0.040059533 0.014632778
000150 49 4d 1f 3d 6c 98 99 bd c6 1e 0e bd cf df e5 bb
       0.038892064 -0.07499775 -0.034697317 -0.0070152055
000160 72 10 ae bd 75 4b 8e bc b6 37 ee bd d2 c9 b3 3d
       -0.084992304 -0.017369965 -0.1163172 0.087787285
000170 64 2d fe ba 1c 99 1e bd 0a 37 12 3d b4 f6 fb 3c
       -0.001939219 -0.038720235 0.03569702 0.030757286
000180 0c 0f 59 bc 62 5d 66 bd 28 92 b1 bd 7d a4 9f 3d
       -0.013248216 -0.0562414 -0.08670455 0.077950455
000190 69 d8 08 bd fc 69 72 bb 0e 55 69 3d 08 e2 b6 bc
       -0.03340951 -0.003698944 0.05696588 -0.022324577
0001a0 29 69 9b 3d 6b 21 f8 3c fc 6e 4b 3e 31 ec e2 3d
       0.07588417 0.030289372 0.19866556 0.11080206
0001b0 5c b7 a2 3d 28 d1 ee bc f1 9e 91 3d 1c 30 a3 bd
       0.07945129 -0.029152468 0.07110394 -0.079681605
0001c0 18 3b 23 3c 8d 56 a4 3b fa 85 d1 3b ca c5 9d 3d
       0.0099628195 0.0050152005 0.006394145 0.07703741
0001d0 32 89 4d 3b bb c7 cb bc e1 02 84 bd b2 34 cb bc
       0.0031362292 -0.024875512 -0.064458616 -0.0248054
0001e0 02 38 8f 3d e7 b8 0a bd bc 79 97 bd 6c 9e 2a bd
       0.069931045 -0.033867743 -0.07396266 -0.04165499
0001f0 12 d9 be bc 43 80 a4 3d 6a 06 d4 bc 0c 26 a6 bc
       -0.023296867 0.080322765 -0.025881965 -0.020281814
000200 3a bc 20 3d 4c dd 7a bd cb 44 e1 3b 1b e8 f6 bc
       0.039242007 -0.0612462 0.006874656 -0.030139973
000210 21 e5 3e bd d4 40 25 3d 9c 25 9c 3d c9 b4 54 bd
       -0.046605233 0.040345028 0.07624361 -0.051930223
000220 af 74 14 3d a8 38 47 bb 2e c6 b1 bc c2 03 1f 3d
       0.03624409 -0.003039876 -0.021700945 0.038821943
000230 7b 36 4a bd 1d 70 ba bd bf 0a 3b bd 0e eb 84 bc
       -0.049368363 -0.09103415 -0.045664545 -0.016225364
000240 ac a3 cf 3d cf a6 62 bd 57 10 0b bd 86 48 03 bd
       0.1013864 -0.055334862 -0.03395113 -0.032051586
000250 1a 46 1f 3c 09 af b8 3c d1 49 5a 3d 66 c1 80 bd
       0.009721303 0.0225444 0.053293053 -0.06286888
000260 e8 2e 27 bd cc b7 17 ba 4d a4 8e b9 0a 3b 55 bc
       -0.040816218 -0.0005787581 -0.00027206764 -0.013014564
000270 90 17 93 3d a7 4c 27 bd f6 b9 a6 3b 17 f7 8e 3c
       0.071822286 -0.040844586 0.0050880862 0.017451806
000280 18 f4 e2 bb 87 31 61 bc 6c 60 7f bd 7c 27 eb bc
       -0.006926071 -0.013744718 -0.062347814 -0.028705351
000290 8e 25 a5 3c 4c 77 00 bd a5 c1 5d bd db 1a f5 bc
       0.020159509 -0.03136377 -0.054139752 -0.029920032
0002a0 bb e4 15 3c 52 a3 31 3d df cb 3d bc 5a 55 58 3d
       0.009148772 0.043368645 -0.011584251 0.052815773
0002b0 50 34 44 bc 3b 59 09 be 08 9d c8 bd e6 67 a8 bc
       -0.011975363 -0.13412945 -0.09795576 -0.020557355
0002c0 87 5c 84 3d 7c e7 14 bd 43 c1 9c 3d bb 5d b5 3c
       0.06462961 -0.036353573 0.07654049 0.02213942
0002d0 64 3c d8 3d 91 57 93 3c fe 24 3b bd e5 76 06 bb
       0.105583936 0.01798609 -0.045689575 -0.0020517644
0002e0 dd be 51 3d fa 41 d6 3c b4 93 69 bc 66 eb 2c 3d
       0.051207412 0.026154507 -0.014256407 0.04221668
0002f0 24 77 d8 bc 32 a1 36 bb b0 90 ea bc 73 a2 da 3d
       -0.026423998 -0.0027867076 -0.028633446 0.10675516
000300 f4 8a 34 3d 73 bd e8 3b e4 df 26 3d e3 0a 42 bc
       0.04407783 0.007102662 0.040740862 -0.011843416
000310 6e 37 8d bb 3f 47 8f bc 30 23 06 3d 99 92 dc bb
       -0.0043095862 -0.017490027 0.0327484 -0.006731343
000320 7f 03 3b 3d 2d 8a b3 3a d4 07 c0 3b 16 0c b6 bc
       0.04565763 0.0013697796 0.005860308 -0.02222256
000330 50 b7 5f 3d c4 78 83 3d da ad 79 bd 2a 4b 99 3d
       0.05461818 0.064195186 -0.060956813 0.074850395
000340 0e 5d ec bb 05 d9 78 bd 8d 51 c4 3c fb e7 30 3c
       -0.0072132414 -0.06075384 0.023964668 0.010797496
000350 60 d2 1e bd 01 f1 05 bb 20 05 ca bb 45 70 57 3c
       -0.038774848 -0.002043784 -0.0061651617 0.013149326
000360 20 af 91 bd ee 63 84 b7 61 0b 2b 3d 28 da 86 3d
       -0.071134806 -1.578216e-05 0.0417589 0.06584579
000370 a9 4d d3 bc 84 8a a9 bd 0f 8f 15 bd 02 ab 06 3a
       -0.025793867 -0.08278373 -0.036513384 0.00051371765
000380 e7 cc b5 bc 7a f7 ca bc 5a d2 43 bc a9 b6 8b 3c
       -0.022192432 -0.02477621 -0.011952007 0.017054873
000390 6b 33 4a bd db dc 14 3d 7f f4 01 3d 70 35 13 bd
       -0.049365442 0.036343437 0.03172731 -0.035939634
0003a0 32 aa 07 3d 72 5a 07 3c ef c1 cd ba a3 22 e5 bc
       0.033121295 0.00826131 -0.0015698056 -0.027970618
0003b0 66 4c da 3d 3f fa 83 bd 4c 02 53 3d ef ad a5 bd
       0.10659103 -0.06444215 0.051515862 -0.08089816
0003c0 29 bb 2d 3d 92 aa da 3c b8 51 9a bd b4 fa 4e 3c
       0.042414818 0.026692662 -0.07535118 0.0126330145
0003d0 fc 6d d4 bc f9 f1 61 3d 84 e1 1d bc 9a f1 81 bd
       -0.02593135 0.055162404 -0.009636287 -0.0634491
0003e0 c8 15 6d 3c ba e5 84 bc 18 43 a8 bc d1 bf 39 3d
       0.014470525 -0.016222823 -0.020539805 0.045348946
0003f0 bd 18 d0 bd 45 bb 34 bd 3f e5 3e 3d 70 90 3e bc
       -0.101609685 -0.044123907 0.046605345 -0.011631116
