weights/just_and_cm.pt (torch, 4997 bytes, 1 tensors)

weight f4 [1, 768]
00000000: edca 6c3c f505 35bd 26ff 573b 34a5 f1bc
00000010: d8be 94bd 7323 89bd 6e75 393d 9c45 abbc
00000020: bf53 633c 844d d6ba 3053 aabc e252 a73d
00000030: e5c1 a53d dc52 91bd 12fc 7fbd ee23 8e3a
00000040: 7c2b a3bd 6b01 7d3c eb0b 4bbc 098a 1e3d
00000050: efc3 3a3d 1b10 413d f94d 15bd 6c70 8d3d
00000060: 1a1f bb3b 03c2 763d ceff 8ebd 1a47 6c3c
00000070: c768 313d cbba f73c 5eb3 203d e382 85bd
00000080: d7ea 4e3d 41ed 753d 6775 c93b b0d7 cebc
00000090: c9da c7bc a616 523d ceb6 13bb c5d4 423d
000000a0: 7935 87bd 1666 e1bc bf24 37bd 76be a43c
000000b0: 7aa0 6d3c ee22 273d 154e 50bd fe10 93bd
000000c0: 361c cd3c 6213 91bc d5ce f8bc eb30 a93d
000000d0: 9b16 de3d e1a9 d03c 4bd6 f6bd cba2 bcbb
000000e0: 9f8d 6abc 9ec9 873d 4c66 b7bb 2b52 e3bb
000000f0: 038d 99bc ee38 84bd 26d5 ba3d 27c6 b1bd
00000100: 045c 7ebd ee92 6d3c 112d f83c 2c3c c2bd
00000110: 92f9 5a3d 766c 6e3a 2a2d a83d 9008 003d
00000120: 490f a43c ba15 7bbd 35a7 3bbd f700 a23d
00000130: 40e1 293c 9e42 e53c 1c8d 9bbc 730a 0c3d
00000140: e886 a33d 53b8 debc 7b6a 803d d67e febb
00000150: d43a 043d cc6f 83bd a723 cc3c 4bbb 463d
00000160: 8012 09be 702c 5ebd b8b9 b6bd 8780 763d
00000170: 9268 bcbc d6e7 adbd b080 063d a608 9dbc
00000180: 937f afbb e778 86bd 9edc 51bd 60a9 0f3d
00000190: 5ad8 febc cab1 54bc bc80 7e3d 5805 2c3c
000001a0: 90cb 403d b2f0 c43b bce5 223e df5e e13d
000001b0: 96bb 923d 913a 3cbd 1806 993d 1d5b 45bd
000001c0: 7a0c 1fbc 6c61 dd3c ef59 313d a80c 213d
000001d0: c623 0cbd e9ae 26bd 991a 5cbd cf2b 87bd
000001e0: 5f1b 943d 3a64 f1bc 576e 50bd fea3 58bd
000001f0: 9a3c 293d 5e84 c03d b482 d3bc 22b7 9c3b
00000200: 429e 213d 8698 f9bc 180a 35bb 3bbc 21bd
00000210: 1125 83bd 85b6 1b3c 6d44 1b3c 3b34 49bd
00000220: b562 273a a767 8ebc e1c4 a8bc 54a5 e93c
00000230: b49b e9bc ba5f 97bd 4f99 e5ba 81b9 bcbc
00000240: 7547 d23d 58d0 a7bd aa18 97bd 6c3e 813a
00000250: 6b53 ec39 0207 9c3c 3ceb 023d 33de 49bd
00000260: 05e3 92bc fd1e 0f3d 5671 d83c 9ce1 ccbc
00000270: a1e2 933d 3779 18bd c47a c5bc 5903 0c3d
00000280: ac20 203d 5213 91bc 7739 8cbd 35be d83b
00000290: 5ba9 863d a1ec 74bc 9eb1 e5bb 5385 b2bc
000002a0: 384b 633c 5af0 623d 4dfb 1d3c c5e2 eb3c
000002b0: 964f f6bc 8785 30be dedb d4bd c739 fcbc
000002c0: f04b 443d 2bb5 853c bd90 c33d b4c8 80bc
000002d0: a9fc b13d 2e5e 603d d1f2 31bd d8ec b43c
000002e0: ded7 9f3d 0243 fd3b bc9e 08bd 982c 2a3d
000002f0: ecab 11bd 2b62 09bc 72b7 0e3b 17e4 bc3d
00000300: 9f6f 003d 987b 313d e4f9 cd3d 5060 0cbd
00000310: f42e 883c 261e 78bd 7095 793d afe3 b2bc
00000320: 24d7 043d 4340 03bd c798 2f3c ecf8 23bd
00000330: f21b ac3c 9d84 ac3d 4890 a1bd 26fc 7c3c
00000340: 8cfb 2aba 5e87 21bd 2594 c23c 6f28 c1bc
00000350: 2eff d2bd 6089 243b 008c 053b 574e 593d
00000360: ad19 a9bd 2fe6 52bc 4f29 a03d f356 ac3c
00000370: 87d4 d6bc f11c 05be 7daa e6bc 8370 2a3d
00000380: eb1e 8dbc f84f 073c 39dc 31bc 7757 da3b
00000390: fc54 94bd 48a8 333d 93f5 ac3c 37f1 82bb
000003a0: ded8 3e3c 99d2 0f3b 97d9 4e3d a1af 61bc
000003b0: 8a6d d93d 79ef 93bd e505 813d beb5 b5bd
000003c0: 0c02 723c 76cf 5d3a 33d9 70bc 8f9a 96bc
000003d0: b745 a3bd c7b3 bf3d f7f9 b8bc f1bc 55bd
000003e0: 43d8 9e3c e320 1f3d e713 5ebc 0f53 833c
000003f0: 835f d2bd 9dd9 cfbc d3a0 153d 9a36 85bd
0.014452678 -0.044195134 0.0032958477 -0.02949772 -0.07262963 -0.066962145 0.045278005 -0.020907216
0.013874947 -0.0016350006 -0.02079162 0.081701055 0.08093623 -0.07095882 -0.062496252 0.0010844448
-0.07967278 0.015442233 -0.012392978 0.03870586 0.045597013 0.0471345 -0.036451314 0.069062084
0.0057104947 0.060243618 -0.069823846 0.014421249 0.043312814 0.030240437 0.039233558 -0.06519105
0.05051693 0.060040716 0.0061480287 -0.025249332 -0.024396317 0.05129113 -0.002253938 0.047566194
-0.06601996 -0.027514499 -0.04471278 0.02011035 0.014503593 0.040804796 -0.050855715 -0.071809754
0.025037866 -0.017709438 -0.030372063 0.082612835 0.108441554 0.02547163 -0.12052592 -0.005756711
-0.014315992 0.06630252 -0.0055969115 -0.0069372854 -0.018743997 -0.06456171 0.09122686 -0.08680373
-0.06209947 0.014500363 0.030294927 -0.09484133 0.053460665 0.00090951414 0.08211739 0.031258166
0.02002682 -0.061300017 -0.045813758 0.0791034 0.010368645 0.027985867 -0.018988185 0.034189653
0.07984716 -0.027187502 0.062703095 -0.007766585 0.032282665 -0.06417808 0.024919344 0.04851846
-0.13385963 -0.054241598 -0.08922142 0.060181167 -0.022999082 -0.08491485 0.03283757 -0.019169163
-0.005355784 -0.06566029 -0.051235788 0.035073638 -0.031109024 -0.012981841 0.06213449 0.010499321
0.047069132 0.0060101384 0.15907949 0.11004423 0.071646854 -0.04595429 0.074718654 -0.048182596
-0.0097075645 0.027023993 0.043298658 0.03931871 -0.034213804 -0.04069415 -0.053736303 -0.06600153
0.07231783 -0.029466737 -0.05088648 -0.05289077 0.04131756 0.09400247 -0.02581916 0.0047825733
0.039457567 -0.030468237 -0.0027624425 -0.03948615 -0.06403554 0.009503965 0.009476763 -0.049122076
0.0006385253 -0.01738341 -0.020601692 0.028521217 -0.028516628 -0.07391305 -0.0017517003 -0.023037674
0.102675356 -0.08194035 -0.07377751 0.0009860522 0.0004507558 0.01904631 0.03196262 -0.04928417
-0.017930517 0.034941662 0.02642123 -0.025009923 0.072209604 -0.037224974 -0.02410639 0.03418288
0.03909366 -0.017709408 -0.06846898 0.0066144713 0.06575271 -0.014948995 -0.007009699 -0.02179209
0.013872914 0.055405 0.009642434 0.028794656 -0.030067246 -0.17238437 -0.10393499 -0.03078927
0.047923982 0.01632174 0.09549091 -0.015720703 0.08690769 0.054777317 -0.04344446 0.022085592
0.07804845 0.007728935 -0.033354506 0.041546434 -0.035564348 -0.0083852215 0.0021776822 0.09223192
0.03135645 0.04333076 0.100574285 -0.03427154 0.016623951 -0.060575627 0.06093353 -0.021837084
0.032431737 -0.032043707 0.010717577 -0.040032312 0.02100942 0.084237315 -0.078888476 0.015440976
-0.0006522469 -0.039435737 0.023752281 -0.02357885 -0.10302578 0.0025106296 0.0020377636 0.053053226
-0.082568504 -0.012872263 0.07820379 0.021037554 -0.026224388 -0.12999322 -0.028157467 0.041611206
-0.017226657 0.008258812 -0.010855728 0.0066632587 -0.07242772 0.043861657 0.021113193 -0.00399604
0.011648385 0.0021945594 0.05050048 -0.013774783 0.10616596 -0.0722341 0.062999524 -0.08872555
0.014770996 0.0008461395 -0.014700222 -0.018384246 -0.079722814 0.09360462 -0.02258013 -0.05218214
0.019390231 0.038849723 -0.01355455 0.016030816 -0.10272124 -0.02537232 0.036530327 -0.06504555
